checkpoints/model1_final_epoch_10.pt (torch, 518855 bytes, 33 tensors)

network.0.weight f4 [100, 3]
000000 0f f9 19 bc c8 8a a9 bb 9b a3 13 3e 59 54 b5 bd
       -0.009397759 -0.0051740147 0.1441788 -0.08853979
000010 00 dc 2f 3e 0b cb 9e 3b 72 72 ac bc ac a2 e6 3b
       0.17173767 0.004845982 -0.021050666 0.007038435
000020 26 85 ac 3d 68 ee b1 3a 48 93 2a 3d e1 79 15 be
       0.084238335 0.0013575079 0.041644365 -0.14597274
000030 fe 0e 43 3e 60 6b 94 3c ff 53 e0 3d b7 b0 5f bc
       0.19048688 0.018117607 0.10953521 -0.013652972
000040 51 3c de bd f4 b3 3e 3b 1d 0c a2 bc 2e ed 4d 3c
       -0.10851348 0.002909896 -0.019781167 0.012568755
000050 51 c1 29 3d 55 de 1d be 4b 74 2d be fd 3a 47 3c
       0.041444127 -0.15416844 -0.16938893 0.01216006
000060 62 dd 37 be 9c 4b e8 3d ad b0 b9 3d bb 18 23 bd
       -0.17955545 0.11342546 0.09066901 -0.039818507
000070 1c 15 4c be 32 35 6d 3e e0 f7 21 bd 1f 9f f2 3c
       -0.19929928 0.23164824 -0.039543033 0.02961689
000080 fc 20 45 3d a8 70 2c bd 55 d0 1d be 1a c4 4c bb
       0.04812716 -0.042099625 -0.15411504 -0.0031244815
000090 f8 6a ed 3d 76 f9 b9 bd 06 0b c1 bd f7 ce 51 3d
       0.11592668 -0.09080784 -0.09425931 0.051222768
0000a0 44 95 04 3c b6 9f 98 bd e7 b4 3f be c1 aa 38 3e
       0.008092228 -0.074523374 -0.18721353 0.18033887
0000b0 68 cf 99 bd 22 60 4d 3e b6 f8 bd bc 3c 06 03 3e
       -0.07510263 0.20056203 -0.023189884 0.12795347
0000c0 11 ab 04 be 4f 24 23 3e 4e 0f 4c be 68 e0 4f bc
       -0.12955882 0.1593182 -0.19927713 -0.01268778
0000d0 52 f6 64 be 5d c1 c8 bd da 2f 8a bd 41 64 b1 bd
       -0.22359589 -0.09802506 -0.06747408 -0.086617
0000e0 e5 1f 17 3d d7 21 1c 3d 9c 7d ba bc e1 5d 5c 3c
       0.03689565 0.03811821 -0.022764973 0.013450117
0000f0 6b 38 10 be d2 41 e9 3b 38 18 81 3c 08 f0 bf bd
       -0.14084022 0.007118442 0.015758619 -0.09371954
000100 cc 7e 12 3d a1 a1 5f be f1 6a 88 bd 85 da f0 3d
       0.035765454 -0.21839 -0.066610225 0.11760429
000110 47 cf 19 be 5b 43 0b 3d 4c 10 03 be d7 2f 5a 3e
       -0.15020476 0.033999782 -0.12799186 0.21307312
000120 0b 35 a7 3e 36 8a 0f 3e ad dc 4b be 16 c2 f4 bc
       0.32657656 0.14017567 -0.199084 -0.029877704
000130 d7 4e 3c be fd 1e 0c be 6a 35 40 3e 9f c4 91 3d
       -0.1838945 -0.13683696 0.18770376 0.071175806
000140 b4 99 40 be f5 c6 47 3e 26 54 09 be 34 7c ac bd
       -0.18808633 0.1950949 -0.13411006 -0.08422127
000150 82 2a 44 be ff 28 18 be 67 a7 80 3d 9a e4 85 bc
       -0.1915684 -0.14859389 0.062819295 -0.016344357
000160 17 99 d7 bc d7 f3 96 bc 34 bf e2 bd 64 83 16 be
       -0.026318116 -0.018426819 -0.11071625 -0.14698559
000170 26 d9 e8 3c 7b 66 c0 3c d5 f8 b8 bd 09 4d d9 3c
       0.028423857 0.023486366 -0.09031836 0.026525991
000180 96 6b e2 bd 45 6c 8d bd 02 a4 88 b7 de 66 2f 3e
       -0.11055677 -0.069054164 -1.6288835e-05 0.17129084
000190 96 9b 1a be ff e1 06 bd d4 d0 3c 3e 01 77 13 bd
       -0.15098414 -0.03293037 0.18439037 -0.036002163
0001a0 63 cd b4 3d 1b 63 1c 3d 4c 9e dc 3c 38 2c 4b 3e
       0.08828237 0.03818045 0.02693095 0.19841087
0001b0 68 07 e2 bc 0d c2 c0 3c c9 02 52 be d7 30 26 3e
       -0.027591422 0.02353003 -0.20508875 0.16229568
0001c0 3c 58 08 be d5 67 c1 b9 7d 35 bb bd 1a a7 59 be
       -0.13314909 -0.0003688919 -0.091410615 -0.2125515
0001d0 07 1e 9d bd 53 4b cb 3d 5a f9 fc bc 93 d2 c3 bd
       -0.07671743 0.09926476 -0.030880619 -0.09561648
0001e0 53 fa 36 3d 26 94 1a 3e 41 bd 99 bd 6c ee dc bd
       0.04467232 0.15095577 -0.075068004 -0.10787663
0001f0 3e 86 12 bd 61 f7 2b bd b0 72 16 be 54 06 72 3e
       -0.035772555 -0.041983966 -0.14692187 0.23635226
000200 34 1c 3f be 8c 23 1b 3e 60 11 f9 bd fd 3d 90 bb
       -0.18663102 0.15150279 -0.12161517 -0.004401921
000210 1a bc ca 3d 93 ed 73 3d 2f 10 b9 3d 34 be 31 3d
       0.09899159 0.05955274 0.0903629 0.043394282
000220 6a 87 3f be 40 b9 98 3e 2c e0 2d be bb c0 df 3c
       -0.18704 0.29828835 -0.16980046 0.02731358
000230 bb 83 e2 bd 61 f7 a8 3d 05 9a 58 bd b3 38 ed bc
       -0.11060282 0.08250309 -0.05288126 -0.0289577
000240 db 74 95 bd d8 15 e3 bd 52 1d 65 3c 8a 01 7f 3d
       -0.07297679 -0.11088151 0.013984041 0.062257327
000250 2a 50 a5 3d 48 50 bf 3e a7 f7 fa bd 24 93 6f 3d
       0.08071931 0.37365937 -0.12254267 0.058489934
000260 e7 b8 9f bd 55 56 d3 3e 7e af 1b 3d 95 ae 3c be
       -0.07798939 0.41276804 0.03800916 -0.18425973
000270 22 40 79 bd 6c ed 1c bd da a6 e5 bd ff 3c ae ba
       -0.060852177 -0.03831236 -0.11213465 -0.0013293325
000280 61 e8 fe 3d 69 01 d9 3e 3e 10 82 3e 6c ed b8 3d
       0.124466665 0.42383888 0.25403017 0.0902966
000290 45 36 49 be a1 b1 0b be 4e 03 1a 3e 90 08 12 be
       -0.19649608 -0.13641979 0.15040323 -0.14261079
0002a0 3d e2 4d 3e 0a 79 fb bd 3b d0 b6 3d 65 52 0b 3e
       0.20105834 -0.12278946 0.089264356 0.1360565
0002b0 e8 0e f3 3d a7 11 37 3e 9b 75 2a be e8 58 53 bd
       0.118680775 0.17877828 -0.16646425 -0.05159846
0002c0 d7 ec 8f bc 21 a6 93 3d 73 39 08 be 98 dc dc 3c
       -0.017568989 0.07209421 -0.13303165 0.026960656
0002d0 97 19 41 be a2 9e c6 ba d0 8c 93 3d 69 03 e5 bd
       -0.18857418 -0.0015153477 0.07204592 -0.11182291
0002e0 8b d2 8f bd 39 9a 89 be 3f 88 1d 3e a0 f8 a4 3b
       -0.0702258 -0.26875475 0.15384005 0.005034521
0002f0 8a b7 a5 3e e9 66 2e bd 07 c5 d2 bd 30 5a b7 be
       0.32366592 -0.04257861 -0.10291486 -0.35810995
000300 b0 fa cb 3d 23 f6 52 be 4f 9a 52 be a9 c1 25 bd
       0.09959924 -0.20601706 -0.20566677 -0.04046789
000310 85 9d e5 3d 3e c6 47 3d ae 75 50 bd 93 8e 94 3d
       0.11211685 0.048773043 -0.050893478 0.072537564
000320 b4 c5 a0 bd ca c7 fe 3d bb ea 58 3e 14 1e 3b 3b
       -0.07850209 0.124404505 0.21183293 0.0028551864
000330 35 c8 4c 3d e4 82 5f bd 72 9b 2d 3c 4e da 56 be
       0.04999562 -0.054568186 0.010596143 -0.20981714
000340 6e c5 8b 3e ad 21 84 3e 59 e9 4b 3e 98 13 bf 3c
       0.27299064 0.25806943 0.19913234 0.023324773
000350 ee f8 e7 3d df 57 88 be 20 b7 4d 3d ae 54 a0 be
       0.113267764 -0.2662954 0.05022347 -0.31314605
000360 66 fd 5b 3e d9 f5 4e 3d e0 bf 86 bd c6 71 0e be
       0.21483383 0.050527427 -0.06579566 -0.13910589
000370 fb bf 18 3d e4 c0 c4 be 40 55 0b 3e 84 48 2e be
       0.03729246 -0.38428414 0.13606739 -0.1701985
000380 09 01 21 3e 9d 36 d2 3d bb cb 9c bd 93 22 78 bd
       0.15723051 0.10264323 -0.07656046 -0.060579848
000390 c6 09 6e 3e e1 27 b9 bd fc fa b1 3c d9 d4 0e bd
       0.23245916 -0.090408094 0.021726124 -0.034870956
0003a0 9e 55 b2 bd 30 0f da bc b5 6e 11 be a7 6b b9 bd
       -0.087077364 -0.02661857 -0.14202388 -0.09053736
0003b0 ef a0 d5 3d 79 85 d2 3c 51 7a 0b bf 71 a7 bd 3d
       0.10431086 0.02569841 -0.54483515 0.092604525
0003c0 92 26 a6 3d e2 a0 0c 3e 17 58 c2 bd fc 34 e8 bd
       0.081128255 0.13733247 -0.09489458 -0.11338231
0003d0 ef 5b a6 bd b8 01 89 3c 10 98 62 bd 06 1e 3f bd
       -0.08123004 0.016724452 -0.0553208 -0.046659492
0003e0 5c 34 c0 3d 4a 59 d9 3b e3 51 b7 3d 40 cb 58 3d
       0.09384987 0.0066329585 0.089511655 0.05292821
0003f0 eb 95 54 be eb 33 48 3e e0 58 d4 bd e5 e4 b4 3d
       -0.20760314 0.19551055 -0.10368514 0.08832721

network.0.bias f4 [100]
000000 e5 52 40 b8 9c 37 c5 ba 83 fb 27 ba 67 80 5d ba
       -4.585357e-05 -0.001504648 -0.00064080226 -0.00084496144
000010 98 a5 1f 3a 48 42 8c b9 b9 bc 5c 3a e4 25 07 3c
       0.0006090044 -0.00026752264 0.0008420456 0.00824878
000020 db 6e b5 ba 74 a0 31 ba f8 d0 8e ba c6 13 7c bb
       -0.0013842242 -0.00067759235 -0.0010896018 -0.0038463934
000030 30 1e 48 3b d7 4d a3 39 9d 2e 8e ba 14 d4 c3 bb
       0.0030535571 0.00031147778 -0.0010847632 -0.0059762094
000040 8e c9 4f b8 4c eb f5 3a 75 26 9e 3a 9f 92 d9 ba
       -4.954036e-05 0.001876214 0.0012065904 -0.0016599483
000050 59 ce 8b 3a cd cd c9 3a 87 30 ce 3a 04 26 07 39
       0.0010666355 0.0015396416 0.0015731015 0.00012888765
000060 b5 d0 cd 39 33 18 6e ba 81 f6 a2 bb 50 33 37 ba
       0.00039256146 -0.00090825855 -0.004973233 -0.0006988542
000070 91 df 74 3a e8 a3 a5 ba cb d1 99 3a b8 31 28 3b
       0.00093411753 -0.0012637349 0.0011735497 0.00256644
000080 fb 75 aa 3a be 79 a5 b9 46 4a 96 3b a1 91 0a ba
       0.0013005132 -0.00031561957 0.004586491 -0.00052859826
000090 ea 27 9c b9 b1 20 61 ba 07 94 b2 39 30 37 16 ba
       -0.00029784377 -0.000858794 0.00034061095 -0.00057302695
0000a0 25 a9 9f 3b 67 e6 aa ba d9 a9 09 3a d4 f7 b7 3a
       0.0048724585 -0.0013038636 0.00052514445 0.001403565
0000b0 1f 2f 13 3a 32 a9 ab ba 1e 34 bd b6 17 d8 1e ba
       0.00056146266 -0.0013096689 -5.638706e-06 -0.00060594216
0000c0 09 5c 48 ba 24 de fc b8 be 06 ee 39 34 41 ef bb
       -0.0007643109 -0.00012057673 0.0004539992 -0.007301474
0000d0 32 4a bc ba 8e a9 8a ba 51 cf 0b bb dd 45 7b 39
       -0.0014365374 -0.0010579096 -0.0021333287 0.00023963251
0000e0 ce fb 54 b8 c8 fd bd 39 91 9f 55 3a 1c e2 db ba
       -5.077925e-05 0.0003623797 0.00081490824 -0.001677576
0000f0 15 84 8c ba 60 4e e7 b9 0f 8b e4 38 ac 3c 2b 39
       -0.0010720516 -0.00044118147 0.00010897789 0.00016330433
000100 78 6e 05 3a e0 7e 8e 38 ac de 0c 3b 9a 31 bf ba
       0.00050900085 6.79472e-05 0.0021495027 -0.0014586926
000110 ca a9 a6 39 98 90 10 bb cb ec cb 3b 6f aa 8e ba
       0.0003178849 -0.002205884 0.0062232963 -0.0010884533
000120 5c 0b dc bb 90 95 2c b9 3a 0b 25 b8 c1 40 00 3b
       -0.0067152213 -0.00016458915 -3.934952e-05 0.0019569846
000130 af f4 40 bb 6e 25 6b 3a f4 76 85 3a 35 8e 65 ba
       -0.0029442718 0.0008970116 0.0010182546 -0.0008756847
000140 f8 62 ef 39 20 79 ed b7 96 4e 04 3c f9 c2 eb 39
       0.0004565937 -2.8309005e-05 0.008075377 0.0004496796
000150 2d fa 37 3a 8c 31 c5 39 fe d7 0f 3a a8 27 a0 ba
       0.0007018175 0.00037611683 0.00054872024 -0.001221885
000160 9a 9b 43 ba 3f 16 1c bb 24 83 01 bc 42 66 b3 3a
       -0.0007461846 -0.002381697 -0.0079048015 0.0013687091
000170 a9 ed 60 ba e5 f2 97 3b f9 dd 22 3a 9e a6 6a bb
       -0.0008580336 0.0046371096 0.0006212886 -0.0035804878
000180 4e f8 3a 39 75 3a 66 bb a3 3f 3d b9 1a 5c 3f 3a
       0.00017830843 -0.0035130058 -0.00018048151 0.0007299796

network.2.weight f4 [100, 100]
000000 db ef 91 bd 6c 79 f4 bc 4f a8 1b bd dd 2e 85 3d
       -0.07125827 -0.029843055 -0.03800231 0.06503079
000010 76 2e a2 bd 39 bc 9f 3c 94 8b d3 3d 28 9a 50 3d
       -0.07919018 0.019498931 0.10329357 0.050928265
000020 61 6d 16 be d8 28 91 bd 38 d6 75 bd 93 10 04 bd
       -0.14690162 -0.070878685 -0.060018748 -0.03224237
000030 4c 6c 80 3d 47 c8 73 bd f3 2b cb bd 82 27 19 3e
       0.06270656 -0.05951717 -0.09920492 0.14956477
000040 8b 6c a7 3d f3 96 62 bd 3e c5 10 be 4b 44 52 be
       0.08175 -0.055319738 -0.14137742 -0.20533864
000050 c7 25 d0 bd 52 1a 1d be 86 e7 93 bd 29 18 5c bd
       -0.101634555 -0.15342072 -0.07221894 -0.05373398
000060 54 37 ae bc 50 37 c4 3d 0d 46 ce bd 9f e7 24 be
       -0.021266617 0.095808625 -0.10071955 -0.16103981
000070 29 0c 05 bc 30 ed af bd 84 ba 93 3d 70 48 0a be
       -0.008120575 -0.08590162 0.072133094 -0.13504195
000080 0f cb 0f 3d 2a b8 c3 bd 40 44 d8 bd 0b 21 dc bc
       0.03510576 -0.09556611 -0.10559893 -0.026871225
000090 cd d0 b5 3b 3c eb 52 bc df 4e 99 3b c1 5f c4 3d
       0.0055485726 -0.012873467 0.0046785916 0.09588576
0000a0 57 f7 71 3e 53 65 5b bd c1 19 2b 3d e3 cf b1 bd
       0.23629509 -0.053563427 0.041772608 -0.08682229
0000b0 ca 54 28 bd 6e c6 8b 3e e3 4a 44 bd cb b6 88 3e
       -0.041096486 0.27299827 -0.04792298 0.2670196
0000c0 79 f2 36 be 55 3a 02 3e 0b 70 45 bc fb 21 50 3d
       -0.17865933 0.12717564 -0.012050639 0.050813656
0000d0 02 18 21 bc cf bd 1c 3d b6 b7 dc bc 2e b4 0b be
       -0.009832384 0.038266953 -0.026943069 -0.13642952
0000e0 09 af 93 bd df c1 d5 bd f8 60 83 3e 18 75 ad 3d
       -0.0721112 -0.104373686 0.2565992 0.084695995
0000f0 42 6e 73 3e 2f 75 30 bd 4f 4b 0f be a8 6b 3c bd
       0.23772529 -0.043080505 -0.13993572 -0.046001107
000100 ad 50 33 3e d2 42 41 be 19 e8 43 3c b6 d7 ee 3b
       0.17511244 -0.18873146 0.011957192 0.0072888983
000110 29 43 56 bd 3d 43 e4 bd a2 a7 b7 bd e5 03 af bd
       -0.052310143 -0.11145637 -0.0896752 -0.08545665
000120 0d 7a 89 bd 2f 95 c4 3c e9 7b 57 bc 28 2d 88 3d
       -0.067127325 0.023996918 -0.013152101 0.06649238
000130 ff b3 9b 3d 68 0b c5 3c 9e ac 57 3c f5 1e 94 bd
       0.07602691 0.02405329 0.013163714 -0.07232467
000140 e2 46 11 bd a2 6e 7d bc 42 75 a6 3c 3a fc 13 be
       -0.03546799 -0.015468271 0.020319585 -0.14451686
000150 76 dd 75 bd 4b 0a fe bc b3 20 60 3d 28 44 42 be
       -0.060025655 -0.031010767 0.054718684 -0.18971312
000160 0c 84 4a 3e d3 cc 1e 3d 8e 49 02 3e 40 d6 d5 3d
       0.19776934 0.038769554 0.12723371 0.104412556
000170 c2 89 1f be 45 df 20 bd 54 20 02 bc c0 56 bf 3c
       -0.15579894 -0.039275426 -0.007942278 0.023356795
000180 26 87 55 bc bc 54 6d 3b 92 a9 29 be 33 2a aa bd
       -0.01303271 0.0036213836 -0.16568592 -0.0830883
000190 8b 80 3b be 18 74 8e bc 65 4e 9d bd 9d 93 91 be
       -0.18310754 -0.017389342 -0.07680968 -0.28432932
0001a0 54 99 0e bd 29 6a 0f be 75 fd 02 3d 7a 97 fe 3d
       -0.034814194 -0.1400534 0.031979997 0.124312356
0001b0 b2 a7 0e bd d1 4d 9a 3c c4 8e 51 3e 39 44 8b 3d
       -0.034827895 0.018835934 0.20464617 0.06800122
0001c0 33 9e 72 bd 46 27 97 bd df 93 05 3e 0d 49 7c 3d
       -0.0592329 -0.07380538 0.1304469 0.061593104
0001d0 8b 80 cb bc 18 bd 99 bd 31 d0 15 be a3 db 12 3e
       -0.024841568 -0.0750677 -0.146302 0.14341597
0001e0 4e 21 68 3d 34 34 c6 3c ba 28 83 bd b4 5d 50 bd
       0.056672387 0.024194814 -0.06404252 -0.050870612
0001f0 08 33 57 be 5e bb 17 be 4d 0a dc bd 0b 46 66 3d
       -0.2101556 -0.14817569 -0.10744152 0.056219142
000200 41 00 c2 bd d6 e0 f2 3d db 93 c7 3d 74 d4 d4 bc
       -0.09472705 0.1185929 0.09744998 -0.025980212
000210 5c 10 4f bd a5 6c b1 3d e6 fe 7b 39 eb 8f 1f 3d
       -0.05055271 0.086633004 0.00024032182 0.03895561
000220 b3 7a 27 3e 35 96 95 bc e3 0c 62 3d 4a a0 f1 bc
       0.163554 -0.0182601 0.05518807 -0.029495377
000230 ba 2e 06 be 16 f8 fe 3d 64 bb 0b 3e b6 df 92 be
       -0.13103762 0.124496624 0.13645703 -0.28686303
000240 cc 58 f4 3d b7 fd d5 3d d0 94 fe 3d 35 0c 0e bd
       0.11930999 0.10448783 0.124307275 -0.03467961
000250 84 8c 3d 3e 34 1e 6b 3d d9 b4 92 3d 20 a1 c9 bd
       0.18510634 0.05740185 0.071634 -0.09845185
000260 8a 5f ba 3d ab 72 a9 bd 55 13 5a 3c 59 16 c7 3d
       0.09100254 -0.08273824 0.013310273 0.09721059
000270 3e ae ef bc ea ec c3 bc 5a e0 35 be c5 fc a0 bc
       -0.02925789 -0.02391668 -0.17761365 -0.01965178
000280 20 6e 39 bd ac 7c 14 be 11 55 07 be 10 41 38 3c
       -0.04527104 -0.14500684 -0.13216044 0.011245981
000290 f1 65 07 bd 38 2e 5d 3d 98 7c be 3c 5f 10 99 3d
       -0.033056203 0.053999156 0.02325277 0.07473826
0002a0 4a 3d b3 bd a9 85 27 bd 62 54 a3 bb 04 b1 10 3d
       -0.08751924 -0.040898953 -0.0049844244 0.035325065
0002b0 9e 89 24 3e 88 2e d9 bd 6c e7 93 bb 76 a3 5c bd
       0.16068122 -0.10604578 -0.0045136716 -0.053866826
0002c0 19 6f f6 bc a4 9a 9e 39 45 65 32 3d ad 94 91 3c
       -0.030082272 0.00030251325 0.04355361 0.01777109
0002d0 28 4d 4c bd e1 1c dc 3d 12 c3 68 bd aa 4c 92 3b
       -0.04987827 0.10747696 -0.05682666 0.0044647055
0002e0 9a 09 7b be e1 61 3a 3e 74 3e d9 bd c9 ec 20 3d
       -0.24515381 0.182014 -0.10607615 0.039288316
0002f0 df 3d e8 bd 9e b3 96 3b ba 68 08 be 1f ef 1c be
       -0.11339926 0.0045990488 -0.133212 -0.15325592
000300 69 3d 20 bd 34 8c 99 bd 32 17 a3 bd 8c 48 82 3c
       -0.039121065 -0.07497445 -0.079634085 0.015903734
000310 08 7c 82 3d c2 ed 0a be e6 40 04 3e 61 f2 7c be
       0.06371313 -0.1356726 0.12915382 -0.24701835
000320 b9 af 1e be 0d 80 82 bc 79 52 b3 3d 08 e0 b4 3d
       -0.1549672 -0.0159302 0.08755965 0.08831793
000330 b2 37 55 bd 1f 37 02 3e 1d dd 5b 3e d3 64 f1 bc
       -0.05205507 0.1271634 0.21471067 -0.029467022
000340 d9 58 06 be 6d b6 08 bd ea b8 06 3d 05 a7 2c 3e
       -0.1311983 -0.0333771 0.03289119 0.16860588
000350 86 40 da bd 53 41 03 bd f7 32 15 bd d7 fa 9a be
       -0.10656838 -0.03204472 -0.036425557 -0.302695
000360 37 3d a8 bd 31 73 4c bd 99 a4 97 bc 79 03 8a bc
       -0.08214801 -0.049914543 -0.018511103 -0.016847359
000370 46 55 17 3e 79 02 c7 bd 3b 84 78 bd eb 67 df bd
       0.14778623 -0.097172685 -0.06067298 -0.10908493
000380 77 f7 b7 bc 55 9c 85 bd 68 3b 22 be 4d 85 57 bd
       -0.022456868 -0.065239586 -0.15842974 -0.05261736
000390 c5 50 49 3b 75 90 da bd b1 8c 78 3b 04 73 19 3e
       0.0030718308 -0.10672084 0.0037925655 0.14985281
0003a0 90 af af bd d1 9f d2 3d e0 02 59 3d d1 03 b2 bc
       -0.08578408 0.10284389 0.052981257 -0.021730335
0003b0 59 0a f0 bd 69 21 bb 3d 11 d4 81 3d 35 68 cc 3d
       -0.11720724 0.09137232 0.063392766 0.099808134
0003c0 06 f6 a8 3d 52 db 05 3e b0 75 ea bb 0b 95 71 bc
       0.0825005 0.13071945 -0.0071551427 -0.014745007
0003d0 a4 bd 14 3d 61 49 60 bd 42 83 50 bd fc ea e0 3d
       0.036313668 -0.05475748 -0.050906427 0.1098232
0003e0 9d b0 84 bc e9 02 83 bc 9f c9 42 3d 66 ae e3 bd
       -0.016197497 -0.015992599 0.047555562 -0.11117248
0003f0 f2 9a 69 bd fc 16 73 bd 17 da 0a bd b3 c8 12 be
       -0.057032533 -0.05934809 -0.033899393 -0.14334373

network.2.bias f4 [100]
000000 b2 86 fe 3b 3e 5e ef ba 87 67 c7 bb 7a 60 b1 bb
       0.007767522 -0.0018262339 -0.0060853395 -0.005413112
000010 23 27 46 ba af 8a 9b b9 dc 76 88 b8 65 21 28 b5
       -0.00075589324 -0.0002966723 -6.5071246e-05 -6.263347e-07
000020 0e 58 a2 bb e1 f1 ae b9 d0 64 78 39 c9 d8 f5 ba
       -0.0049543446 -0.0003336808 0.00023688679 -0.0018756624
000030 f9 21 21 ba c4 d7 8f 3b 10 86 8c ba 13 96 18 3b
       -0.0006146725 0.004389735 -0.0010721106 0.002328281
000040 70 a2 07 39 ca 53 33 38 fb 35 1c bc 7e 75 81 ba
       0.00012935116 4.275496e-05 -0.009534354 -0.0009876934
000050 da 58 1c 3a fb a7 3a 39 5c bf 5c ba 30 07 9d 38
       0.00059641676 0.0001780092 -0.0008420849 7.487682e-05
000060 98 65 6a b9 a1 d7 e0 bb 57 0e a4 3a 75 55 ea 39
       -0.00022353826 -0.0068616425 0.0012516481 0.00044695628
000070 86 2a 8f b9 56 2e b5 38 17 3c 05 3a de b0 c2 39
       -0.00027306768 8.639383e-05 0.00050825014 0.0003713434
000080 52 b1 fd b8 14 15 6d b9 29 0f 90 3b 35 12 40 3a
       -0.000120970086 -0.00022609934 0.0043963385 0.0007326932
000090 27 64 1f ba 52 29 83 39 f7 46 29 bb 14 1f 99 b9
       -0.00060802925 0.00025017053 -0.0025829652 -0.0002920559
0000a0 a2 98 88 b9 09 c0 37 3a 74 21 b4 3a f5 ee 9a 39
       -0.00026053662 0.00070095115 0.001374288 0.00029551206
0000b0 a4 58 8a b9 e3 21 9e 3a 32 d2 66 ba 36 88 e4 b9
       -0.00026387454 0.0012064542 -0.0008805125 -0.00043589034
0000c0 6b 16 00 39 43 1c 84 38 ef 6d 18 bb 79 fa ec bb
       0.00012215383 6.299515e-05 -0.0023258885 -0.007232007
0000d0 a9 cb f4 b9 8e d2 27 39 e0 46 5c b9 f6 85 6e bb
       -0.00046691045 0.00016004799 -0.00021007238 -0.0036395765
0000e0 c5 d3 a3 b8 98 9c b7 ba 2b 97 71 bb 85 4d b7 ba
       -7.811891e-05 -0.001400846 -0.0036863785 -0.0013984895
0000f0 ce ad d8 b9 c1 97 f1 39 d3 2f 67 ba dd f1 54 ba
       -0.00041328225 0.00046080168 -0.0008819077 -0.00081231986
000100 d5 f8 c2 ba 33 aa 21 ba 67 95 61 39 8c 2e 9a 38
       -0.0014875183 -0.0006167024 0.00021513329 7.351962e-05
000110 2e 77 1c ba de 1e ee 3a c5 9d 8f 39 26 16 9b b9
       -0.0005968687 0.0018167158 0.00027392633 -0.00029580406
000120 8b d8 16 39 8f e2 72 bb 9f 65 93 3a a5 f2 88 ba
       0.00014385783 -0.003706131 0.0011245495 -0.001044829
000130 d1 c5 8b b9 65 97 cc ba c4 9c 0c b8 88 16 99 3a
       -0.0002665953 -0.0015609084 -3.35246e-05 0.0011679688
000140 ce e6 ff 39 90 c0 71 bb a2 fa bf b8 12 9c 4c 3a
       0.00048809353 -0.0036888458 -9.154274e-05 0.0007805239
000150 99 4f 34 3a de 8e 40 ba 1e ef 95 39 11 b4 20 3b
       0.0006878316 -0.00073455076 0.0002859765 0.002452139
000160 92 f4 98 b9 6b 1d b3 3b c8 05 85 b9 2c 89 34 3c
       -0.00029173918 0.0054661534 -0.00025372044 0.011019032
000170 f2 e8 1d bb 28 91 a4 b8 cd 0d aa b9 e4 f8 8f b9
       -0.0024095145 -7.847167e-05 -0.0003243521 -0.00027460523
000180 52 77 2c 3a 35 68 c0 b9 69 3e 1d ba d3 61 7a 39
       0.00065790594 -0.00036698734 -0.00059983745 0.000238783

network.4.weight f4 [100, 100]
000000 62 04 09 3b 93 43 00 3e 2f 4a 63 3e ff f5 7f 3e
       0.0020907153 0.12525778 0.22196268 0.24996184
000010 3b 83 89 3d 7e d3 28 bd 12 d1 b2 3d 8a 4f 6f bd
       0.06714483 -0.04121732 0.08731283 -0.058425464
000020 d0 89 93 bc ec 1d 00 be aa 25 29 3e 56 7a 8f 3e
       -0.01801005 -0.12511414 0.16518274 0.28023022
000030 e1 32 07 bd 48 5a c9 3d f3 91 4b 3e ea f3 ce bd
       -0.033007506 0.09831673 0.19879894 -0.10105117
000040 74 e5 e5 3d 2b 90 5c 3d b5 33 4c 3d d5 6e 05 be
       0.11225405 0.053848427 0.049854 -0.1303056
000050 88 94 b1 bd a3 01 1b bd 73 6d 34 3d bd 02 b6 bd
       -0.08670908 -0.037843358 0.04404969 -0.08887241
000060 fd 98 cb 3c 97 ac 8f bd 88 03 b4 3c 69 d3 08 bd
       0.024853224 -0.07015341 0.02197434 -0.03340474
000070 ea 1d 3c bd 20 31 11 3d ed 5d cf 3d 6a 9e 85 3d
       -0.045926966 0.03544724 0.10125337 0.06524356
000080 09 4a ba bd 18 bb 92 3b 8f 50 a0 3d e4 ef d1 bd
       -0.09096152 0.0044778697 0.07827865 -0.10250834
000090 50 9c 9a 3d f1 3b 97 bc 75 54 6e bd 25 d8 37 bd
       0.075493455 -0.0184612 -0.058186013 -0.044883866
0000a0 27 0f a6 bd 1c c5 f0 3d c7 b7 7e bd 5a 86 fa bd
       -0.08108359 0.11756346 -0.062186982 -0.12232657
0000b0 86 b4 fd bd 19 33 b6 bc b5 a3 0f bd e9 71 9d bd
       -0.12387948 -0.022241162 -0.035068233 -0.07687742
0000c0 80 5e 59 3d a5 d9 90 bd a2 74 54 bc 78 88 3a be
       0.053068638 -0.070727624 -0.012967261 -0.18216121
0000d0 2d 5b 77 bc 12 29 bc 3d 13 e8 5a be aa 76 93 bc
       -0.015097422 0.09187521 -0.21377592 -0.01800092
0000e0 c2 03 a7 3d 05 da c6 3d 17 25 cd bd 6b eb e7 bd
       0.081550136 0.09709553 -0.1001684 -0.11324199
0000f0 4e b4 1c 3e 37 a0 3a bd b5 78 0c bc 82 eb 34 bd
       0.15303156 -0.04556295 -0.008573701 -0.04416991
000100 95 61 9e 3d dc e7 b3 3c 1a f8 a3 bd 8e 58 2b bd
       0.07733456 0.021961145 -0.08006306 -0.0418325
000110 86 39 5f 3d 88 f9 7b 3d fd ff ac 3d c1 ba 20 bd
       0.054498218 0.06151727 0.084472634 -0.039240602
000120 08 4e 97 3d 49 d8 c6 3d 65 43 6d bd d4 68 0a bd
       0.0738793 0.09709222 -0.0579256 -0.03379138
000130 52 38 26 3e 19 fd 96 bd d5 ef 1b be ec 5b 6e 3d
       0.16232422 -0.07372493 -0.15228207 0.058193132
000140 54 c9 fb 3b 72 56 9d 3d 5a aa d2 bd 6b 92 ef ba
       0.0076839123 0.07682504 -0.10286398 -0.0018277889
000150 df 09 78 3e 57 12 61 3e df 16 75 bd d3 0b 29 be
       0.24222516 0.21979652 -0.059836265 -0.16508417
000160 72 9a 95 3e 2f 55 32 bd 39 17 64 be 76 d7 0e bd
       0.29219395 -0.04353827 -0.22274484 -0.03487345
000170 3f 55 d7 bd b6 8e c7 3d 1c 50 0c be 50 c5 cb bd
       -0.10514306 0.09744017 -0.13702434 -0.09949744
000180 d6 40 10 bd 15 be 0b be 1b a5 e0 3d 7c 73 e8 bc
       -0.035218082 -0.1364673 0.10968991 -0.02837538
000190 6c 73 1b be cc 7e 10 3e 9a f2 63 bd 38 95 b7 3d
       -0.15180749 0.14110869 -0.055651285 0.08964008
0001a0 01 58 4d 3e 37 f7 00 bc 62 8e 1d bc 41 8c 4f be
       0.20053102 -0.007871441 -0.009616466 -0.20268346
0001b0 a0 08 ad bd d3 3c 00 bb e0 03 91 3d e2 96 2f be
       -0.08448911 -0.0019567504 0.07080817 -0.17147401
0001c0 f5 f2 aa bd 1a 52 2e 3e a7 90 2d be eb 9c 86 3d
       -0.083471216 0.17023507 -0.16949712 0.065728985
0001d0 af 75 8f bc 90 e9 4b 3e ea 89 06 bc f1 c1 2c bd
       -0.01751217 0.19913316 -0.008211592 -0.042177144
0001e0 c8 fa 8f 3c 11 59 cd 3d 10 8b 15 bd 2d 8f 9f 3d
       0.017575637 0.10026754 -0.036509573 0.077909805
0001f0 c1 2e dc 3c 35 bb c5 bc 03 ca 23 bb d6 52 e6 bd
       0.026877763 -0.024137119 -0.0024992235 -0.112462685
000200 a7 c6 19 bc 0e 58 01 be 41 87 de 3c 2d b0 ea 3d
       -0.009385741 -0.12631246 0.027164103 0.11459384
000210 74 eb 9b bd 9b ef 6c bd c2 be 06 be f5 18 3c bc
       -0.076132685 -0.057845693 -0.13158706 -0.01148056
000220 87 e3 8c 3d cb 8f c5 3d 76 e0 7a 3e 4f 92 ad 3c
       0.06879335 0.09646567 0.24499688 0.02118793
000230 61 98 9e bc 87 5a 1c 3e 55 3b 9f bd d6 aa 85 3c
       -0.01935977 0.15268908 -0.077749886 0.016316812
000240 f0 da 1a 3e dd 4c e5 bd e9 bf 0a 3d d0 7d 1e 3c
       0.1512258 -0.11196301 0.033874426 0.009673551
000250 0e f3 59 3d 3e b8 f6 3d 89 04 94 bc 96 a2 6c 3e
       0.05321031 0.1204686 -0.018068569 0.23108897
000260 d5 a9 1a be ef ad f2 bb 4e 0c 0a 3e 82 65 3a bd
       -0.15103848 -0.0074059884 0.13481256 -0.04550696
000270 f9 b5 d6 3d 1a cc 6b bd 3e e8 c2 bd c0 a8 9e 3d
       0.10483927 -0.057567693 -0.09516953 0.0774703
000280 9f f7 87 3d 9e ea ea 3d 62 10 52 bb 8d 83 a1 bc
       0.06639027 0.11470531 -0.0032053222 -0.019716049
000290 4f 6a 60 bd af ad 06 be 52 03 5e 3c 78 88 b3 3d
       -0.054788884 -0.13152193 0.013550596 0.08766264
0002a0 97 38 ff bd c4 e2 68 bd ce d6 4f bc 0f 22 ab bc
       -0.124619655 -0.056856886 -0.012685491 -0.020890264
0002b0 e9 8f 00 3c 79 81 03 3c bf 43 72 3d ec 6f 8c be
       0.007846811 0.008026474 0.05914664 -0.2742914
0002c0 ec c3 16 be 5f 0d 8f 3d 7f ce 2e be f3 d6 0a be
       -0.14723176 0.06984972 -0.1707096 -0.13558559
0002d0 61 5d 34 be dc cc 78 bd 37 be 6e 3d f6 c8 02 bd
       -0.17613746 -0.060742244 0.05828687 -0.031929933
0002e0 29 1d 84 bd 4d be 51 3d 55 cc 76 bd f8 9a 12 3d
       -0.06450874 0.051206876 -0.06025346 0.03579232
0002f0 0a 2f 83 3d f6 0a 80 3d 6c 66 c9 3c b8 67 3f 3e
       0.06405456 0.06252091 0.024584971 0.1869191
000300 8f f9 fc 3c 39 c9 ec 3d ec 1d a4 3d 99 b9 49 bd
       0.030880718 0.11561818 0.0801352 -0.049249265
000310 de ea 39 3a 3a 1d 73 bd 81 ed 0c be 41 dc 2e 3e
       0.0007092188 -0.059354044 -0.13762476 0.17076208
000320 08 4f a6 3d 00 0f 96 bd d2 e6 5c bc e5 79 2c be
       0.08120543 -0.0732708 -0.013482766 -0.16843374
000330 24 d6 35 bd 8d e9 5a 3d 92 d8 ef bc ed 74 c3 bd
       -0.044393674 0.053445388 -0.029278073 -0.09543786
000340 5d 36 91 3d bc 8d cf bd 0a a7 29 be ef e4 8c 3c
       0.07090447 -0.101344556 -0.16567627 0.017199008
000350 cd 19 56 bd 92 53 8b be c5 39 8c bd 07 08 a7 3d
       -0.0522707 -0.27212197 -0.06846956 0.08155828
000360 cb ec c4 bd b2 11 f4 bc f1 cd a4 3d fc f5 ff bd
       -0.09615477 -0.029793594 0.08047093 -0.1249809
000370 e0 8d f1 bd e1 3a 05 be 3c a7 37 bd d0 3e 16 be
       -0.11794639 -0.13010742 -0.04483722 -0.14672399
000380 21 ac 9d bd 36 2c a1 bd 9e 67 04 bd 19 48 c3 bd
       -0.076988466 -0.07869761 -0.03232538 -0.09535236
000390 79 fb 23 be 21 02 82 3d 6d c1 50 be 7e a0 21 3d
       -0.16013898 0.06348062 -0.20386286 0.039459698
0003a0 46 d2 3c 3e 06 17 1a bd 66 01 01 3e f9 3d 53 be
       0.18439588 -0.037619613 0.1259819 -0.2062911
0003b0 06 6c 1e bd 76 70 74 bc a4 19 ba 3d ac b3 f9 bc
       -0.038677238 -0.014919391 0.09086922 -0.030481182
0003c0 55 ba d1 bc b5 d5 5a bb 51 d9 19 3e 7c 1a 50 3e
       -0.025601545 -0.003339154 0.15024306 0.20322603
0003d0 3e 8c 96 3b f9 08 ac 3d b4 a3 92 bd e2 bd 35 3e
       0.004594355 0.08400149 -0.0716013 0.17748216
0003e0 1f d8 04 be 97 b9 27 bd 13 de a7 bd b0 c4 ad bd
       -0.12973069 -0.040948477 -0.08196654 -0.08484781
0003f0 21 d8 9a 3c c9 46 d7 bd a4 da 77 3d 54 33 04 bd
       0.018901886 -0.10511548 0.060511246 -0.032275513

network.4.bias f4 [100]
000000 99 39 95 b9 61 6d 8e 39 17 19 40 36 44 4b 13 b9
       -0.00028462408 0.00027165844 2.8624834e-06 -0.00014047051
000010 4b 61 82 3b 9a cc 90 39 e6 06 b0 38 a9 98 7c b8
       0.0039788834 0.0002761826 8.393619e-05 -6.0223658e-05
000020 6b 79 30 ba db 72 52 3a 16 59 63 ba f3 37 04 bb
       -0.000673196 0.0008027979 -0.00086726376 -0.002017495
000030 37 71 91 39 89 b9 41 3a 75 67 57 3a 83 bc 32 3b
       0.00027740907 0.00073900126 0.00082170154 0.0027273006
000040 1b e9 84 39 bb 67 a3 38 77 20 98 b9 31 2e dd 39
       0.0002535068 7.791767e-05 -0.00029015887 0.0004218682
000050 9a ae 12 3a c0 25 0e ba 43 c6 6f 38 72 9a 8d bb
       0.00055954757 -0.00054224953 5.7166686e-05 -0.00432139
000060 58 e1 22 b9 3c 76 c3 36 e6 f0 df 39 af 97 2a b7
       -0.00015533471 5.825217e-06 0.00042713358 -1.0168106e-05
000070 b4 65 df b9 ec 24 da b8 bd e8 aa 39 5f 70 ee b9
       -0.0004260965 -0.00010401927 0.0003259833 -0.0004547862
000080 22 f9 c6 39 22 c3 d9 39 e4 ad 44 39 58 22 c4 39
       0.0003795112 0.0004153485 0.00018756796 0.0003740962
000090 ae 64 ff b7 39 02 89 3a 21 18 e0 b9 00 0b ca b8
       -3.0445251e-05 0.0010452933 -0.00042742587 -9.6341595e-05
0000a0 4f 94 c6 b7 63 ee 02 3b 55 c0 80 3a ff bb d9 39
       -2.36725e-05 0.0019978515 0.0009822944 0.00041529533
0000b0 7f c4 54 b9 24 da 8e b9 ff 95 60 bb bd 73 a5 ba
       -0.00020291096 -0.00027246878 -0.0034269092 -0.0012622994
0000c0 ef ca 42 3b 2d 3e 64 b9 91 60 0f bc 3a 62 82 bb
       0.0029723009 -0.00021766937 -0.008751051 -0.0039789947
0000d0 0f 0f a3 39 21 7c 32 b9 73 73 3a 3a f3 db 75 3a
       0.00031101002 -0.00017021644 0.000711254 0.0009378783
0000e0 8b f1 2b 3a 3c ec d3 36 c3 00 4f 3a e7 15 7f b9
       0.0006559125 6.3157913e-06 0.0007896537 -0.00024326854
0000f0 99 34 6d 39 5a 84 4d 3a 34 ff 30 ba 88 6c 5d ba
       0.00022621675 0.00078398513 -0.00067518954 -0.00084466534
000100 9a 52 ca b9 e8 f2 43 bb 94 6e e9 39 fa d1 34 ba
       -0.00038589985 -0.0029899422 0.0004452361 -0.0006897744
000110 07 0e c1 38 8f 7f 27 ba 1c 1d 35 3a 3f f0 5f 39
       9.20557e-05 -0.0006389552 0.00069089397 0.00021356436
000120 4a ac 41 ba e2 f0 0b 39 0e 36 06 39 d2 fc cb 39
       -0.0007388039 0.00013345809 0.00012799373 0.00038907543
000130 8b a6 e4 ba 68 fa a1 b8 a4 09 6f 39 8c a3 6a b9
       -0.0017444653 -7.72372e-05 0.00022796408 -0.00022376905
000140 f7 d5 85 ba 72 a4 9f 3b 10 9b 38 39 b9 93 a7 38
       -0.0010210861 0.0048718983 0.00017605373 7.990696e-05
000150 84 8f ba 3a f6 26 18 3a 15 9d 4a ba 58 0d 71 3a
       0.0014233445 0.00058041455 -0.00077290955 0.0009195409
000160 22 5a 0b ba e2 ef a8 39 7a f6 33 ba 14 ae cb 39
       -0.000531586 0.00032222184 -0.0006865036 0.00038848876
000170 d0 3e 75 3a 46 dc e6 b9 c0 54 66 ba b8 61 7e ba
       0.0009355368 -0.00044033135 -0.00087864324 -0.0009703892
000180 06 d7 1f 3a 10 fa 03 bc 45 76 14 3a c7 53 e5 3a
       0.00060974096 -0.008055225 0.00056633755 0.0017496281

network.6.weight f4 [100, 100]
000000 92 6a 07 3c fc 5d cc 3d 99 27 16 bc aa 8a ab 3c
       0.008265154 0.099788636 -0.009164714 0.020940144
000010 28 b8 51 3e dd 78 14 3e 31 2e a8 bd f7 74 cc 3d
       0.20480406 0.1449923 -0.08211935 0.09983247
000020 6d 06 55 3d 17 13 ad bd 90 2a 07 be b3 a1 64 3d
       0.05200808 -0.08450907 -0.1319983 0.05581827
000030 f2 16 b1 3c 10 8d 1e 3b c6 f9 32 3d 0c 7f 02 bd
       0.021617386 0.0024192967 0.043695234 -0.031859443
000040 df 51 a6 bd e1 a6 6d bc 4e e7 c5 3b 2f 50 e6 bb
       -0.081210844 -0.014505119 0.0060395366 -0.0070286016
000050 d4 d4 15 be 87 31 c6 3c 82 b1 85 3d e2 14 99 bd
       -0.14631969 0.024193538 0.065279976 -0.07474686
000060 0c 55 9b 3d 4c 75 2e be d6 6a 3b bd cc 82 92 3d
       0.07584581 -0.17036933 -0.045756184 0.07153854
000070 4b ad 8c 3d 81 bd 2e 3d 3c 63 a2 bc e4 e1 e8 bd
       0.068689905 0.042661194 -0.01982271 -0.1137121
000080 12 5d 77 3d 4c 43 b2 39 f7 45 d5 bd 7e 6a 29 3c
       0.060391493 0.00034000946 -0.10413735 0.010340331
000090 27 d9 6f 3d 89 ae 44 3d 5a b2 10 3d 6d 17 0e 3e
       0.058556702 0.048018012 0.03532634 0.13876124
0000a0 46 4a 40 3d 63 1c 20 bd cf 71 9f bd c7 72 0c 3e
       0.046945833 -0.03908957 -0.07785379 0.13715659
0000b0 cc 43 20 be e3 47 37 be 20 a7 94 3d ef b2 0d bc
       -0.15650862 -0.17898516 0.07258439 -0.008648618
0000c0 b4 86 5c 3d 3e 5d 80 bd 37 98 97 3d a5 ca 73 3e
       0.0538394 -0.062677845 0.074020796 0.23807772
0000d0 66 d9 7c 3e 7c 5a cd bc 70 51 d8 bd 51 34 d6 bd
       0.24692306 -0.02506756 -0.10562408 -0.10459197
0000e0 79 46 2b 3d ac 2d a3 bd 9b f5 b6 bd 05 1d 17 be
       0.041815255 -0.079676956 -0.08933564 -0.14757164
0000f0 13 4e 26 be e9 94 77 3c cc 91 3b 3e 95 0b 54 bd
       -0.1624072 0.015111187 0.18317336 -0.051768858
000100 26 23 79 3d b9 3a b9 3d b4 dd 61 3e 73 f1 99 3d
       0.060824536 0.090444036 0.2205723 0.07516756
000110 02 d2 80 3d 7a bd 9d 3b f9 c7 8f ba 37 0b f3 bd
       0.06290056 0.004813847 -0.0010969631 -0.118673734
000120 1a 32 60 bc 1b ae aa bd dc 5e 92 bd b2 58 9e 3c
       -0.01368382 -0.08333989 -0.07146999 0.019329403
000130 34 ce ec 3d bb 70 32 3e 79 13 44 bd 2a 48 ef bc
       0.115627676 0.17425816 -0.047870133 -0.029209215
000140 03 b8 c4 3d 77 cf c4 3c cc 02 a6 3d 01 7d a6 3d
       0.0960541 0.024024708 0.08106002 0.08129311
000150 36 f8 07 bd 19 2b 11 3e 18 b9 c5 3d 12 14 da bd
       -0.033195697 0.14176597 0.096544445 -0.10648359
000160 bf 16 0b 3c 70 a1 23 3d 8b c2 07 be 88 09 e7 bd
       0.00848931 0.03994888 -0.13257806 -0.11281115
000170 77 04 1a 3d 5c 5d 6e 3d 53 5a b6 3c 17 fb 1c 3e
       0.037601914 0.058194503 0.022259867 0.15330158
000180 65 51 b6 bc 72 7d 92 3e 81 54 bf bb 55 ef 1f be
       -0.022255609 0.28611332 -0.005838931 -0.15618642
000190 6d d6 2b 3d 23 41 91 bd 64 75 88 3c 37 12 5d bc
       0.04195254 -0.07092502 0.016657539 -0.013493112
0001a0 44 25 20 be 18 aa 4c bc 91 ac 8e 3d d4 1b d5 bc
       -0.15639216 -0.012491725 0.06966508 -0.026014246
0001b0 dd 67 61 3d ac b6 14 3e cc 3e 16 bd 35 c3 29 3e
       0.055030692 0.14522809 -0.03668098 0.16578372
0001c0 d0 8d 82 3d 4f e3 79 bd 59 69 0d 3e c8 92 01 be
       0.06374705 -0.061007794 0.13809718 -0.12653649
0001d0 1c a9 8c 3c 2a 1b 0c bd 97 62 10 3d 9c 7e 00 3d
       0.017170481 -0.034205593 0.035250273 0.031370744
0001e0 a6 77 a2 bc e6 de e5 bd 51 56 39 3e 76 7a 89 bd
       -0.019832443 -0.11224155 0.18099333 -0.06712811
0001f0 b9 c9 6f 3d 86 9c 25 3d 39 ac dd 3d 40 c9 fa 3d
       0.058541987 0.040432476 0.108238645 0.12245417
000200 32 9b d3 3d c6 9b 4b be 1c 5d 14 be eb 7a 17 3d
       0.103323355 -0.19883642 -0.14488643 0.036982458
000210 9f cc 0a 3c 96 d7 48 bc ba be 8b 3d c0 0d 81 3d
       0.008471637 -0.012258431 0.068234876 0.06301451
000220 d2 db aa 3d de 82 c7 bc 17 54 f9 bd d2 4c be bb
       0.08342709 -0.024354395 -0.12174242 -0.0058074975
000230 e2 7d 6a 3d c1 f8 a8 3d 4d a8 63 bd ad 11 b7 bc
       0.057248957 0.08250571 -0.055580426 -0.022347296
000240 9b 5b 79 3d 06 e9 8a bd 2b 7a 10 3c 6b 75 07 be
       0.060878377 -0.06782727 0.00881819 -0.13228385
000250 35 80 dd 3c 7d 37 1a be 8a a2 d1 3d 47 ac f8 bb
       0.027038673 -0.1506023 0.1023608 -0.0075888964
000260 8e 65 48 3e 41 19 a4 3d f3 42 80 3b fe 4b a5 bd
       0.1956999 0.08012629 0.003914231 -0.08071135
000270 d9 64 61 3d 66 5a 82 3e 68 dd 2a be eb c1 ad bd
       0.055027816 0.25459594 -0.16686022 -0.084842525
000280 7a 36 d0 bd 27 c3 0e 3e bb 36 22 3d fd 23 2f be
       -0.101666406 0.13941632 0.039602976 -0.17103572
000290 3b 9f 10 3d 2c 95 9d 3d 2f 9a 5c 3c 3c 19 67 bd
       0.035308104 0.07694468 0.013464495 -0.05642055
0002a0 40 10 02 be 38 f4 c2 3b 3a ce 25 3e b0 2a 07 be
       -0.12701511 0.0059495233 0.1619195 -0.13199878
0002b0 de 44 55 be f7 15 81 bd 12 8c 0b 3e 14 3c 05 3e
       -0.20827052 -0.063030176 0.13627651 0.13011199
0002c0 42 c3 2b be 3e b8 47 3e 67 5d 68 ba 46 be 51 be
       -0.16773704 0.19503877 -0.00088640157 -0.2048274
0002d0 af 0d 93 3d 8c 9d 44 3e 71 f3 37 bd 6b 7e a3 bc
       0.07180344 0.19200724 -0.0449099 -0.019957742
0002e0 75 c3 88 3d e6 5e 22 3a 67 4b 4c be 0c d2 21 3e
       0.066779055 0.00061939505 -0.19950639 0.15802783
0002f0 63 6d b3 bd ec a7 24 3e c8 42 e8 ba a2 f5 d2 3d
       -0.08761098 0.16079682 -0.0017720098 0.10300757
000300 ea 3b 84 3d 8c e0 b2 bc a9 b4 90 bc 32 6c 2e 3e
       0.0645674 -0.021835588 -0.01766427 0.1703346
000310 93 e9 0d 3c c5 61 7e bb 31 59 ec bd 62 e1 7b bd
       0.008661645 -0.00388156 -0.115404494 -0.06149424
000320 94 12 ab bd 38 38 c2 3d 2e 32 f3 3d 00 ef cc bc
       -0.08353153 0.09483379 0.118748054 -0.025016308
000330 98 56 a1 3d 83 c6 fb 3c 6a 99 67 3d 89 77 e2 bc
       0.078778446 0.030734306 0.05654279 -0.02764489
000340 38 da e3 b8 7a 03 20 bd ee 70 82 bc ab 04 8b be
       -0.0001086485 -0.039065816 -0.01592299 -0.27152
000350 1d a5 2c 3e f8 69 01 3e b8 92 7d bd 1e cb 2f bd
       0.1685986 0.1263808 -0.0619075 -0.042918317
000360 a9 4a 8a 3d 1c 7c f9 bd 09 79 98 bd ab 63 53 3e
       0.067525215 -0.12181875 -0.074449606 0.20643489
000370 a3 0b b7 bd 68 93 53 bd 2c 1f c9 3d 4d 5b 1d bd
       -0.089377664 -0.05165425 0.09820399 -0.03841715
000380 0f 5c 44 bd fb 80 0f be 16 77 87 bd 88 b9 50 be
       -0.047939356 -0.14014046 -0.06614511 -0.20383275
000390 cf e4 8a 3c 26 be e6 bc ad 42 b7 bd 6c b9 f7 3c
       0.016954808 -0.028166842 -0.08948264 0.030239783
0003a0 ee 38 25 bc c4 f8 05 be c3 8a a1 3d 0a ee 60 3c
       -0.010084374 -0.13083178 0.07887795 0.013728628
0003b0 69 8e 87 bd 61 c0 5e 3d 78 cf c1 bc 71 77 30 bc
       -0.066189595 0.054382686 -0.0236585 -0.010770665
0003c0 57 42 11 be cc a0 e1 bd 4a d5 ab 3d e4 19 79 3d
       -0.14185463 -0.11016998 0.08390291 0.060815707
0003d0 af 84 52 3d 5c b1 84 3d 37 bd ab bd e7 cd bd 3d
       0.05139607 0.06479141 -0.08385699 0.092677884
0003e0 e4 9c 2c be 73 1c 6a 3c d8 f5 a8 3d 48 28 b6 bd
       -0.16856724 0.014289009 0.08250016 -0.08894402
0003f0 e8 64 54 bb e4 e9 4c bc 95 82 c4 3d ae f7 2b be
       -0.0032408778 -0.012506936 0.09595219 -0.16793701

network.6.bias f4 [100]
000000 01 b5 d2 b8 64 01 ee 39 27 db 71 b9 bb 5a b0 b8
       -0.00010047295 0.00045395934 -0.00023065192 -8.409234e-05
000010 ed ac 9d 39 67 68 9d 39 71 63 4b b9 6d be ca b9
       0.00030074213 0.0003002316 -0.00019396633 -0.0003867032
000020 a1 60 20 39 5d ba fc ba e9 65 17 ba 0d cb 30 3a
       0.00015294786 -0.0019281615 -0.00057753787 0.0006744124
000030 1b 75 44 39 09 ff fa 38 2a d8 02 39 fb 08 a0 bb
       0.00018735642 0.00011968433 0.00012478294 -0.004883883
000040 b8 12 b5 b9 03 ef f2 36 ad 20 95 39 12 22 90 39
       -0.00034536957 7.2399866e-06 0.0002844384 0.00027491205
000050 e1 f2 ab b9 cc b8 8a 39 32 19 b4 39 93 42 c0 39
       -0.0003279662 0.00026459096 0.00034351047 0.00036670695
000060 78 aa 40 39 5f c7 69 38 8b 23 bc b6 a1 ea b7 b8
       0.00018374051 5.5737208e-05 -5.6069744e-06 -8.769823e-05
000070 3c c1 f0 38 41 ed d8 b9 ba e4 84 ba 40 3d 9f 3b
       0.000114800845 -0.00041375498 -0.0010138967 0.0048595965
000080 10 d0 e5 b8 63 75 cc 38 71 eb 81 ba 1b de eb 39
       -0.000109583256 9.749343e-05 -0.0009912086 0.00044988174
000090 b6 62 02 3a 82 15 15 3a a0 73 92 b8 11 f4 9e 3a
       0.00049738155 0.0005687104 -6.983359e-05 0.0012127181
0000a0 49 da e9 bb a8 bc 3d 3a 13 7f 7e 3b 78 16 00 3a
       -0.0071366173 0.000723789 0.0038833066 0.00048861606
0000b0 22 2a 2d 3a 7c 5d d1 3b 02 e5 01 bc 15 2e 1a b8
       0.00066057045 0.006389318 -0.007928135 -3.675938e-05
0000c0 c7 d6 73 39 d8 eb c7 ba 00 6e ac 39 ed 1d 48 3a
       0.00023254297 -0.0015252782 0.00032888353 0.0007633854
0000d0 75 6c 1d 38 35 25 82 39 55 1a 28 39 7c 77 91 bb
       3.7532725e-05 0.00024823254 0.00016031538 -0.0044392925
0000e0 16 ce ad b8 1a 39 da 39 1a ac 20 3a cd 4a 4b b9
       -8.287669e-05 0.00041622744 0.0006129161 -0.00019387454
0000f0 5d 3e 6c 3a b5 0b aa b9 b6 25 c6 b8 4e 7a 47 39
       0.00090119784 -0.0003243365 -9.4484e-05 0.00019023681
000100 fe 60 56 39 37 a7 a6 b9 42 04 aa 3a aa 58 54 3a
       0.00020444763 -0.00031786572 0.001297124 0.000810037
000110 57 5c b8 ba 9d 61 e5 ba 4c 00 07 ba a9 52 28 38
       -0.0014065605 -0.0017500405 -0.00051498855 4.0131305e-05
000120 2d 0b f7 b9 af 96 3d b7 a0 79 7c ba 72 8b 95 b9
       -0.00047119838 -1.1300362e-05 -0.00096311606 -0.0002852339
000130 00 f0 11 3a 93 6f 6b b9 54 5f 14 b9 f1 5b 9a b8
       0.0005567074 -0.00022452911 -0.00014149892 -7.360418e-05
000140 4d f7 37 3a 52 c4 23 3a c4 e2 b0 36 45 b6 8c b9
       0.00070177467 0.00062472105 5.2716077e-06 -0.00026838682
000150 cc cf 3a b9 4c 0d 17 39 46 c5 e1 39 8f 17 6f 3b
       -0.00017815753 0.00014405436 0.00043062324 0.0036482548
000160 10 fd 4d 39 a1 ec ae 39 a1 83 08 ba f5 b9 82 ba
       0.00019644597 0.00033364168 -0.00052076025 -0.0009973632
000170 34 14 58 39 dc b0 06 ba 18 de 31 38 77 e7 66 3a
       0.00020606891 -0.00051380484 4.240693e-05 0.00088082947
000180 72 95 c4 b8 80 53 5d b8 55 24 ec b9 25 5a 12 3c
       -9.373845e-05 -5.276827e-05 -0.00045040497 0.008932625

network.8.weight f4 [100, 100]
000000 bf c1 4b bd 9d ee 74 3d 14 1a 89 bb 79 f7 83 3c
       -0.049745318 0.05979787 -0.004184017 0.016109215
000010 a3 02 b6 3c e9 b9 96 bd d8 0d 61 3e 2e a7 13 3e
       0.022218054 -0.07359678 0.21977937 0.14419243
000020 d0 80 18 bd b1 7f c5 bd b0 bb d1 3d 35 96 2d 3e
       -0.03723222 -0.09643496 0.10240877 0.1695183
000030 67 b6 3d 3d 51 1c 86 3d 28 ce 04 3e d6 1c dd bc
       0.04631653 0.0654837 0.12969267 -0.02699129
000040 46 38 b2 bd 1b 10 9a bd 74 cf 11 3d 11 00 89 3d
       -0.087021396 -0.07522603 0.035598233 0.06689466
000050 f4 82 9c 3d ac 8e b0 3a 09 9f 14 be 26 c0 29 3e
       0.07642165 0.0013470254 -0.14513792 0.16577205
000060 1a f0 ca 3b d6 69 87 3b f9 09 ea 3d 83 ac 23 3e
       0.006193173 0.0041324897 0.114276834 0.15983777
000070 d7 54 44 bd 8c df e7 bd de d5 be bd c9 02 0c 3d
       -0.047932472 -0.11321935 -0.09318136 0.034182344
000080 23 0d 9a bd 46 a4 68 bd db 19 2d be ea 2c 3c bc
       -0.07522037 -0.05679729 -0.16904394 -0.011485318
000090 4b a3 53 bd b7 d7 20 bd 9f be 03 be 7c 8f 6e bd
       -0.0516694 -0.03926822 -0.12865685 -0.058242306
0000a0 46 e1 4c 3e 6d c1 99 bc db ef f3 bd a7 a4 b5 3d
       0.2000781 -0.01876899 -0.11910983 0.088692956
0000b0 e8 1f 1b bd cb 96 6e bb 9a 98 39 3e fc f4 4c bc
       -0.037872225 -0.0036405798 0.18124619 -0.012509581
0000c0 5c df 12 3e e5 1e dd bd 10 0f 20 bd ad 92 bd 3c
       0.14343017 -0.10796908 -0.039076865 0.02314123
0000d0 e6 75 8a 3d b1 06 6f bd ba 5c 84 3d 26 3a f6 bd
       0.067607686 -0.05835599 0.06462999 -0.1202281
0000e0 5e b5 bb bd 76 48 87 3d 4a fe eb 3d f6 c9 b2 3d
       -0.091654524 0.06605618 0.11523111 0.08729927
0000f0 40 6b ab 3d 27 67 19 be 63 80 96 3d 52 d2 f2 39
       0.08370066 -0.14980756 0.073487066 0.00046314538
000100 83 56 01 bd 89 5c 85 be 4e 9c f1 3d ae 29 15 3e
       -0.031576645 -0.2604716 0.11797391 0.14566681
000110 a1 6f 00 3e 30 7e 1b 3d 5f 04 e4 3d 89 39 dc 3c
       0.12542583 0.03796214 0.11133646 0.026882904
000120 6f 69 67 be 1b 63 70 bc 20 66 30 3d 16 be 09 be
       -0.22598813 -0.014672066 0.043066144 -0.13451418
000130 25 d2 ba 3d 1a e3 c4 bd 25 55 45 be 00 f6 cf bd
       0.09122113 -0.09613629 -0.19270761 -0.10154343
000140 1b 3f 79 bd df dc 92 3d 24 80 17 3e cb 97 51 3c
       -0.060851198 0.07171034 0.14794976 0.012792538
000150 c6 ce 95 bb f6 59 f9 bd a4 30 f4 3d c6 53 9e bd
       -0.0045717685 -0.12175362 0.1192334 -0.07730822
000160 fc d4 9b bd 9c 23 e2 bd ae 75 b8 3d ad 69 f3 3c
       -0.07608983 -0.11041948 0.090068206 0.029713476
000170 c0 a0 1b be a0 68 17 3d ac 8a c5 bd 61 2c ca 3d
       -0.1519804 0.036965013 -0.0964559 0.09871746
000180 6b 01 5e bd 06 7a c3 bd 2e c4 52 3d f9 52 92 3d
       -0.05420057 -0.095447585 0.051456623 0.07144732
000190 a2 0f c8 bd 42 35 8e 3d ef 1e 98 3d 76 ad e3 3d
       -0.09768607 0.06943752 0.07427775 0.111170694
0001a0 b8 31 5a 3e 9f 34 91 3d 02 63 cf 3c c4 99 2b be
       0.21308029 0.07090115 0.025315765 -0.16757876
0001b0 d7 54 14 be 64 9b bb 3d 75 10 c7 bd 3f 9b 23 3e
       -0.14485489 0.09160498 -0.09719936 0.1597719
0001c0 2e d4 39 bd c9 47 2d bd c0 3f d3 bd c2 47 45 3d
       -0.045368366 -0.042304788 -0.10314894 0.048164137
0001d0 c0 f5 32 3e 43 b5 ad 3c 75 33 ee 3c 27 e0 5b bd
       0.17476559 0.021204596 0.029077271 -0.053680565
0001e0 08 86 1d bd 4b 09 25 3c 43 ae b1 bd 7d d9 1f 3e
       -0.0384579 0.010073016 -0.08675816 0.15610309
0001f0 43 36 0c 3e e0 21 09 bd 5f ca 22 bd 28 c1 fc 3d
       0.13692574 -0.03347957 -0.039743777 0.12341529
000200 be 88 61 3c 6a 09 66 3e 08 1d 02 bd 38 d8 a4 3d
       0.013765512 0.22464529 -0.031765968 0.08049053
000210 a7 8d 5c 3d 1d ad cd bc 0b b4 9d 3d 45 5a 35 3d
       0.053846028 -0.02510696 0.07700356 0.04427554
000220 c0 41 c9 3b db eb 7d 3c 87 f4 06 bb e3 64 8f 3d
       0.006141871 0.015498127 -0.0020592527 0.070016645
000230 ea 30 bf bd 22 e0 88 bb 79 3b 25 3e 31 12 00 bd
       -0.093355015 -0.0041771093 0.16135968 -0.03126735
000240 bf 33 22 be 9a f1 74 bc 13 0d 01 3e d5 99 34 bd
       -0.15840052 -0.01495018 0.12602644 -0.04409202
000250 b6 2a 01 3e a1 a9 1a be aa 21 d4 bd c8 7b 78 3d
       0.12613949 -0.15103771 -0.103579834 0.060664922
000260 a5 28 36 be 92 15 2b be 62 91 23 bd b8 bb d0 3d
       -0.17788942 -0.16707447 -0.03993357 0.101920545
000270 ac 21 26 3d ad cb 78 3d e7 77 12 bd 17 c0 a0 bd
       0.040559456 0.060741115 -0.03575888 -0.07849138
000280 83 97 f1 bc 74 86 8f bd 95 fd 83 3d c6 fb 84 3e
       -0.029491192 -0.07008067 0.06444851 0.25973338
000290 e5 c1 fb 3d 3f 99 07 bd d0 1b 31 be d0 0f 56 3e
       0.12292842 -0.03310513 -0.17295766 0.2090447
0002a0 57 fd 94 bd 6e 85 c5 bc a5 0d 0a be 4f d9 d1 3d
       -0.07274883 -0.024111476 -0.13481767 0.102465264
0002b0 c5 34 35 3e 17 87 58 3d 89 d4 7d 3d 29 56 34 bd
       0.17695911 0.052863207 0.061970267 -0.04402748
0002c0 7c 0b 7a 3c 5c b1 73 3d 9c a7 76 bd 3f ff 11 3c
       0.015261527 0.059495315 -0.06021844 0.008910953
0002d0 2d b3 f1 bd 2a a8 83 bd 67 e4 89 bc 28 08 9b 3d
       -0.11801753 -0.06428559 -0.016832544 0.07569915
0002e0 46 ca d4 bc df 35 7e bc 94 14 0a 3d 30 16 32 3b
       -0.025975358 -0.015515774 0.03371103 0.002717387
0002f0 fe ed a9 3d 45 c0 61 3d a0 5a e9 3c 94 82 eb bd
       0.082973465 0.055115003 0.028485596 -0.11499515
000300 70 c8 e2 bd 1d 3d 8f 3e ec 1c 8c bd 86 25 c1 3d
       -0.11073387 0.27976313 -0.06841454 0.09430985
000310 21 28 01 bd e6 e1 da 3d 5d a9 52 3d 3f a7 5a bc
       -0.03153241 0.10687618 0.05143105 -0.013345539
000320 ea 32 2f 3d 19 4d a5 3d aa 02 cb bd 02 3d d5 3d
       0.042773165 0.08071346 -0.099126175 0.10412027
000330 a3 10 da 3d ab 9e 76 3d c9 33 f1 3d ae 15 b1 3b
       0.106477045 0.06020991 0.11777455 0.0054041957
000340 05 af 02 bd 40 97 10 bb d8 a2 95 3d 64 62 1c bc
       -0.031905193 -0.0022062808 0.073064506 -0.0095449425
000350 64 03 53 be e7 38 6e bd 3f 95 8b bd 44 13 49 3d
       -0.20606762 -0.058159735 -0.06815576 0.04909064
000360 bb d1 51 3e 96 7e a6 3b e6 e2 ea 3d 10 d4 65 3d
       0.20490162 0.005081008 0.11469059 0.05611044
000370 5a 13 08 be 41 4a 4f 3d 1c ac f1 bd fc 52 95 3d
       -0.13288632 0.050607923 -0.118004054 0.07291219
000380 a0 9d 47 bd 07 0e d9 bd 23 75 a4 3d e3 f9 c7 bd
       -0.048734307 -0.10598379 0.080301546 -0.09764459
000390 67 f0 77 3b 04 78 9b bc ef 23 05 be 7b 75 17 3e
       0.00378325 -0.018978126 -0.13001989 0.14790909
0003a0 26 27 45 3e 0b ca 29 be ed cc a2 bc c0 a6 19 3e
       0.19253215 -0.1658098 -0.019873107 0.15005016
0003b0 23 a1 fe 3b 85 b8 6e be 50 25 e2 3d 00 7f ec bd
       0.007770674 -0.23312576 0.11042273 -0.11547661
0003c0 10 d4 b1 bc d3 1e 0e be b9 3d 9b bb 41 f2 6d 3d
       -0.021707565 -0.13878946 -0.0047375825 0.05809236
0003d0 64 3f c7 3d 73 4c f2 3d 0c e3 81 bd fd 68 d4 3d
       0.09728888 0.11830988 -0.06342134 0.103715874
0003e0 17 29 9e 3c 4b 72 9a 3c 14 1d 6d 3d 63 f6 31 3d
       0.019306703 0.018853327 0.05788906 0.043447863
0003f0 40 bf a9 bb cd 4e d0 3c ee 29 06 be bb 42 0b bd
       -0.0051802695 0.0254282 -0.13101932 -0.033999186

network.8.bias f4 [100]
000000 42 5d 9d 3a b5 55 2d ba 53 03 79 b9 6d fc 2f 39
       0.0012005942 -0.00066121976 -0.00023747729 0.00016783336
000010 d4 d0 0a ba 7f d5 be b8 9e 44 6b 38 bf b9 49 39
       -0.00052954 -9.099673e-05 5.609227e-05 0.0001923805
000020 e9 9a 8f 39 60 6d d9 39 31 df 36 39 f8 c4 54 39
       0.00027390503 0.00041470956 0.00017440018 0.00020291272
000030 67 c1 3f 3a ac 75 27 ba 7d 38 a6 b9 d9 06 aa 39
       0.0007314891 -0.0006388079 -0.00031704074 0.0003243003
000040 b0 3f 2b b9 ce 4e ff b8 19 ea 6c b8 64 05 fa b9
       -0.00016331556 -0.00012174026 -5.6484805e-05 -0.00047687732
000050 8f 7f 1f 39 51 da e7 38 f0 6c 8c 38 39 f1 8b b9
       0.00015210941 0.00011055603 6.6960114e-05 -0.0002669187
000060 31 d2 57 b9 2c 6e 59 38 74 44 55 37 98 ae 83 b9
       -0.000205823 5.1839437e-05 1.2711727e-05 -0.0002511635
000070 b6 a0 f8 38 fc 7e f1 38 74 d6 73 39 b4 c2 16 39
       0.00011855496 0.00011515428 0.00023254176 0.00014377647
000080 e9 e8 9d b9 7a 85 00 ba 5e 8c 47 3a c3 88 24 b8
       -0.00030118905 -0.0004902702 0.0007612164 -3.9228016e-05
000090 82 e2 4b b9 71 76 24 3a 6d 7c 0b b9 5d d0 b0 b8
       -0.0001944397 0.00062737527 -0.00013302425 -8.431145e-05
0000a0 d1 10 22 39 9f 36 08 b9 c8 9a b1 38 bf 37 35 ba
       0.00015455789 -0.00012990319 8.468848e-05 -0.0006912909
0000b0 61 97 17 39 9a c7 62 39 51 7a 30 b9 ef 62 db b8
       0.00014456875 0.00021627397 -0.00016830234 -0.000104611616
0000c0 7b 26 f2 38 0f d9 8d 39 e2 f4 b1 38 3d 86 69 39
       0.00011546627 0.00027055337 8.485631e-05 0.00022270619
0000d0 f8 bc 78 38 bd 66 80 b9 6a 50 9c b7 8e ad 04 bb
       5.93038e-05 -0.00024490608 -1.8634095e-05 -0.0020245048
0000e0 7b 5a 7b 39 af 4c c9 b8 26 da 2f 38 cc 22 90 39
       0.00023970932 -9.59871e-05 4.1926418e-05 0.00027491746
0000f0 1b 37 8f 38 bb a9 b3 b9 c8 85 f4 38 5e 25 3a 3a
       6.8290356e-05 -0.00034268 0.00011659745 0.0007100905
000100 ac e7 4c b9 d8 2c da 37 2d ee ac b9 6c 64 46 b9
       -0.0001954126 2.6008507e-05 -0.0003298385 -0.00018920162
000110 df 9d 5d ba 18 f7 a4 39 5e 7f 72 ba 86 cc 88 39
       -0.00084540056 0.00031464617 -0.00092505466 0.00026092323
000120 d7 e0 f2 b9 63 9b dc 3a e7 1c 55 b9 c2 40 08 ba
       -0.00046325356 0.0016830977 -0.0002032403 -0.0005197638
000130 5b 21 68 b9 55 db e0 b9 72 37 15 39 9c 12 af 38
       -0.0002213767 -0.00042888024 0.00014230402 8.3481165e-05
000140 70 17 7f b8 01 05 b1 39 f0 4c 71 39 c4 31 8e 39
       -6.0818566e-05 0.000337638 0.00023012212 0.0002712143
000150 36 e5 52 39 9e e5 23 38 38 61 0d b9 06 47 88 38
       0.00020112548 3.9076076e-05 -0.00013483025 6.4982145e-05
000160 28 48 ba b7 14 66 fd b9 9c d8 2a ba 84 e7 00 b9
       -2.2206528e-05 -0.00048331975 -0.00065172627 -0.00012293278
000170 3c bf 53 39 a2 93 84 b9 2f 04 4a b9 5a c0 86 39
       0.00020193768 -0.00025286997 -0.0001926578 0.00025701785
000180 83 7a 6d b8 eb 78 89 b9 b8 79 3b 37 e0 99 2b 3a
       -5.66193e-05 -0.00026220767 1.1174408e-05 0.00065460615
