checkpoints/model1_epoch_3500.pt (torch, 977023 bytes, 21 tensors)

network.0.weight f4 [50, 2]
00000000: 21d3 08be e6b5 14be ca38 98be 2d95 72be
00000010: b4a2 14bf 6347 fbbe 409d d73d 910a 593d
00000020: 5e39 b0bd 1683 c5bd 4a5e e03d 9143 4c3d
00000030: 4807 303e 7a93 69be e456 923f 3c92 943f
00000040: 62c3 a33d b378 6dbe 1621 ac3d e400 02bc
00000050: 830e 9dbd e242 51be 94f6 f73e ea2a e83e
00000060: 10aa ecbd de98 76bd 662b 003e bca4 7cbe
00000070: c485 853d bff0 4bbe 6506 193e c24b 9bbd
00000080: 2f91 97be 2fef c33e a416 dd3d b158 3ebe
00000090: 4079 213e c8fc 783e b856 c6bd f94b 073e
000000a0: 62ad d53d 38da 183e 9592 d1bd dea4 2fbc
000000b0: 3c88 0ebe 101d 0fbe 4813 083e 773c 51bd
000000c0: e35c 9d3d 7f3b 633e 23c3 423d ed71 5b3d
000000d0: ed55 0bbf 7531 de3e 8c85 ce3d 6f0c f2bc
000000e0: f144 203f 3b66 e03e ca6e f23d 2a6f 1a3d
000000f0: 6eba 12be 1269 72be cad6 393e c677 bd3c
00000100: 0f02 c73e 1bd5 9abe c9c5 d93d 83c2 db3d
00000110: 3a20 28bf 7c84 25bf 3992 eebe a945 cf3e
00000120: 8f9e 45be 935c 39bd 8997 88bc 332b 453e
00000130: ffba f73d e2c8 903d b644 f3bd 2465 13be
00000140: 3cc1 b9be 3d14 6e3e c841 0e3e 23bb 94be
00000150: 8991 253f c8de 23bf ad73 f53d ffe0 1d3d
00000160: ced8 40be c647 ea3d c343 fcbd 0b3d 443d
00000170: ec9d ffbd 956e 45be c91e 173e bd7a 0b3e
00000180: 76ef b7bd 9ec5 a0bd a61a 063e 809b 253e
-0.1336179 -0.14522514 -0.29730827 -0.23689719 -0.58060765 -0.490779 0.1052804 0.052988593
-0.08604692 -0.09644143 0.10955484 0.049869124 0.17190278 -0.22810164 1.1432767 1.1607127
0.07996251 -0.23190574 0.08404748 -0.007934783 -0.076687835 -0.2043567 0.48430312 0.4534524
-0.11555874 -0.06020438 0.12516555 -0.24672216 0.065196544 -0.19916056 0.14943846 -0.07582809
-0.29602954 0.3826842 0.10795334 -0.1858852 0.1576891 0.24315178 -0.09684509 0.13212575
0.10433461 0.14926994 -0.102330364 -0.01072046 -0.13919157 -0.1397593 0.13288605 -0.051083054
0.07683732 0.22190665 0.047549378 0.053575445 -0.5442799 0.43397108 0.10084066 -0.029546944
0.62605196 0.43827996 0.118375376 0.03770367 -0.1432893 -0.23672894 0.18148342 0.023128401
0.38868758 -0.30240712 0.10633428 0.107304595 -0.65674174 -0.6465528 -0.46595934 0.40482834
-0.19298767 -0.0452543 -0.01667382 0.1925476 0.120962135 0.07069565 -0.1187834 -0.14394051
-0.3628024 0.23249908 0.13892281 -0.29049024 0.64675194 -0.6401181 0.11984954 0.03854465
-0.18832704 0.11439471 -0.12317612 0.047909778 -0.12481293 -0.19280465 0.14757837 0.1362104
-0.089812204 -0.078501925 0.13096103 0.161726

network.0.bias f4 [50]
00000000: 5dc3 d93d 4a84 b0bd 70ae c7be 8f94 093d
00000010: df1d b5bc 70bc 7fbd d490 f3be 3724 6fbf
00000020: c46e db3b c819 e3bd b39d 233e 7a3c 633e
00000030: 64fb 813d 6530 9d3d 1b93 1abd 9552 083f
00000040: af0b 0c3f 9e79 ecbd 9fa6 253d 1fe3 853e
00000050: 9dbe f43d 2dc2 aa3d f747 143e f939 cd3e
00000060: 4efb 873e b086 1d3e e779 4cbf f912 4e3e
00000070: e002 653e bce2 7fbe 5c71 843e f590 143f
00000080: 8838 3d3f d6d6 bebd 6721 a7bd 53c8 c4bd
00000090: 5170 24bf 35c1 273e 36a8 08be 1f77 313e
000000a0: 3c53 9f3e ceb2 fb3e 80b3 543f d911 5e3e
000000b0: c53c debd fdb6 f3be 7a28 523e b01c ac3d
000000c0: 8025 48be 33c9 8bbe
0.10632966 -0.08618982 -0.39000273 0.033588942 -0.02210897 -0.062435567 -0.47571433 -0.93414634
0.006696554 -0.11088902 0.15978126 0.22191039 0.06346777 0.07675246 -0.037737947 0.5325101
0.5470533 -0.11546634 0.040442105 0.26149842 0.11950419 0.08337817 0.14480577 0.40083292
0.26558918 0.1538341 -0.7987351 0.20124425 0.22364378 -0.24988836 0.25867736 0.58033687
0.73914385 -0.093183205 -0.08160668 -0.09608521 -0.6423388 0.16382296 -0.13345417 0.17330597
0.3111819 0.49159855 0.83086395 0.21686496 -0.108514346 -0.47600546 0.20523253 0.08403909
-0.19545555 -0.2730194

network.2.weight f4 [50, 50]
00000000: 1e6d c8bd 15e5 91b9 c869 2e3e c072 6bbe
00000010: 97ba b3bd ea3c 32bc 3796 6f3d 8d4b 72be
00000020: 99b5 22be 7bcd d23a dca5 c0bd cd56 8c3e
00000030: 9176 9abb 0da7 cdbe 4d9b 6cbe 78fd debe
00000040: c6c4 76be 0eb6 7dbe e16f af3d 6800 9c3c
00000050: 734a 8bbe 0adb 513d 1bcb d1bc 7c89 b0be
00000060: d380 933d b348 05be 2c83 ec3d 6119 f7be
00000070: b4ae f7bd 43a3 093e 0753 22be fade 81be
00000080: e017 41bf 618f 4a3e adbf af3d 4d2c b9bd
00000090: 7cdc 3d3e c229 c03d 898b bf3e 8c16 c8bd
000000a0: 3697 de3d a7cc d7be e206 b7bc 41cc ba3d
000000b0: 30bc e73e a69c c23e 3f12 89be ce8a 91bd
000000c0: 4c9e c13d be31 083e 86b7 8a3d f846 a2bd
000000d0: 8e92 053e b4f0 a43d 6aff 373e 6730 463d
000000e0: 11d4 983f 2d36 a5bc 9e40 063f a13e db3e
000000f0: b153 6cbd 469c d2bd 3aee a0be 7e8e 313f
00000100: 390f e03e 3c6c 753e 36c5 99bf 090c 6c3f
00000110: 8aa5 0fbc ec7b 96bf a5b8 a5bd 6027 c6be
00000120: 09cb 1fbe 420d 5e3d c643 91be b1f8 01be
00000130: 7bb4 3bbe bc9a 9c3d ee16 19bd 07c9 973e
00000140: a3a1 69be f8f9 91be b041 363d c563 363e
00000150: 1e50 1abe 5d9c 34bf a8fa 81bc aaf5 85be
00000160: d48c 0d3f 6809 1a3e ca76 5bbf 7397 883e
00000170: a26a e03e b852 463e bbba c2be e6c0 da3d
00000180: 15c9 b2bc 1897 8f3e 7bd2 be3d e44d ad3d
00000190: 1e93 513e eb4f 95be 8f84 b0be 4eb4 edbd
000001a0: 60df 9e3e d3f4 043d 887d 3e3e 9533 273d
000001b0: d2b5 653e 847c 17be b53e ae3e 9cb5 b33e
000001c0: 7ca4 2a3e 246d cc3e 30b6 613e 50e8 243e
000001d0: 4be5 883e af37 b63c 2852 cf3c 2aea 50be
000001e0: 4e8b d9bd 8cc1 95bd b255 ab3d b77d 813e
000001f0: 1870 2cbd 2d1a 993e 2585 22be f966 0a3e
00000200: 7e85 6bbd 8fc5 60be 388c 8e3e ed6b 053f
00000210: 6af7 453e 69cd 75be 1707 c9bd 3051 ac3d
00000220: f457 cabe 3089 f5bd 1ddc df3e 2d57 493e
00000230: e951 183e 8a41 a33e 2143 96be bb4e 1a3c
00000240: 22d8 62be 7be6 093e 237a 263d 5701 153e
00000250: e006 ee3d a0eb 2fbe a3b4 c53e 67cf 23be
00000260: 70ea db3d 83ea 2abe 92ed fbbc 4994 bcbd
00000270: c479 c1be 6a8b be3c ffe1 b4be 1db5 c6bd
00000280: 7cd3 2c3d 591e 33be f6da 2dbd 8cc5 5bbe
00000290: be6b e2be 5280 743d f1dc ee3e 0adf 8fbe
000002a0: cd77 943d d551 b83e a2b3 643c bc7a 743b
000002b0: 2534 943e db6e 0bbd 6ba5 dd3d 8c34 63be
000002c0: 8414 eabe 8525 fbbd e03d 5e3e 4af7 29be
000002d0: 26b2 333c 3d57 f43d fe88 033e 6d14 aabe
000002e0: d7ce 923d acc8 99bd 2815 03be 2c0b 123d
000002f0: 9eaa 83be df69 52be 4e6a f33d 12b5 74be
00000300: cb36 083f 8e40 6a3d d5e4 e7bd 5a66 06be
00000310: b78c 10be 6b8e 0b3e 9dab e0bd c0f7 5abc
00000320: 4c57 90bc 73c7 bf3d a385 3f3e edab 083e
00000330: 6fd8 6e3e 1d5b c8bd f6f5 f93d 448c 2d3e
00000340: 3347 cfbd 0796 fe3d 25dd 583e 14a9 51be
00000350: 8f38 383e 9b7e 79be 9e50 d3be 3148 e63c
00000360: 9b1c e43d 242a b03d 9559 a6be 332f b83e
00000370: 613a 74be 623b 6d3e 7e67 c53d 8407 c93c
00000380: 6121 84be 037f 213e c062 36bd c8d0 77be
00000390: 0346 693e 6c8a c4be db31 cc3e 03a9 03be
000003a0: d256 99bd de2a 09bd defd 25bd 3b28 d0bd
000003b0: 8511 de3c ffd0 9c3d 067c 3dbe 0ed1 813b
000003c0: 06ef 2d3b c1c9 1d3d eacd df3c 802b e9bd
000003d0: c056 ea39 fd33 14bd a0b9 663d fcc9 2cbe
000003e0: fc28 5bbe a082 56be 22fd 173e 9299 033d
000003f0: 9d89 babc 2b0b 813d d284 0d3e 8cd6 b83d
-0.097864375 -0.00027827235 0.1703254 -0.22992992 -0.087758236 -0.010878781 0.058492865 -0.23661633
-0.15889587 0.0016082966 -0.09406635 0.27409974 -0.0047138412 -0.40166512 -0.23106118 -0.43552756
-0.240985 -0.2477648 0.08566261 0.019043162 -0.27205238 0.051234283 -0.025609544 -0.34479892
0.07202306 -0.13016014 0.115484565 -0.4826155 -0.12093869 0.13441186 -0.15851985 -0.2536543
-0.75427055 0.19781257 0.08581481 -0.09041653 0.1854114 0.09382965 0.37411144 -0.097699255
0.10868685 -0.42148325 -0.02234215 0.091209896 0.45260763 0.38010138 -0.26771733 -0.07106553
0.09454021 0.13300225 0.067732856 -0.079236925 0.13044187 0.08053723 0.17968526 0.048386004
1.1939718 -0.020167435 0.5244235 0.4282122 -0.057697 -0.10283713 -0.31431752 0.6935805
0.43761614 0.2396707 -1.2013309 0.92205864 -0.008767495 -1.1756568 -0.08091859 -0.38701916
-0.15604796 0.054211862 -0.2837202 -0.12692524 -0.18330567 0.07646701 -0.037375383 0.2964556
-0.22815566 -0.28511024 0.04449624 0.17811497 -0.15069625 -0.7055109 -0.015866593 -0.2616399
0.5529301 0.1504265 -0.8572813 0.26678047 0.43831354 0.19367492 -0.3803309 0.10681324
-0.021824399 0.28044963 0.0931749 0.08462122 0.20466277 -0.29162535 -0.34476134 -0.11606656
0.31029797 0.032460045 0.18602574 0.040820677 0.2243264 -0.14793593 0.34032217 0.35099494
0.16664308 0.39927018 0.22042155 0.16104245 0.26737437 0.022243349 0.02530773 -0.20401827
-0.106222734 -0.07312307 0.083659545 0.25291225 -0.04209909 0.29902783 -0.15871103 0.13515843
-0.057500355 -0.21950363 0.27841353 0.52117807 0.19332662 -0.24004139 -0.098158054 0.08413923
-0.39520228 -0.11989057 0.4372262 0.19662161 0.14874996 0.3188594 -0.2934809 0.009418185
-0.2215276 0.13466828 0.040643822 0.14551292 0.11622405 -0.17179728 0.38614377 -0.15997086
0.10738075 -0.16691022 -0.03075293 -0.09207971 -0.37788212 0.023259837 -0.3532867 -0.09702513
0.042193875 -0.17492045 -0.042445146 -0.21462077 -0.44222826 0.05969269 0.4665294 -0.28099853
0.07249413 0.35999933 0.013958843 0.00373046 0.28946033 -0.034041267 0.108225666 -0.22188014
-0.45718777 -0.12263016 0.21703291 -0.1659824 0.010967767 0.11930702 0.12845227 -0.3321871
0.07168358 -0.07508978 -0.12801039 0.035655186 -0.25716108 -0.20548199 0.118855104 -0.23897198
0.5320861 0.05719047 -0.11322943 -0.13124982 -0.14116178 0.13628547 -0.10970233 -0.013364732
-0.017619751 0.09364214 0.18703322 0.13346834 0.2332475 -0.097830035 0.122051165 0.16948038
-0.10121002 0.12430959 0.2117811 -0.20474654 0.17990325 -0.24364702 -0.41272444 0.028110595
0.111382686 0.08601788 -0.3249022 0.3597351 -0.23850395 0.23167184 0.0963888 0.024539717
-0.25806716 0.15771107 -0.04452777 -0.24200737 0.22780614 -0.38386858 0.39881787 -0.12857442
-0.07487263 -0.033488147 -0.04052531 -0.10163923 0.027107963 0.0765705 -0.18504342 0.003961689
0.0026540174 0.038522486 0.027319867 -0.1138525 0.00044696592 -0.036182392 0.05632937 -0.16873926
-0.21402353 -0.20948267 0.14842656 0.032128878 -0.022770697 0.06300958 0.13820198 0.090252966

network.2.bias f4 [50]
00000000: 5853 7dbe ef13 cbbe 3d80 333d 0ff7 443e
00000010: 3787 ad3d 5f7b fdbd 1786 203e e543 a5bd
00000020: e118 d7bd 111a 893e 3893 a9be c4b9 7cbc
00000030: eeb4 d73e 91c3 19be f0f4 c0be 4166 133c
00000040: c5bc 99bd 04dd 7b3e d1f6 353d d0f5 6bbe
00000050: 21be 1abc 04ae e2be 3d33 ef3d 8bd2 7e3e
00000060: bba7 933d 2c4c e2bd 54b3 813d 0741 98bd
00000070: 1e3d 9ebc 532c 97bb 008a 863e 9c28 f03e
00000080: ddd8 463d dc59 3cbe c014 4f3e e29f 3c3e
00000090: a9d6 85be dd45 793d d266 07be f060 1d3f
000000a0: eeab cabd 19a3 13be c7b5 3ebd ce63 593e
000000b0: a9f4 373e 7583 33be 381e 983e feef c8bd
000000c0: f789 193c a672 ea3d
-0.24738824 -0.39663646 0.04382347 0.1923487 0.08473056 -0.12377047 0.15676151 -0.080695905
-0.10502792 0.267777 -0.33120131 -0.015425149 0.42130226 -0.15016009 -0.37686872 0.008996547
-0.07506708 0.2459603 0.044424836 -0.23042989 -0.009444744 -0.44273388 0.11679695 0.24885003
0.072097264 -0.11049685 0.06333032 -0.07434278 -0.019316252 -0.004613438 0.2627716 0.46905982
0.04854666 -0.18393654 0.20222759 0.18420365 -0.26140335 0.060857642 -0.13222817 0.6147604
-0.09896074 -0.14417686 -0.046560075 0.21229479 0.17964424 -0.17530616 0.29710555 -0.098114
0.009371272 0.11447649

network.4.weight f4 [50, 50]
00000000: 2432 8ebd 224b 7c3d fb87 523d 282a b4bd
00000010: 13df 7b3c 641c 88be f801 1e3e 6c01 24be
00000020: 3a59 bbbd af20 893d 4f08 a9bd 62aa d73c
00000030: bc89 21be d89a 2a3c bc22 193b a073 f0bc
00000040: 7382 1d3b 1488 b03c f0b3 b6bd 69af 933e
00000050: 1dfc fb39 1a32 96bc 9a9b 5c3b 5b3e 80be
00000060: 4030 0b3d f3c6 ed3d 3002 533e 3ffa 0c3e
00000070: 3af1 4ebe cc4b db3d e060 d7bd c936 163e
00000080: 99db 83bd c7f0 f83d 2173 983d c9a1 25bd
00000090: 440f f7bd afa7 8e3c 0f18 0fbd 0c10 eebc
000000a0: e698 cb3c bbe4 bd3d e203 b33d 6eb1 c9bc
000000b0: 1481 743c cc3e 1c3d 8671 0dbd f428 833d
000000c0: 4828 863b f01f 2d3e 4c4f 99bd 3a5b 783d
000000d0: 0116 7e3e 17e1 f83d fef1 74bc d94e a23d
000000e0: ba41 a93e 1d4d d43e 5b2c a83f 3e7e 3abe
000000f0: 0a0b b83c 7cb8 77bd 139c 61be 7fad 17bd
00000100: 4209 f9bb b681 40bc 96b9 9a3e 2523 20bf
00000110: fa4f 363f 758c 263d f001 493e aac6 f6be
00000120: 323d dd3e 6321 26be 0d2a d83c 9d61 b03e
00000130: 2cda 163d 648a 46bf b587 77bf b28c e43e
00000140: ae7e 1abe 8234 b9be fa59 86bd 726c ecbd
00000150: 1260 39bf a9c3 b5be 2604 f53c a4bb 8f3c
00000160: e182 d6bd c70c 133c fe07 033d aa84 ff3d
00000170: 46f7 50bd 361c 7c3d 658d 833f ef24 c13e
00000180: 40b4 a03d fee7 f03d ffa9 42bd 1850 eebe
00000190: 0604 d83d 7ae4 f2bd 4a5e 163d 2cdd ee3c
000001a0: 4d6a 683e 1b56 a0bb 97dd 58bd 2d5a a53d
000001b0: 2689 81bd a9b4 433b bcc3 1ebd d2e7 19bb
000001c0: fc10 8abe 3642 0bbd b13b 723d edbf 87bd
000001d0: efd5 903d 01a3 d63d 6de0 ad3d 6211 133e
000001e0: 0bca 423e c64c 19bd 2c85 da37 b7a3 6cbe
000001f0: 03bb 3abd be65 32bd f3ee 2abd c3e1 4bbd
00000200: fe92 913c 344c aabd 1684 0d3e 71b1 cd3d
00000210: c2f2 07bd 6af6 c4bd 9f11 ec3d 858b c3bc
00000220: dc34 5e3e eaa4 54bd 210a 243c d979 f93d
00000230: 01d1 813e d1ca f83c 9722 093e b65d 33be
00000240: d785 efbd 9744 0e3d 82bd 283d 348c 1cbd
00000250: 0126 a8bd 0666 a13c d3fc 6dbd e58e bcbd
00000260: 5c3e a4bd 707c ccbc c5bc 4e3e cfae 2f3e
00000270: 30f2 6e3c d2e2 38bc 034b 163d ae67 69bd
00000280: 2098 b83d 8acf a2bd 8a53 10bd a805 d0bc
00000290: bb93 16bb b596 1ebe 8b83 2a3d 48dc a3bc
000002a0: a81b 9bbd 6f3b 553c 6a44 62bd b0ab 40bd
000002b0: dba3 9fbc b741 2ebd d85c 56bd 5c54 9ebd
000002c0: 6de8 8f3d e59a 06bd 90b8 873d 0dac 5f3d
000002d0: 4b5d f2ba d93b b2bd 1cc9 0a3d 3c46 5d3d
000002e0: 5572 b3bd 5baa 15bb 494a 2f3d b715 2bbd
000002f0: 69fb 94bc eed0 6a3d 6e50 1c3d 3ef7 d9bb
00000300: d26b d43d 168d dfbc 29b6 fc3d 6637 0dbe
00000310: c3b9 9bbd 2d22 573b 71d0 95bd 6d47 b43d
00000320: a586 5ebe c4d0 4f3d 10e0 b6bd 5daf 21bd
00000330: be6b cdbe cc63 0cbe 6c34 15be 7892 f93b
00000340: 1337 00be a3cb 283d ae45 adbd 7a2c 423e
00000350: 083f 1d3e 8c18 4e3d dd8d c23c 4131 8f3d
00000360: afec 653e 5d0b f33c 4c71 143d 6763 b5bd
00000370: 895c 90be 1b3e 64bd 4bdf 1f3d cac5 2bbe
00000380: 2506 6b3e 204f af3d 3461 853e 4d1e ea3c
00000390: c656 f5bd 9292 623c b3bd 23be e612 c3bc
000003a0: d7c3 a83b c0c7 bd3e 10c4 a1bd 335e f23c
000003b0: 21b2 f73d 074b 7a3e f432 83bd 10ce f43c
000003c0: 662b 21bd 4391 62bc 67ca 27bd a303 bfbd
000003d0: dccf 153e d522 31bd d926 0ebd e3e4 973e
000003e0: 1501 6e3d 6684 1c3c c6a4 57bd fca9 1fbd
000003f0: d8c8 a63d e0a4 7ebe 4d56 11bd a986 423e
-0.06943157 0.06159509 0.051399212 -0.08797103 0.015373009 -0.2658416 0.15430439 -0.16016167
-0.09147878 0.06695687 -0.08253538 0.026326362 -0.15775198 0.010412894 0.002336665 -0.02935201
0.0024034053 0.021549262 -0.08921039 0.28844765 0.0004806229 -0.018334437 0.0033662082 -0.25047573
0.03398156 0.11610212 0.20606303 0.13767336 -0.20209208 0.107078165 -0.10516524 0.14669336
-0.06438369 0.121553 0.07443834 -0.040437493 -0.120634586 0.017413942 -0.034935053 -0.029060386
0.024853181 0.092721425 0.08740975 -0.024620738 0.014923353 0.038145825 -0.034532093 0.064042956
0.0040941574 0.16906714 -0.07485828 0.060633875 0.24813081 0.121523075 -0.014950274 0.07925195
0.33057958 0.41465083 1.3138536 -0.1821222 0.022466201 -0.060478672 -0.22032194 -0.037030693
-0.0075999806 -0.0117496755 0.30219716 -0.62553626 0.71215785 0.040661294 0.19629645 -0.48198444
0.4321075 -0.16223674 0.026387239 0.34449473 0.03682916 -0.7755492 -0.9669145 0.44638592
-0.15087387 -0.36172873 -0.065601304 -0.11544122 -0.72412217 -0.3550084 0.029909205 0.017545529
-0.10474182 0.008975214 0.031990044 0.124764755 -0.05101707 0.06155034 1.0277525 0.3772349
0.0784688 0.11762999 -0.047525402 -0.46545482 0.105476424 -0.11859985 0.036711015 0.029158197
0.226968 -0.004893077 -0.0529457 0.0807384 -0.06324987 0.002986232 -0.038760886 -0.0023484123
-0.26966083 -0.03399869 0.059138957 -0.06628404 0.070720546 0.10480309 0.084900714 0.143621
0.19022386 -0.037426732 2.6049638e-05 -0.23109327 -0.045588505 -0.04355406 -0.041731786 -0.04977585
0.017770287 -0.08315316 0.13819918 0.1004361 -0.033190496 -0.09617312 0.115267985 -0.023870239
0.21699852 -0.051915087 0.010012181 0.12181444 0.2535477 0.030370148 0.13392101 -0.17516217
-0.1169545 0.03473338 0.041196354 -0.038219646 -0.08210374 0.019701969 -0.05810244 -0.092069425
-0.080197066 -0.02496168 0.20189197 0.17156528 0.014584109 -0.011284547 0.03669263 -0.056983642
0.090133905 -0.07949741 -0.03523592 -0.025393322 -0.0022976238 -0.15487178 0.041629355 -0.0200025
-0.075736344 0.013014658 -0.055241026 -0.047038734 -0.019487312 -0.04254314 -0.052334636 -0.07730934
0.070267536 -0.032862563 0.066269994 0.05460744 -0.0018490938 -0.08702821 0.0338832 0.05402206
-0.087620415 -0.0022837135 0.042795453 -0.041768756 -0.018186288 0.057328157 0.03816264 -0.006651788
0.103721276 -0.027288955 0.12339432 -0.13790664 -0.076037906 0.0032826767 -0.07315148 0.08802686
-0.2173105 0.050736204 -0.08929455 -0.03947388 -0.40121263 -0.13709944 -0.14570779 0.0076163374
-0.12521009 0.041209828 -0.08460556 0.18962279 0.15356076 0.05031638 0.023749286 0.06991816
0.22453569 0.029668504 0.03624086 -0.0885685 -0.281956 -0.05572329 0.03903131 -0.1677467
0.22951563 0.08560014 0.26050723 0.028578902 -0.11979441 0.01382889 -0.15990333 -0.023812722
0.005150299 0.3706646 -0.07898724 0.029585933 0.12094522 0.24442683 -0.06406203 0.029883415
-0.03934803 -0.013828578 -0.04096451 -0.093268655 0.14630073 -0.04324611 -0.034705017 0.29666814
0.0581065 0.009553051 -0.052647375 -0.03898047 0.08143777 -0.24867582 -0.035482693 0.18996681

network.4.bias f4 [50]
00000000: 617c c83c ab85 d4be 0fbc 563d 669b 953d
00000010: 7409 5bbd 9b51 13be 17fa c6bd 5701 55bd
00000020: ff29 44bd c968 d33d 531e b5bd 328e 3abe
00000030: b07b df3e aee5 433e 3697 73be 88a8 72bc
00000040: 5bb7 6c3d 51f7 a3bd 4158 bbbd 9773 26bc
00000050: c350 bc3b e949 2cbe 7e02 c23d 154d 4e3e
00000060: a151 4a3c d7bc c5be 524b 64bd 7f80 c63c
00000070: 5342 0d3e 8aa9 e7ba f8d3 89be a9a8 2e3d
00000080: 68d7 123e fcf3 c03d 0734 d33c 116b 1fbd
00000090: d798 2bbe db20 41be 139c f2bd a122 0bbe
000000a0: dcb6 fe3d 858b 5b3e 46f5 e93d 9826 e0bc
000000b0: fdd2 c8bd 7b2a 29bd 3338 16be 4cb7 45be
000000c0: c72b c8bc 9a99 223d
0.024473371 -0.4150823 0.05242544 0.073050305 -0.053475812 -0.14386599 -0.097156696 -0.05200323
-0.047891613 0.103227206 -0.088436745 -0.18218306 0.43649054 0.19130585 -0.23788151 -0.014810689
0.05779205 -0.08006156 -0.091476925 -0.010159395 0.0057469322 -0.1682507 0.094731316 0.20146592
0.012348563 -0.38620636 -0.055735894 0.024231194 0.13794832 -0.0017674428 -0.26919532 0.042641316
0.14339983 0.09421536 0.025781645 -0.038920466 -0.16757523 -0.1886019 -0.11846175 -0.13587429
0.124372214 0.21439941 0.11423735 -0.027362153 -0.09805868 -0.04130028 -0.14669876 -0.19308203
-0.024434937 0.039697267

network.6.weight f4 [1, 50]
00000000: 99b3 6739 1d88 eb3e b4f4 0339 e538 8c39
00000010: 761c 13b9 3aa6 16be 58d8 e13e 1b63 93be
00000020: 1483 c23e 9a0f 0b3f 3071 d2be 7735 e53d
00000030: bb3c 67bf 4719 b63e 2446 6bbe a9f6 ec3d
00000040: 0332 c2be fc7a 6abe fd59 09bd 40fe 143e
00000050: d011 673f 715d 2ebf c5a8 c03e 8b76 adbd
00000060: c43b 913a 2dff 423e 6957 123f 3cec 25be
00000070: c017 f4bd 3039 a73e a16f 80be ef22 5cbe
00000080: ecde e33e 8006 743e 6ffb 383f 153a 103e
00000090: fdb3 393e 90c0 ac3e 96be dbbe 5162 a2be
000000a0: f57e 9abe 5e3f 943d 5731 5dbe ca07 91bd
000000b0: cc61 583f 688d 5d3d 462b 663e f231 0bbe
000000c0: a13a 653f 780f 02bf
0.00022096782 0.46002284 0.00012584293 0.0002674527 -0.00014029615 -0.14711848 0.4411037 -0.2878655
0.3799063 0.5432068 -0.4110198 0.11191838 -0.9032704 0.3556616 -0.22975975 0.11570484
-0.3792878 -0.22898477 -0.033533085 0.14550114 0.90261555 -0.6811133 0.3762876 -0.08469876
0.0011080434 0.19042654 0.5716463 -0.16203398 -0.119185925 0.32660818 -0.25085166 -0.21497701
0.44506013 0.23830605 0.7225866 0.14084657 0.18135066 0.33740664 -0.42918843 -0.31715634
-0.30174986 0.07238649 -0.21600853 -0.07081564 0.84524226 0.054089934 0.22477445 -0.13593271
0.89542586 -0.50804853

exp_avg f4 [50, 2]
00000000: bc13 e73a 20ab 29ba b200 563a f56a 84ba
00000010: 15fe d039 11fd 26b9 016d baba 559e 37ba
00000020: b0a3 423a 7015 b4b9 b010 beba f3bc 87ba
00000030: 9b5f 3dbb fae7 35bb 09e4 b63a e88d a5ba
00000040: eeac 4ebb a323 53bb 4be8 f3ba f194 acba
00000050: fa5d 5539 8949 d8ba 5d18 c7b9 796b db39
00000060: 6062 133b 483b f439 a158 39bb f38a 3cbb
00000070: 7085 f0ba 493b 21bb ac8f 99ba 6f7f 61ba
00000080: 2f70 393b c20b 293b 0fa0 38bb dc1f 36bb
00000090: 81c6 82ba a8da 8c3a d4a6 4c3b c1fe 2f3b
000000a0: 5d84 39ba 6b29 253a 9596 d23a e7f4 003b
000000b0: 5737 8a3a 86dd 3138 1e76 67ba 2d4c 2aba
000000c0: ec44 02ba 7eff 663a 6efd ea39 c4df 8037
000000d0: 41bd 1b39 e1d3 f6b7 03e5 88ba e488 58ba
000000e0: 0e9f 31ba 72f8 6839 d3b0 d0ba 6562 f2ba
000000f0: 95e8 723a 126e 4bba b368 e6b9 7d01 0938
00000100: 2103 ceb9 8aca 00b9 83b4 c1ba e874 6fb9
00000110: 373a 3039 da27 3f38 77a4 c139 ea4a 5f39
00000120: 33a4 853a 1dcb d038 c15d 0f3a 3cb0 e83a
00000130: 5eca 03bb 82e7 37ba 1bba b83a ca9b 6eb9
00000140: fdbb 3b3a f001 033a e3f7 24bb 9a68 30bb
00000150: 9c29 beb8 7324 03b8 f84c b4ba 08e3 66b9
00000160: c99f e439 d020 81b7 8c61 b439 5445 e039
00000170: b473 ab3a cb3a 77ba f358 8eba 91b3 253a
00000180: 409b e939 3b3e c4b7 8b53 e4ba 9e6e 673a
0.0017629783 -0.0006472338 0.0008163556 -0.0010102676 0.00039862157 -0.00015925268 -0.001422316 -0.00070044893
0.0007424904 -0.00034348248 -0.0014500823 -0.0010355994 -0.0028896097 -0.0027756677 0.0013953458 -0.0012630792
-0.003153618 -0.0032217286 -0.0018608657 -0.0013166947 0.00020348272 -0.0016501407 -0.0003797439 0.00041851008
0.0022489056 0.00046583475 -0.0028281587 -0.0028769344 -0.0018350314 -0.0024601987 -0.0011715791 -0.0008602058
0.0028295626 0.0025794362 -0.0028171574 -0.0027789986 -0.0009977372 0.0010746317 0.0031227367 0.0026854726
-0.00070769136 0.0006300422 0.0016066605 0.0019677223 0.0010545057 4.24064e-05 -0.00088295515 -0.00064963364
-0.00049693766 0.0008811875 0.00044820778 1.5362988e-05 0.00014852454 -2.9424149e-05 -0.0010444227 -0.00082601444
-0.0006775715 0.00022217797 -0.0015921838 -0.0018492459 0.0009266225 -0.0007760237 -0.00043947026 3.266473e-05
-0.00039293713 -0.00012282483 -0.0014778528 -0.00022836367 0.00016806355 4.5575063e-05 0.00036934364 0.00021294845
0.001019603 9.956046e-05 0.00054689875 0.0017752717 -0.0020109634 -0.00070153933 0.001409355 -0.00022755485
0.00071614963 0.0004997542 -0.0025172166 -0.0026917816 -9.067656e-05 -3.126678e-05 -0.0013755849 -0.00022019085
0.00043606598 -1.5393278e-05 0.00034404953 0.00042776263 0.0013080747 -0.0009431063 -0.0010860249 0.0006321008
0.00044556893 -2.3393999e-05 -0.0017419917 0.0008828434

exp_avg_sq f4 [50, 2]
00000000: a9c7 1f3b ce5b ec3a 10c8 b438 b28a a538
00000010: 885c a338 b294 bb38 81cd e03a 9ecc 043b
00000020: c744 493a cd0a 243a 54f4 9d3a 9738 d13a
00000030: 3409 a63a 64f4 743a 75c9 8439 ba13 6039
00000040: 7f8a 4b3b 1c32 f73a b096 033a 16b4 113a
00000050: 5af5 6f3b 4f90 1e3b e055 2838 477b 1038
00000060: d1f3 063b 0148 0f3b 9731 2b3b 120f e03a
00000070: 48b7 193b 8ae6 fe3a 486b a73a 7ee0 163b
00000080: f21b 9d3a 71cb 633a b0ce db3a ce91 883a
00000090: 6247 2c3a 3dbb e739 c4f2 ce3a a9e5 d33a
000000a0: 86ed b93a 3455 743a 7bc5 593a 3b5f b63a
000000b0: 75ef 623a 192f 353a f7c4 6b3a 9d44 a63a
000000c0: 7b4f 273a 27e8 cc39 c6fa bb39 4d2c 9739
000000d0: 1237 0a39 95a4 0e39 44cc 323a 6223 763a
000000e0: 4c28 f838 7bea 9c38 8f7e 863a fb1b b93a
000000f0: 851b 4b3a 6393 f139 76a9 b839 a103 ef39
00000100: 23cc 9339 f3e3 6339 f60b bc3a 037f 993a
00000110: c888 e038 4b43 9938 8aeb 8a38 e2ad a738
00000120: b5d8 ee39 c6bb 473a f453 9a3a 7105 833a
00000130: df63 173b aa7f 1a3b ecde 263b d947 c83a
00000140: a135 0739 6dc4 af38 1191 773b b950 213b
00000150: bc2c 4439 be96 1039 70d0 6b3a 449b b73a
00000160: dc84 4139 0916 7439 8a57 f639 fd29 ff39
00000170: 2fce 183b 0987 b63a b47f 003a 5cd0 d439
00000180: ff10 dc3a af59 b23a d5af 993b 9434 653b
0.0024380481 0.0018032731 8.6203334e-05 7.893647e-05 7.789681e-05 8.9445515e-05 0.0017151089 0.0020263563
0.000767779 0.0006257713 0.0012050965 0.00159623 0.0012667538 0.00093442784 0.000253271 0.00021369653
0.0031057892 0.0018859538 0.00050197076 0.0005558146 0.0036614747 0.0024194901 4.01343e-05 3.4447086e-05
0.0020592103 0.0021862986 0.0026122087 0.0017094335 0.0023455191 0.0019447368 0.0012773061 0.0023021991
0.0011986478 0.0008689678 0.0016769972 0.001041943 0.0006571916 0.00044199257 0.0015788903 0.0016166467
0.0014185167 0.00093205576 0.000830732 0.0013913879 0.00086568977 0.000691162 0.00089938886 0.0012685243
0.0006382388 0.0003908288 0.0003585426 0.0002883397 0.00013181221 0.00013603487 0.0006820599 0.0009389428
0.000118330674 7.482335e-05 0.0010261106 0.0014122719 0.0007747936 0.00046076914 0.00035221473 0.00045588336
0.0002819012 0.00021733325 0.0014346826 0.0011710826 0.0001070663 7.308143e-05 6.624225e-05 7.995569e-05
0.00045556357 0.0007619228 0.0011774288 0.0009996129 0.00231003 0.002357463 0.0025462462 0.0015280201
0.00012894582 8.3812374e-05 0.0037775675 0.0024614765 0.00018708681 0.00013789066 0.0008995598 0.0014008065
0.00018455408 0.00023277862 0.00046985998 0.00048668674 0.0023316254 0.0013925742 0.0004901842 0.0004059103
0.0016789733 0.001360705 0.0046901503 0.0034973966

exp_avg f4 [50]
00000000: 280c 7e39 8eb8 b838 611f cdb8 59e3 5cb9
00000010: 843d 5e37 7110 11b9 3482 b3b8 1301 9638
00000020: 2fc0 28b9 affb b2b8 ee43 2339 d325 b037
00000030: 756d 053a 9c0f aeb9 1dc5 05b8 85aa 10b9
00000040: 8382 0b39 ef03 0d38 ada5 60b9 4f23 3e39
00000050: 48a4 36b9 bd4e 3f39 0d18 9638 b9cf aeb8
00000060: 1a58 80b9 543f 8137 ed42 0438 5f17 fdb8
00000070: baa8 2939 bde1 60b9 b128 1a38 40e9 e0b8
00000080: 1f56 d138 56ba 7fb9 bc5b 45b9 1ade 2439
00000090: d749 da38 a7e1 3ab9 9b6b b8b9 3f87 e739
000000a0: 73f1 df37 8311 edb9 5660 02b8 5ecb 5ab9
000000b0: ee7a 2139 082e 35b8 1be8 a039 bd99 d2b8
000000c0: cc03 4e39 eb3a 53b9
0.00024227856 8.80818e-05 -9.7810065e-05 -0.00021065529 1.3246554e-05 -0.00013834402 -8.559637e-05 7.1527575e-05
-0.00016093322 -8.534581e-05 0.00015570197 2.0998448e-05 0.0005089858 -0.00033199496 -3.1893247e-05 -0.00013796434
0.00013304692 3.3620683e-05 -0.00021424024 0.00018132965 -0.00017418072 0.00018244512 7.157037e-05 -8.335658e-05
-0.00024479703 1.5407488e-05 3.1533582e-05 -0.00012068333 0.00016179951 -0.00021446399 3.6754358e-05 -0.000107245985
9.981938e-05 -0.0002438811 -0.00018821558 0.00015722998 0.00010408804 -0.00017822404 -0.00035175387 0.0004416052
2.6696105e-05 -0.0004521721 -3.1084135e-05 -0.0002086586 0.00015399951 -4.3196633e-05 0.0003069051 -0.00010042216
0.00019647105 -0.00020144477

exp_avg_sq f4 [50]
00000000: ec5d 9637 3461 7836 3077 7a36 b385 9637
00000010: dde4 2736 247e 8537 7ccd 8436 5b39 6a37
00000020: 6b85 2d37 b26c 8036 ae86 9937 9c3d d635
00000030: ab44 0338 fdab 1337 205d 0637 0ea3 ab37
00000040: 1848 bc36 c53d be36 0132 e236 6e93 0437
00000050: eb54 9436 6468 b437 2245 1337 60ae 0f37
00000060: e405 dd36 321e 1936 dd64 0036 91ab 9536
00000070: abc8 1437 1690 b537 21bf 2137 1706 6d36
00000080: 6731 b236 9db1 3937 cdb8 5a36 a166 1b36
00000090: b86c fb36 51ef 4d37 9c8c da37 4faf 5537
000000a0: 4eff 0f37 acc0 5837 2386 9c36 0b63 8c37
000000b0: 9c47 4b36 f88f 4036 2f86 2037 a204 8736
000000c0: 838b ed36 1a3a b937
1.792513e-05 3.701146e-06 3.732228e-06 1.7943652e-05 2.5018155e-06 1.5913574e-05 3.957828e-06 1.3960841e-05
1.0342667e-05 3.827351e-06 1.8301736e-05 1.5962173e-06 3.1296786e-05 8.801927e-06 8.008705e-06 2.0460717e-05
5.6112294e-06 5.669632e-06 6.741146e-06 7.902139e-06 4.4206295e-06 2.1506283e-05 8.777979e-06 8.564064e-06
6.586999e-06 2.2816353e-06 1.9132196e-06 4.460519e-06 8.868209e-06 2.1643977e-05 9.6408485e-06 3.5319297e-06
5.3105646e-06 1.1068213e-05 3.25921e-06 2.3156538e-06 7.4930394e-06 1.2274672e-05 2.6053101e-05 1.2736607e-05
8.582907e-06 1.2919463e-05 4.664778e-06 1.6735421e-05 3.029104e-06 2.869403e-06 9.567985e-06 4.023853e-06
7.0793917e-06 2.2080774e-05

exp_avg f4 [50, 50]
00000000: 64f1 87b8 496c e0b8 8e4e 2cb9 10a2 0d38
00000010: 48cc 1fb8 dadc 2238 3622 0c38 b203 fb38
00000020: 01fb 8db7 4d11 d237 7040 8cb8 e8eb 2539
00000030: 1522 31b8 e4f8 51b7 5ba0 5db7 1a20 05b7
00000040: 2de5 38b8 956a 9a36 ae78 b338 82e7 93b7
00000050: c261 4538 a8ea 01b8 b50f 8ab8 c7ad 8733
00000060: 212d 2038 c1a2 4937 767c 3bb7 e9df 0037
00000070: 24fe 0a39 e3ef 3e38 9b0c bcb8 8bd3 7337
00000080: 4486 b2b5 8336 5538 5b35 1db9 5d77 12b8
00000090: 3df8 8db7 82c3 8037 1e03 4a38 07b9 85b8
000000a0: 6334 40b8 4dcc 44b8 789f 2b37 163f cc37
000000b0: f7d3 9cb7 3414 d536 6ba4 9fb8 6ff2 7338
000000c0: 8bdc d1b7 7a60 9638 40e2 ef37 7182 8d37
000000d0: 03b5 5db7 4ad8 73b7 2454 9237 0ef1 92b7
000000e0: 26bd 57b6 5e48 06b9 f49c 8a37 1216 31b7
000000f0: eb57 0838 0864 f235 049f 9e37 992b 6937
00000100: cd43 6637 f3cf c736 8d71 9c35 2a2a cc36
00000110: ce46 e5b7 49f1 bf35 eb5d 9cb7 47b0 6537
00000120: 9246 fb37 0c1b 1736 f933 89b7 e736 eab6
00000130: 0763 76b7 34fe 25b6 bab3 2337 8bb3 b9b7
00000140: a410 3238 3dda 5a36 e84f 5237 12fa c4b7
00000150: ffa6 c0b6 66df b9b5 e6e4 98b6 082b 74b7
00000160: 9d7e bcb7 803d fe37 cc95 9337 1108 a737
00000170: ebfe 8337 d192 08b7 02b3 8136 7ada 8db6
00000180: 3e13 1738 3f08 a7b7 182f 2f37 86a7 17b8
00000190: ba33 6736 bdda 6937 27f7 0f38 4926 4836
000001a0: f380 aab5 33b8 b935 5207 b3b6 233c b037
000001b0: b03c ec35 c431 3a35 978d e936 47f4 09b8
000001c0: ebf8 94b5 c44b d436 1f4a df34 8d74 7637
000001d0: 557d 1536 eb51 7335 5268 35b7 1b59 3b36
000001e0: c2a3 5335 4a3c ecb5 13e9 6436 564e 5037
000001f0: 9f52 9f36 35c7 ae36 507f 04b8 9495 0b37
00000200: 70c3 f7b6 622a aab5 ba46 2f37 28a6 3137
00000210: fb7e e637 ff36 b6b5 d3fc 3b37 e73c 94b7
00000220: cc8c 23b7 b740 a936 0117 85b4 9877 8b36
00000230: 94bf 38b7 8e4c 9837 0ebc ea37 93a5 e136
00000240: e1fe 37b7 1a7a 61b7 8c62 f436 a274 98b5
00000250: a769 bab6 7d96 c0b6 b96e ccb8 9b63 f5b7
00000260: afe5 dd37 d89a 3838 77c7 85b8 5182 5e38
00000270: 23c5 28b8 a471 1eb8 83d9 c7b8 ff8b da37
00000280: 7e20 0fb9 ac62 64b7 04fc 72b8 fdbc adb8
00000290: 2e46 aeb8 afd4 0bb8 a938 8538 3b7e 6fb8
000002a0: 50cf ca38 25bc d937 9829 9338 e15d 18b8
000002b0: 3dd8 d1b8 ecfc b6b7 ea82 a238 bb4a ec37
000002c0: 3cdf 7638 a824 93b6 8b8f efb7 cfab 8b38
000002d0: f58a 25b9 2436 b1b7 1af0 6ab8 a6ac ac38
000002e0: 5aec bf37 c722 6838 7afc c537 54de b338
000002f0: 04ed 9338 08c9 e3b8 3791 8c37 abcc b4b8
00000300: d573 87b8 bfe5 9c37 9436 9b37 0078 d837
00000310: d9c0 0cb9 4aa9 8138 37da 17b8 6696 0739
00000320: d562 7537 0d71 2c38 2d98 9538 2aea 35b7
00000330: 437f 6a37 c3c3 bdb6 5b0b 2d38 5846 5ab8
00000340: 12bb ae37 55c8 8436 b5d6 8037 e52d 8ab8
00000350: e93e e836 4a59 8737 4121 ab37 6b24 d2b7
00000360: 0b21 77b8 9592 b637 0b58 0eb8 03b2 c7b7
00000370: 2e20 d1b7 d0db d733 ef9b 4c37 7e6b aab7
00000380: a419 1bb8 99f3 75b7 10ad 4838 11f6 37b7
00000390: 199c 8db8 b8ac b636 c9d2 8a37 750d 11b8
000003a0: 8816 1fb8 90a7 26b7 b075 a338 4dc5 29b4
000003b0: f072 1f38 7fb4 e4b7 e9e8 96b6 4511 2837
000003c0: a851 dbb7 cd7a f9b6 2a0a 42b8 a3ce 9fb7
000003d0: 734b 2e36 9c1d c437 d05d 6837 a3f6 c8b7
000003e0: 8f0e ad37 1c8f e4b6 89e6 5a36 67c3 5fb8
000003f0: 2a4e 87b8 90e4 0538 c3d9 0db7 72d1 b737
-6.482264e-05 -0.00010701322 -0.00016432462 3.3767952e-05 -3.8098806e-05 3.8829494e-05 3.3410462e-05 0.00011969301
-1.6925393e-05 2.5042007e-05 -6.6877226e-05 0.00015823508 -4.223183e-05 -1.251532e-05 -1.3209962e-05 -7.934892e-06
-4.4082455e-05 4.6019654e-06 8.5578635e-05 -1.763157e-05 4.7059504e-05 -3.0974537e-05 -6.5832784e-05 6.318037e-08
3.8189002e-05 1.2018428e-05 -1.1175047e-05 7.681528e-06 0.0001325538 4.5522942e-05 -8.9668865e-05 1.4533182e-05
-1.330111e-06 5.0833925e-05 -0.00014992563 -3.492028e-05 -1.6924105e-05 1.534983e-05 4.8163456e-05 -6.376398e-05
-4.5825156e-05 -4.692031e-05 1.02295235e-05 2.4348072e-05 -1.8695353e-05 6.3502466e-06 -7.612336e-05 5.81615e-05
-2.501744e-05 7.1705275e-05 2.8596376e-05 1.6869251e-05 -1.3214772e-05 -1.4534287e-05 1.7443737e-05 -1.7516806e-05
-3.2147595e-06 -0.00012806195 1.6523969e-05 -1.0555161e-05 3.2506807e-05 1.8059518e-06 1.8909115e-05 1.3898033e-05
1.3724854e-05 5.9548706e-06 1.1655953e-06 6.0845823e-06 -2.7331898e-05 1.4300832e-06 -1.8640383e-05 1.3690506e-05
2.9954394e-05 2.2516497e-06 -1.6355874e-05 -6.980135e-06 -1.4685799e-05 -2.4734882e-06 9.757403e-06 -2.2137325e-05
4.2454005e-05 3.2611563e-06 1.253558e-05 -2.3481469e-05 -5.741487e-06 -1.3848592e-06 -4.5566003e-06 -1.4553552e-05
-2.2470305e-05 3.0307798e-05 1.759352e-05 1.9911708e-05 1.5735122e-05 -8.140415e-06 3.865339e-06 -4.2275615e-06
3.6019126e-05 -1.9911791e-05 1.0441778e-05 -3.6157224e-05 3.4451791e-06 1.3938811e-05 3.4324035e-05 2.9824607e-06
-1.2703516e-06 1.3837183e-06 -5.335468e-06 2.1008838e-05 1.7601033e-06 6.936282e-07 6.9604243e-06 -3.2890846e-05
-1.1099304e-06 6.3269126e-06 4.1590917e-07 1.4689879e-05 2.2275683e-06 9.064376e-07 -1.081273e-05 2.7917038e-06
7.8841924e-07 -1.7600917e-06 3.4110315e-06 1.2416005e-05 4.7481876e-06 5.208795e-06 -3.158982e-05 8.319872e-06
-7.3839255e-06 -1.2678322e-06 1.044728e-05 1.0588708e-05 2.7477266e-05 -1.3576063e-06 1.1204934e-05 -1.7671335e-05
-9.748339e-06 5.0441263e-06 -2.4789918e-07 4.1564454e-06 -1.101186e-05 1.815546e-05 2.7982544e-05 6.724798e-06
-1.0966994e-05 -1.3439474e-05 7.283239e-06 -1.1358827e-06 -5.5555315e-06 -5.739565e-06 -9.748102e-05 -2.9252658e-05
2.6452208e-05 4.4013228e-05 -6.3790874e-05 5.305029e-05 -4.023792e-05 -3.777597e-05 -9.529574e-05 2.6052816e-05
-0.00013649647 -1.3612833e-05 -5.7932004e-05 -8.284485e-05 -8.3100385e-05 -3.333826e-05 6.352488e-05 -5.70996e-05
9.6707256e-05 2.5956027e-05 7.017254e-05 -3.6327056e-05 -0.00010006174 -2.1813867e-05 7.7491466e-05 2.8168191e-05
5.8858874e-05 -4.3852087e-06 -2.8557863e-05 6.660038e-05 -0.00015787392 -2.1125255e-05 -5.601356e-05 8.2337574e-05
2.2879034e-05 5.53455e-05 2.3601799e-05 8.576797e-05 7.053654e-05 -0.000108616485 1.6756921e-05 -8.621191e-05
-6.458877e-05 1.8703633e-05 1.8502855e-05 2.5805086e-05 -0.00013423282 6.182732e-05 -3.6204434e-05 0.00012930631
1.4626149e-05 4.1113282e-05 7.1332186e-05 -1.0842961e-05 1.3977117e-05 -5.6554286e-06 4.125699e-05 -5.2040763e-05
2.0829528e-05 3.9572283e-06 1.535877e-05 -6.588901e-05 6.9214625e-06 1.6134833e-05 2.0400274e-05 -2.505091e-05
-5.8920163e-05 2.1764348e-05 -3.3937435e-05 -2.3805542e-05 -2.4929726e-05 1.0051701e-07 1.2195654e-05 -2.0315634e-05
-3.697876e-05 -1.4659855e-05 4.7844893e-05 -1.0964942e-05 -6.7524794e-05 5.44413e-06 1.6549036e-05 -3.4583227e-05
-3.7929538e-05 -9.933385e-06 7.794367e-05 -1.5811129e-07 3.8015598e-05 -2.7263768e-05 -4.4974627e-06 1.0017601e-05
-2.6144859e-05 -7.435074e-06 -4.626267e-05 -1.90505e-05 2.5971938e-06 2.3378809e-05 1.385012e-05 -2.3956707e-05
2.0629986e-05 -6.8115896e-06 3.261872e-06 -5.3349326e-05 -6.451861e-05 3.1922536e-05 -8.4549565e-06 2.191283e-05

exp_avg_sq f4 [50, 50]
00000000: c1f2 4637 8687 0038 3ee1 9338 87ad 9a36
00000010: 3b06 c436 062c 9e36 b1a3 ab35 cb35 cd36
00000020: 8346 1036 d859 d435 4bc2 5537 41f6 7b38
00000030: a456 b936 3bac 9935 63cd de35 9039 5c35
00000040: 837a ff35 2e24 fa34 4223 ce37 96fb 0735
00000050: 18b6 3137 525d 3936 845b 3f37 a042 9735
00000060: 6801 4a37 f14f ce35 f035 3f36 f552 8935
00000070: 784b 2e38 54c5 9036 9823 9737 4d08 cd36
00000080: 736f 1336 8a4a 0137 3923 5638 f4b9 1c36
00000090: 08d3 0337 e86c 5236 3915 d036 9bc1 2f37
000000a0: bca5 3b36 be06 5f36 25e8 f935 4ca8 9236
000000b0: fa12 ec35 e4e8 5535 ea59 6f37 05bd 5c37
000000c0: 78ae 9936 6762 3d37 106f d835 6612 5e36
000000d0: c8a3 1836 e103 1735 89a6 4335 f581 1635
000000e0: 49ce 1734 2db7 ab37 b427 fb34 b534 0634
000000f0: 6f08 dc35 0a10 6a36 121f 3535 8efd 8b34
00000100: 4cc8 ca34 73fd a034 93c1 6b34 f06f 0c34
00000110: 8aee 3836 eb69 6933 7cde a835 310e 9934
00000120: 11fb d935 d23b 9534 1f33 c935 c371 9034
00000130: a7d8 fa34 22c4 4334 3d02 4536 176d 0435
00000140: dc3c 4536 39fe 2a35 4954 e134 6dca 8235
00000150: 69c4 9936 cdcd 7234 f1e6 3a35 a599 3635
00000160: 4c14 5335 c7c4 c135 8f92 d134 87eb 9034
00000170: 0129 e434 f533 1635 7e01 4c34 98e1 9634
00000180: 04b8 0b36 44c2 ca35 139f 2635 2a52 eb35
00000190: c998 f635 e75d 8136 bde9 c136 a1b4 4935
000001a0: 199e 8735 623e 4335 dc12 7a34 7b12 f634
000001b0: 79c8 0535 e2ee 7834 2f06 1436 b6be bb36
000001c0: 5b88 6435 059f a334 7d54 d134 b949 3434
000001d0: c173 b434 7964 0f34 9fc0 8936 9938 dc33
000001e0: 98f1 0036 0452 dc34 d1c1 e535 5191 5e34
000001f0: d274 2536 c463 9e34 ef24 da34 9e68 3534
00000200: d739 3036 03f8 2235 07bd 3336 196c a435
00000210: 40d2 ad34 1f99 a535 13c7 4a36 975d d434
00000220: 914e db35 ce71 3735 78b1 7835 da92 d935
00000230: a6bf ce34 3180 5035 af90 dd34 3384 4c35
00000240: 25f0 7f34 8b3c 3134 0a32 1436 4ab9 1136
00000250: 9fde 6335 71ca dd35 6d1c f235 ffea 5535
00000260: cce3 1935 3422 1435 a2c4 6235 b735 3335
00000270: 5c53 7834 5546 2135 41c7 9935 564e 5d34
00000280: 4b00 3f36 17f3 1335 387a 5035 0b2e 6535
00000290: 9b06 6a35 2aa4 aa34 4e12 2535 ad58 d534
000002a0: 63f5 0736 2c96 cc33 12a9 9735 9cde c934
000002b0: 33dc fb35 6c76 8234 b817 b035 5575 7e34
000002c0: 8e30 3135 a7ab 2334 fe24 1135 0055 6535
000002d0: de96 8536 b174 bc34 be9c 2135 aa1e ab35
000002e0: 6770 1235 e242 2135 b8b6 ca34 cfd4 8e35
000002f0: b47e 8835 ecfa 0736 d23b d434 ca81 8535
00000300: e0a6 4135 f370 bc34 e8a3 8b34 0e00 8834
00000310: e794 4536 31e0 8f35 63f5 fc34 4133 3636
00000320: 62c3 5c33 5c07 8034 cf87 2e35 f8e4 e532
00000330: 0e98 2733 a15e ad32 8eab 6f35 1ba0 6135
00000340: a45c 2635 cb43 4d33 8c59 4334 c283 1135
00000350: d4ca b232 488e 4335 9c51 fe34 4ae0 8f34
00000360: 0adb f835 d348 0d35 2cd6 7134 5d29 c934
00000370: 3cc5 0934 d835 2733 8dca 3833 ddd7 4f34
00000380: 8385 c234 ddb2 4b33 ae45 6135 340d c433
00000390: 7727 2f35 a72b 7933 a81f 2834 e1e9 a034
000003a0: 6e94 3635 cdda e732 b7f8 3735 1503 9c35
000003b0: 9975 b934 7651 d434 4145 bc32 275a 4e33
000003c0: aea8 9335 9a26 3135 0eed 8535 5b1f ba33
000003d0: 5ab2 b334 7327 6434 ab6f db33 f598 c733
000003e0: 73bd b233 5d82 8633 628f 5935 d55d 4e36
000003f0: 7a41 f536 433b 4035 eb0c 9f34 97f2 6b35
1.185824e-05 3.0643794e-05 7.051461e-05 4.609759e-06 5.8419805e-06 4.713892e-06 1.2788133e-06 6.1157384e-06
2.1498715e-06 1.5821379e-06 1.2741027e-05 6.0072405e-05 5.523516e-06 1.1449514e-06 1.6600064e-06 8.204015e-07
1.9034636e-06 4.6592453e-07 2.4573532e-05 5.0657525e-07 1.0592419e-05 2.7621468e-06 1.1405795e-05 1.1269767e-06
1.2040466e-05 1.5371462e-06 2.8492614e-06 1.0231439e-06 4.155512e-05 4.3145064e-06 1.8017177e-05 6.1104424e-06
2.196958e-06 7.706354e-06 5.105438e-05 2.335405e-06 7.857343e-06 3.135583e-06 6.2013537e-06 1.047589e-05
2.7961642e-06 3.3233514e-06 1.8619509e-06 4.3707314e-06 1.7588893e-06 7.9687584e-07 1.4266445e-05 1.3157031e-05
4.580066e-06 1.1288189e-05 1.6125578e-06 3.3091287e-06 2.2745098e-06 5.625753e-07 7.28855e-07 5.6068467e-07
1.4138017e-07 2.0470086e-05 4.678128e-07 1.2498897e-07 1.6393732e-06 3.4878053e-06 6.747297e-07 2.6075253e-07
3.7771167e-07 2.998673e-07 2.1956502e-07 1.3079239e-07 2.7556985e-06 5.4345872e-08 1.2581727e-06 2.8508796e-07
1.624083e-06 2.7796938e-07 1.4990545e-06 2.6904863e-07 4.6723764e-07 1.8232143e-07 2.935659e-06 4.933258e-07
2.9390712e-06 6.369988e-07 4.197084e-07 9.744668e-07 4.5826205e-06 2.2612876e-07 6.9626464e-07 6.8023866e-07
7.863316e-07 1.443689e-06 3.903592e-07 2.699346e-07 4.2498144e-07 5.595496e-07 1.8999523e-07 2.8103818e-07
2.0819725e-06 1.5106712e-06 6.20713e-07 1.7532777e-06 1.8372895e-06 3.8554313e-06 5.779059e-06 7.5141185e-07
1.0104296e-06 7.273394e-07 2.3289925e-07 4.5834517e-07 4.9838087e-07 2.3183705e-07 2.2057318e-06 5.595236e-06
8.513504e-07 3.0476818e-07 3.8990757e-07 1.6790626e-07 3.3611835e-07 1.3354465e-07 4.105342e-06 1.02548434e-07
1.9214112e-06 4.1037868e-07 1.7118238e-06 2.0728227e-07 2.4654914e-06 2.9502382e-07 4.0632537e-07 1.6894998e-07
2.625971e-06 6.071061e-07 2.6783107e-06 1.2250413e-06 3.2376738e-07 1.2338022e-06 3.0216222e-06 3.9556173e-07
1.6339637e-06 6.833842e-07 9.264545e-07 1.6210499e-06 3.8509933e-07 7.767258e-07 4.126973e-07 7.61883e-07
2.383609e-07 1.6506435e-07 2.2082845e-06 2.1714536e-06 8.4888046e-07 1.6524701e-06 1.8038678e-06 7.969065e-07
5.732843e-07 5.518407e-07 8.44777e-07 6.676086e-07 2.3127126e-07 6.007952e-07 1.1457379e-06 2.0610727e-07
2.8461388e-06 5.511551e-07 7.766389e-07 8.537615e-07 8.7181405e-07 3.1784413e-07 6.1493927e-07 3.9738862e-07
2.0259401e-06 9.5268064e-08 1.1299583e-06 3.7601137e-07 1.8765044e-06 2.430055e-07 1.3119925e-06 2.3698279e-07
6.6008295e-07 1.5243005e-07 5.407054e-07 8.543284e-07 3.981272e-06 3.5102633e-07 6.0205264e-07 1.2749417e-06
5.4552805e-07 6.00745e-07 3.7758377e-07 1.064176e-06 1.0169665e-06 2.0262623e-06 3.9531602e-07 9.947046e-07
7.214094e-07 3.509991e-07 2.6010025e-07 2.5332014e-07 2.944196e-06 1.0719579e-06 4.71172e-07 2.7149947e-06
5.140044e-08 2.3847213e-07 6.501768e-07 2.6763232e-08 3.902101e-08 2.0182883e-08 8.9284083e-07 8.4052016e-07
6.197463e-07 4.779194e-08 1.8193367e-07 5.420844e-07 2.0814163e-08 7.285021e-07 4.7370565e-07 2.6799017e-07
1.8541189e-06 5.2632566e-07 2.252279e-07 3.7469263e-07 1.2830873e-07 3.8931688e-08 4.3025057e-08 1.9356908e-07
3.6232458e-07 4.7427296e-08 8.392043e-07 9.129363e-08 6.525001e-07 5.8014532e-08 1.5657736e-07 2.9972492e-07
6.8016277e-07 2.6991438e-08 6.853474e-07 1.1623803e-06 3.45445e-07 3.9547348e-07 2.1917574e-08 4.8045106e-08
1.1001446e-06 6.599381e-07 9.978264e-07 8.6670035e-08 3.3471116e-07 2.1248506e-07 1.02182945e-07 9.294482e-08
8.3232315e-08 6.263574e-08 8.104745e-07 3.075101e-06 7.3091915e-06 7.161181e-07 2.9625457e-07 8.7897337e-07

exp_avg f4 [50]
00000000: 27c3 7ab8 1e5c a737 f1aa de37 cc14 82b8
00000010: ba62 57b8 e3d2 1139 a019 f538 88bb fa38
00000020: 061c a438 f844 0039 a853 0eb9 7944 88b7
00000030: 35ec 81b8 5bbf 8d37 039c e8b7 7bb9 d8b6
00000040: 17e6 7e38 a90b 6037 2ab6 8fb8 fd99 27b6
00000050: b5e2 5438 61d9 3138 2a31 1238 21f6 9537
00000060: 483d a9b8 7eea 75b8 339f 4ab8 9478 9eb9
00000070: cad0 6eb7 4957 14b9 b81b 4fb8 bb6c c336
00000080: 7488 5838 e2e3 14b8 2aaa 76b8 2970 8cb8
00000090: 23c9 0ab9 0a84 f838 d9f2 f238 24bf b5b7
000000a0: 3d76 3838 5d18 22b8 2c99 ff38 8e22 3a38
000000b0: 9504 9539 213c 3839 4a70 dc38 cae0 c838
000000c0: 161c b2b9 1ccf b3b8
-5.9786395e-05 1.9950847e-05 2.6544063e-05 -6.202757e-05 -5.135194e-05 0.00013906839 0.000116872834 0.000119558594
7.825349e-05 0.00012232724 -0.0001357334 -1.6244348e-05 -6.195196e-05 1.6897617e-05 -2.7729204e-05 -6.4588944e-06
6.0772607e-05 1.3354155e-05 -6.852702e-05 -2.4974572e-06 5.0755876e-05 4.240254e-05 3.48549e-05 1.7876797e-05
-8.0699625e-05 -5.863094e-05 -4.830882e-05 -0.00030225946 -1.4234518e-05 -0.00014146896 -4.937846e-05 5.8241108e-06
5.1625495e-05 -3.5498182e-05 -5.8809448e-05 -6.696612e-05 -0.00013235635 0.00011850156 0.00011584693 -2.1665888e-05
4.3979137e-05 -3.86465e-05 0.00012187878 4.4378037e-05 0.00028422909 0.00017570007 0.00010511333 9.5786134e-05
-0.0003397173 -8.573962e-05

exp_avg_sq f4 [50]
00000000: 5280 3036 523f 1135 d458 0035 849d 3935
00000010: e4e6 6135 8bd5 9a35 288e 3136 ab9d 3f36
00000020: a922 0e36 b2c8 0b36 f292 3a36 ec44 b236
00000030: 91bd 0135 2382 0c35 b197 b534 1813 2336
00000040: 08ba f435 5802 5237 f00d 8336 1434 a934
00000050: b182 3c35 9195 0835 a466 4b34 48cc 8436
00000060: b672 cc35 1f18 8b36 e27f 0336 fa7e 5337
00000070: 51df 1036 b187 d036 0342 a534 e94f 4733
00000080: 11d9 f735 e585 ad35 0432 0135 058a 0336
00000090: a988 3f36 3eab 1936 0364 5f35 3bf1 0635
000000a0: 534a 6e34 9198 b336 36b2 a235 dd58 2035
000000b0: afc4 7737 4c1e 2336 4faf 0e37 a48c cd35
000000c0: 84b0 8437 2d8c f935
2.6300736e-06 5.410885e-07 4.781298e-07 6.9147086e-07 8.415502e-07 1.1536043e-06 2.6457801e-06 2.8552993e-06
2.1179824e-06 2.0829434e-06 2.7801693e-06 5.312837e-06 4.83321e-07 5.234344e-07 3.3824247e-07 2.4300007e-06
1.8233559e-06 1.2517521e-05 3.9057268e-06 3.1516595e-07 7.022564e-07 5.0881596e-07 1.8943189e-07 3.957688e-06
1.523257e-06 4.145331e-06 1.9594959e-06 1.2606144e-05 2.158766e-06 6.2146796e-06 3.0781675e-07 4.6405976e-08
1.8466109e-06 1.2928473e-06 4.812903e-07 1.960086e-06 2.8540765e-06 2.2898453e-06 8.321951e-07 5.0269927e-07
2.2192516e-07 5.352377e-06 1.2121807e-06 5.973396e-07 1.4768141e-05 2.4306528e-06 8.504677e-06 1.5314622e-06
1.5817823e-05 1.8592742e-06
