checkpoints/model1_epoch_2500.pt (torch, 719295 bytes, 21 tensors)

network.0.weight f4 [50, 2]
000000 59 48 06 be bc fe 13 be 0e 80 98 be 25 88 79 be
       -0.13113536 -0.14452642 -0.29785198 -0.24368341
000010 c2 74 12 bf 86 fe f6 be 48 d1 d5 3d 62 5a 53 3d
       -0.5720941 -0.4824106 0.10440308 0.051599868
000020 d4 48 b6 bd 20 5a cd bd d4 fe e4 3d b1 7b 48 3d
       -0.089006096 -0.100269556 0.11181417 0.048946086
000030 0b ff 2b 3e 3f 38 6c be 91 6f 8f 3f a8 2d 91 3f
       0.1679651 -0.23068331 1.1205922 1.1342058
000040 01 22 98 3d f9 d0 6f be 21 51 b8 3d cc a6 03 bc
       0.07428361 -0.2341956 0.08999849 -0.008035373
000050 95 0f 92 bd e5 e5 4f be 79 94 f3 3e 6b 2b e5 3e
       -0.07131878 -0.20302542 0.47574213 0.44759688
000060 b5 c4 e6 bd eb 33 6e bd 62 25 f1 3d 99 b8 7a be
       -0.11267988 -0.05815498 0.11774708 -0.24484481
000070 fe da 7a 3d de c1 4d be 56 5c 14 3e 3f 7d 91 bd
       0.061244003 -0.20093486 0.14488348 -0.07103967
000080 c0 cb 91 be ed 0c c4 3e f8 a0 d1 3d 6c e2 41 be
       -0.2847576 0.38291112 0.102357805 -0.1893403
000090 4d 08 22 3e 62 4e 80 3e ce a1 b9 bd 19 b9 06 3e
       0.15823479 0.250598 -0.09064065 0.13156547
0000a0 39 58 d0 3d b8 71 1e 3e 38 e7 d1 bd 4d 4e 29 bc
       0.10173077 0.15473068 -0.102491796 -0.01033361
0000b0 86 d5 12 be 68 63 13 be 06 ec 04 3e 90 10 46 bd
       -0.14339265 -0.14393389 0.12980661 -0.04835564
0000c0 88 b4 a2 3d 2a c2 68 3e fa df 60 3d a1 06 73 3d
       0.0794459 0.22730318 0.0549011 0.059332494
0000d0 bc 0c 08 bf af aa de 3e f1 23 d4 3d 2b d1 d4 bc
       -0.5314443 0.43489596 0.10358418 -0.025978645
0000e0 82 86 21 3f 4f 43 df 3e 07 44 ed 3d 91 43 17 3d
       0.6309587 0.4360604 0.11585241 0.03692967
0000f0 27 09 0e be bc 7a 7d be 77 e8 38 3e 12 28 fe 3c
       -0.13870679 -0.2475385 0.18057428 0.031024966
000100 09 ed c8 3e 8a e9 98 be 99 97 d7 3d 5b 54 da 3d
       0.39243343 -0.29865676 0.10526962 0.10660621
000110 45 11 26 bf a6 2c 24 bf 6f 14 eb be a5 be cf 3e
       -0.648701 -0.6413063 -0.45914027 0.40575138
000120 bb 89 47 be 75 5e 52 bd 30 7d 82 bc c8 0e 4c 3e
       -0.19486134 -0.051359612 -0.015928835 0.19927514
000130 5d 88 f3 3d 35 70 87 3d 7e 43 e8 bd 5e 29 12 be
       0.118912436 0.06613199 -0.11340998 -0.14273593
000140 a0 eb b6 be 07 73 6e 3e f8 76 04 3e c7 b5 94 be
       -0.35726643 0.23286067 0.12936008 -0.29044935
000150 ed a1 22 3f 7c 7d 25 bf 2c 07 f8 3d da 6b 23 3d
       0.6352833 -0.646446 0.12110743 0.039897777
000160 7b d5 50 be b0 66 f0 3d c0 ad 04 be e7 39 30 3d
       -0.20393936 0.11738336 -0.12956905 0.04302397
000170 72 7f f6 bd 28 e6 44 be 6e 99 20 3e df 05 11 3e
       -0.12036027 -0.19228423 0.15683529 0.14162396
000180 a5 25 b6 bd c8 50 9f bd a0 ec ff 3d 18 50 21 3e
       -0.08893899 -0.0777908 0.124963045 0.1575321

network.0.bias f4 [50]
000000 ac 17 b5 3d 98 59 ac bd 43 67 c3 be 56 ba dd 3c
       0.08842406 -0.08415526 -0.3816472 0.027066391
000010 40 4b 0c bd ba 92 83 bd e7 cb dd be 29 59 60 bf
       -0.03425145 -0.0642447 -0.43319628 -0.8763605
000020 69 2a 61 3c 27 aa e3 bd 93 1b 24 3e 35 90 61 3e
       0.0137430215 -0.11116438 0.16026144 0.22027667
000030 f8 4b 7d 3d d2 db 8b 3d 08 88 14 bd 75 47 fe 3e
       0.061840028 0.06829037 -0.036262542 0.49663892
000040 bc 82 fc 3e 43 e7 e3 bd 53 b2 21 3d b8 81 81 3e
       0.49318492 -0.11128094 0.039476704 0.2529428
000050 c5 8f e3 3d 75 9c a6 3d aa dc 02 3e 1d d2 c4 3e
       0.11111406 0.081353106 0.12779489 0.38441554
000060 af 6b 7d 3e 1e 6e 3a 3e f9 d3 44 bf 03 30 43 3e
       0.2474811 0.18206069 -0.76885945 0.19061284
000070 0f a6 5b 3e 23 ee 70 be f2 d5 6a 3e eb 4e 0c 3f
       0.21450065 -0.23528342 0.22933176 0.5480792
000080 6f 6a 33 3f 49 6b ae bd d8 cb af bd d4 d7 ea bd
       0.7008428 -0.08516557 -0.08583802 -0.11466947
000090 e3 d1 1d bf 0e b2 19 3e 16 08 02 be 19 48 1b 3e
       -0.61648387 0.15009329 -0.12698397 0.15164222
0000a0 9c 7d 99 3e 8f f5 e7 3e 40 7a 4e 3f 37 0d 4f 3e
       0.29978645 0.45304534 0.8065529 0.20219885
0000b0 23 c0 bb bd a4 1c eb be a3 e2 38 3e d3 c4 a5 3d
       -0.091675065 -0.4592029 0.18055205 0.08094182
0000c0 a3 0e 4a be d6 4c 80 be
       -0.19732146 -0.2505862

network.2.weight f4 [50, 50]
000000 64 09 ca bd 94 a9 f6 ba d8 65 32 3e 69 c9 6a be
       -0.09865072 -0.0018818849 0.17421663 -0.22928394
000010 7b b0 b8 bd 86 e7 37 bc d8 b9 80 3d 42 9e 84 be
       -0.09018036 -0.011224633 0.06285447 -0.2590199
000020 0b 00 14 be a0 ef 3c 3b b5 47 bc bd b1 69 8c 3e
       -0.14453141 0.002882935 -0.091933645 0.27424386
000030 0c 6c d0 bb a5 1f bf be 23 6c 64 be cb 06 d0 be
       -0.0063605364 -0.3732883 -0.22306876 -0.40630183
000040 72 c4 75 be 17 98 68 be 87 18 b2 3d fe 11 57 3c
       -0.24000719 -0.22714268 0.086960845 0.013126848
000050 28 58 8b be 44 bf 4a 3d 5f 3d cb bc ce 31 a9 be
       -0.27215695 0.04949881 -0.024809537 -0.3304581
000060 c1 00 91 3d c4 dd 07 be bb 73 a6 3d 55 cf f7 be
       0.07080222 -0.1326819 0.081275426 -0.4840037
000070 80 c6 f8 bd 30 02 09 3e f8 68 22 be fb 93 7d be
       -0.12147236 0.1337974 -0.15860355 -0.24763481
000080 53 03 37 bf 05 0b 4b 3e a8 d6 b2 3d 1f 99 c9 bd
       -0.7148945 0.19828422 0.08732349 -0.09843659
000090 50 ec 35 3e 36 7e c2 3d e9 bb bf 3e 63 7d c6 bd
       0.17765927 0.09496729 0.37448052 -0.09691884
0000a0 58 96 e7 3d 21 fc c9 be 22 f5 9e 3c f0 13 c5 3d
       0.11307973 -0.39450172 0.019403998 0.096229434
0000b0 ea 3f e0 3e a8 85 be 3e 39 9d 88 be d9 4d 8f bd
       0.43798763 0.37211347 -0.2668245 -0.0699727
0000c0 b1 91 bf 3d 67 57 06 3e 4b b6 80 3d 04 d9 ae bd
       0.0935396 0.13119279 0.062847696 -0.08537486
0000d0 0c 5c f3 3d ec 59 a6 3d 77 30 35 3e 66 70 4c 3d
       0.11882791 0.0812262 0.17694269 0.04991188
0000e0 82 8c 94 3f 8e 2c f4 bc 7f 02 00 3f 4d 55 df 3e
       1.160538 -0.029806402 0.5000381 0.43619767
0000f0 5a 5a 89 bd 05 34 bf bd ae 42 a2 be 9d 5d 27 3f
       -0.06706686 -0.09336094 -0.31691498 0.6537722
000100 c8 2b d4 3e ae e4 67 3e 48 4f 92 bf 51 0f 65 3f
       0.41439652 0.22645828 -1.1430445 0.89476496
000110 08 31 46 bb 4a 2f 94 bf 31 f8 9b bd bd 74 c6 be
       -0.0030241627 -1.1576931 -0.07615698 -0.3876094
000120 25 cf 25 be 17 93 2a 3d e0 6d 8e be 16 90 01 be
       -0.161923 0.041644182 -0.27818203 -0.1265262
000130 7e 7c 28 be 9c 29 86 3d 0c 3b c9 bc 6d 22 99 3e
       -0.1645374 0.06550905 -0.024564289 0.29909077
000140 1c d7 72 be b6 59 92 be 6b 9b cc 3c 18 da 3c 3e
       -0.2371487 -0.2858407 0.024976453 0.18442571
000150 3b 82 27 be 17 ab 22 bf fb 5c 8a bc 7c 36 7f be
       -0.16358273 -0.6354231 -0.01689004 -0.24923128
000160 a6 6a 0e 3f 4d 2a 14 3e f2 52 53 bf 40 68 54 3e
       0.5563148 0.14469261 -0.8254844 0.20742893
000170 6b 88 ce 3e 11 c9 46 3e 3f 80 b7 be a4 e7 f0 3d
       0.40338454 0.19412638 -0.35840032 0.11762932
000180 72 44 ec bc 56 81 92 3e f9 64 b8 3d 34 d1 b9 3d
       -0.028841231 0.286143 0.09003634 0.090731055
000190 57 48 51 3e 6d f4 96 be b0 95 b4 be 98 1c e8 bd
       0.20437752 -0.29483357 -0.35270452 -0.11333579
0001a0 c5 2e 9f 3e 7e 13 13 3d 68 00 3b 3e 0e 03 38 3d
       0.3109037 0.03590726 0.18261874 0.04492479
0001b0 05 44 57 3e 69 3a 15 be d4 8b ae 3e bc 81 b6 3e
       0.21022041 -0.14573063 0.34091055 0.35645854
0001c0 86 46 29 3e 3d 09 bf 3e d0 cd 5a 3e 39 6e 13 3e
       0.16530809 0.37311736 0.21367574 0.14397515
0001d0 33 c2 86 3e e4 17 a9 3b d6 fe cb 3c 75 54 4e be
       0.26320037 0.0051603187 0.024901789 -0.20149405
0001e0 b9 32 d7 bd 61 08 9c bd 82 c8 a6 3d bc 8b 7e 3e
       -0.105077215 -0.07618786 0.081437126 0.24857992
0001f0 24 d0 22 bd 49 e1 9b 3e 6b 3d 18 be 66 b7 13 3e
       -0.03974928 0.30445316 -0.14867179 0.1442543
000200 dc fe 69 bd 38 2a 5d be 3d 0e 90 3e 17 ad 05 3f
       -0.05712782 -0.21598136 0.28135863 0.5221724
000210 6f 1f 28 3e 35 44 74 be 24 c7 c2 bd 99 2c a7 3d
       0.16418241 -0.23854144 -0.09510639 0.08162803
000220 eb 59 ca be 50 cb f7 bd d9 24 e1 3e 75 b4 48 3e
       -0.39521727 -0.12099326 0.43973425 0.19600089
000230 64 a1 11 3e e2 98 96 3e 00 59 91 be db d5 28 3c
       0.14221722 0.29413515 -0.28388214 0.010304893
000240 f5 eb 55 be 7f f7 0b 3e c9 0c 24 3d 25 d2 15 3e
       -0.20890792 0.13668631 0.040051255 0.14630945
000250 19 aa eb 3d c7 e5 2e be 08 f1 c4 3e aa c0 1c be
       0.11507053 -0.1707984 0.38465142 -0.1530787
000260 16 44 01 3e d6 0f 25 be f5 cf 06 bd 43 3f b2 bd
       0.12623629 -0.16119322 -0.032913167 -0.087034725
000270 dc 1f b7 be 1c f2 a5 3c 22 1b b4 be 92 e6 c3 bd
       -0.35766494 0.020257048 -0.3517695 -0.09565462
000280 de 3d 22 3d 30 77 44 be aa 58 4f bd dc df 54 be
       0.039609782 -0.19186091 -0.050621666 -0.2078852
000290 3f a6 e1 be a6 ad 71 3d cb 42 e2 3e 4f 16 8d be
       -0.44072148 0.059003495 0.44191584 -0.27556083
0002a0 ae c9 8a 3d f1 48 b5 3e c9 3e 5b 3c ec 9e 86 bb
       0.067767486 0.35407212 0.013381668 -0.0041083004
0002b0 d5 8b 94 3e b5 8a 08 bd df f4 d1 3d cd 86 5f be
       0.29012933 -0.033335406 0.102517836 -0.21828766
0002c0 4d 7b e6 be c1 bc f3 bd 20 5e 4d 3e ae 0c 22 be
       -0.45015946 -0.11901236 0.20055437 -0.1582515
0002d0 b0 55 3a 3c 82 cb e0 3d 7d 39 fb 3d a8 25 a8 be
       0.011372969 0.10976316 0.122668244 -0.3284123
0002e0 97 0e b1 3d e9 e0 9b bd 81 ed ed bd 6d 70 15 3d
       0.08645361 -0.076112576 -0.11617566 0.03648417
0002f0 e1 c4 7f be 5c 2f 57 be db 2f d4 3d fc e4 6c be
       -0.24977447 -0.2101416 0.1036069 -0.23134226
000300 c9 e1 06 3f e7 f5 70 3d b4 19 05 be 4f fe 01 be
       0.5268827 0.05882826 -0.12998086 -0.12694667
000310 ef e0 11 be a8 8a 09 3e ad b8 e0 bd 66 54 1b bc
       -0.14245962 0.134318 -0.10972724 -0.009480571
000320 c4 50 0b bc f7 c4 b7 3d c3 b6 36 3e 12 be e2 3d
       -0.008503143 0.08973115 0.17843156 0.11071409
000330 a8 ed 7c 3e a7 6e 03 be aa 6b ea 3d 56 98 30 3e
       0.24700034 -0.1283518 0.114463165 0.17245612
000340 11 48 d7 bd 94 c7 d8 3d 8a 17 56 3e 41 93 48 be
       -0.105117925 0.105849415 0.20907417 -0.19587423
000350 dd 08 53 3e 06 1b 7e be d6 63 d5 be 63 8c cd 3c
       0.2060885 -0.24814996 -0.4167773 0.025091356
000360 60 1c f2 3d 28 af a4 3d dd c9 a4 be ae 4c bd 3e
       0.11821818 0.08041221 -0.3218526 0.36972564
000370 18 a7 75 be fa ca 80 3e 51 d8 e1 3d 76 e9 a0 3c
       -0.23989522 0.2515486 0.11027587 0.019642573
000380 c8 8d 81 be 20 87 14 3e 2f f3 53 bd 8b 23 80 be
       -0.25303483 0.14504671 -0.05174559 -0.25027117
000390 c7 29 75 3e 1c 04 d0 be aa 21 ca 3e e0 82 02 be
       0.23941718 -0.40628135 0.3947881 -0.12745237
0003a0 eb 01 91 bd 41 91 4d bd 36 f8 51 bd ab 1e dc bd
       -0.07080444 -0.050187353 -0.051262103 -0.10748037
0003b0 4c 7a cc 3c 92 0f a9 3d c5 e4 5a be 89 f4 16 3c
       0.02496066 0.08254923 -0.21376331 0.009213575
0003c0 e7 51 06 3c c5 23 1a 3d 0b 1d 06 3d 0c 5e fb bd
       0.008198238 0.03763177 0.03274254 -0.122737974
0003d0 6b 8e 22 3c ed 46 13 bd d3 54 74 3d 69 db 32 be
       0.00992165 -0.035956312 0.059651207 -0.17466511
0003e0 b4 f1 51 be 07 d3 5f be d7 bc 0e 3e d6 4c ac 3c
       -0.20502359 -0.21857844 0.13939224 0.021032732
0003f0 d2 d0 bd bc 28 45 82 3d 55 c2 08 3e 1b 14 b6 3d
       -0.023170862 0.06360847 0.13355382 0.088905536

network.2.bias f4 [50]
000000 dd 87 67 be 0f 18 cd be 71 32 d0 3c 80 a1 3a 3e
       -0.22610421 -0.40057418 0.025414677 0.1822567
000010 29 87 b7 3d fc 47 ca bd d1 84 1a 3e 72 72 94 bd
       0.08961327 -0.09877011 0.15089728 -0.07248391
000020 ed e3 8b bd 3d 72 85 3e 54 0e 9f be 51 01 7d bb
       -0.06830583 0.2606372 -0.3106562 -0.003860552
000030 5a b2 ba 3e 7a b3 24 be d5 17 ac be f1 dc 07 bb
       0.36464196 -0.1608409 -0.33611932 -0.0020731057
000040 bb 1a 85 bd ab 87 6f 3e 61 8e 34 3d 69 16 5c be
       -0.06499239 0.23391597 0.044081096 -0.21492924
000050 48 b0 0c bd ae 18 e2 be 6e e4 01 3e ac 04 6f 3e
       -0.034347802 -0.44159454 0.12684795 0.23341626
000060 e1 a6 af 3d 84 17 af bd fe d5 8f 3d 18 cb a7 bd
       0.085767515 -0.08549407 0.07023238 -0.08193034
000070 71 cd 51 bd f2 df 09 bd f9 b7 67 3e 84 65 c6 3e
       -0.051221315 -0.033660837 0.22628774 0.38749325
000080 78 22 87 3d af ae 2f be 8b 6a 52 3e 7c e6 30 3e
       0.06598371 -0.1715648 0.20548455 0.17275423
000090 de 1d 72 be c8 02 47 3d 95 5c fd bd 71 b9 18 3f
       -0.23644206 0.048586637 -0.12371174 0.5965796
0000a0 18 f1 c8 bd d8 b6 0f be c3 f7 8b bd 09 87 46 3e
       -0.0981161 -0.14034593 -0.06834366 0.1938745
0000b0 26 7c 2f 3e 74 f5 24 be 95 4d 95 3e 65 06 d9 bd
       0.17137203 -0.16109258 0.29160753 -0.10596923
0000c0 97 6f fd 3a 68 6a bc 3d
       0.0019335625 0.09199983

network.4.weight f4 [50, 50]
000000 22 4c 88 bd 39 d1 96 3d f5 62 6e 3d 75 b3 a5 bd
       -0.06655146 0.07364125 0.05819984 -0.08090869
000010 d6 63 1d 3d be 74 99 be fc 10 2d 3e fc ad 0f be
       0.03842529 -0.2997188 0.1690101 -0.14031214
000020 d8 8c cf bd c8 4b 66 3d 31 8b b1 bd 95 8d c9 3c
       -0.10134286 0.056224614 -0.08669127 0.024603644
000030 60 70 1d be be c1 16 3d 1e b6 c7 bc 1c 37 18 bd
       -0.15374899 0.03680586 -0.024378832 -0.03716193
000040 ff f6 d6 bc 5b 7a 4e 3d 3a 90 aa bd cd 84 96 3e
       -0.026240824 0.050409656 -0.0832829 0.29398194
000050 6b 60 8b bb 34 03 ab bc b3 34 40 3c fd 88 78 be
       -0.0042534373 -0.02087555 0.0117313145 -0.24271007
000060 ce ea 76 3d b6 8f fc 3d 92 1a 59 3e f2 5d 2b 3e
       0.06028252 0.12332098 0.21201542 0.16735056
000070 f3 fb 63 be 62 c8 08 3e d8 19 0e be 05 6f 16 3e
       -0.2226408 0.1335769 -0.13877046 0.14690788
000080 fd 1f bf bd 6c 6d 1b 3e 35 89 62 3d 0c 01 73 bd
       -0.09332273 0.1517846 0.055306632 -0.05932717
000090 ec 6b ee bd 60 34 41 3d 56 7f 76 bd b0 b0 db bc
       -0.11641678 0.04716909 -0.06018003 -0.02681765
0000a0 d2 4a a3 3c e8 0d eb 3d b7 8d 9a 3d 8a 28 c1 bc
       0.019933138 0.11477262 0.07546561 -0.0235789
0000b0 7f 56 6d bc 66 59 21 bc 41 e3 cb bc 38 26 2f 3d
       -0.014485954 -0.009847974 -0.024888637 0.042761058
0000c0 0f 83 5e bc 72 3c 12 3e 34 4b c8 bd a0 a0 a5 3c
       -0.0135810515 0.1428087 -0.09779969 0.020218194
0000d0 a1 c6 85 3e e5 33 de 3d 17 48 ad bc a5 cd 96 3d
       0.26128104 0.10849742 -0.02115254 0.07363442
0000e0 e7 c8 a6 3e 30 8c c7 3e 50 49 9a 3f d8 e2 41 be
       0.3257515 0.38974142 1.2053623 -0.1893419
0000f0 5d 6e a1 3b 27 09 53 bd ff bb 59 be 51 a2 d5 bd
       0.0049264864 -0.0515224 -0.21263121 -0.1043135
000100 df 83 fc bb 9a 24 a1 bc 4b 39 97 3e 99 e7 10 bf
       -0.00770615 -0.019670773 0.295359 -0.5660339
000110 05 42 2f 3f 03 b1 29 3d 79 7b 44 3e 9c df d6 be
       0.6846011 0.041428577 0.19187726 -0.41967475
000120 23 63 bd 3e 9c 32 23 be 6d 6f 77 3c 3f 66 b9 3e
       0.36989698 -0.15937275 0.01510225 0.3621082
000130 f7 8a a3 3c 87 cd 4b bf a8 3a 73 bf 3e 10 dd 3e
       0.019963725 -0.79610485 -0.9501138 0.43176454
000140 44 90 1a be 48 15 ac be 9f b1 89 bd cf fe 0d be
       -0.15094095 -0.33609986 -0.06723332 -0.13866733
000150 5d 36 30 bf d4 6c b4 be f7 67 03 3d 39 39 17 ba
       -0.6883295 -0.3523928 0.03208157 -0.000576872
000160 13 f2 f1 bd 28 e3 11 3c 06 0c 2f 3d 04 b8 d5 3d
       -0.1181375 0.008904256 0.042736076 0.10435489
000170 48 66 74 bd 5b 1b 9f 3d 31 2a 81 3f 02 7f c9 3e
       -0.059667856 0.077688895 1.0091001 0.39354712
000180 e3 6f 91 3d cf 27 de 3d b3 06 cd bd 7e ef e2 be
       0.07101419 0.10847437 -0.100110434 -0.44323343
000190 21 ad f4 3d 80 ac 30 be fc 5f 81 3d 1f 91 4d 3d
       0.11947084 -0.17253304 0.06317136 0.050187226
0001a0 a8 38 6e 3e 92 5b b6 bc 63 35 69 bd 88 62 ac 3d
       0.232638 -0.022260461 -0.05693568 0.08417231
0001b0 ef 63 36 bc fc e0 d2 bc e4 79 09 bd ed 6b 75 3b
       -0.011132224 -0.025742047 -0.03356351 0.0037448362
0001c0 33 8f 99 be e5 83 1c bd 40 5b 3a 3d f8 87 64 bd
       -0.29992065 -0.038211722 0.04549718 -0.055793732
0001d0 ee 44 d9 3d 51 f7 bc 3d 7c 0b b9 3d d0 ad fe 3d
       0.106088504 0.09226859 0.090353936 0.12435496
0001e0 77 ea 20 3e 4b 2c 24 bd e0 d1 19 3c de 4f 6e be
       0.15714441 -0.040081304 0.009388417 -0.23272654
0001f0 b2 a1 32 bd 21 27 30 bd 17 b9 be bc 1b 9b 10 bd
       -0.043611236 -0.043006066 -0.023281617 -0.03530417
000200 74 63 ca 3b 12 5f 9b bd 68 4f 08 3e 5b eb e6 3d
       0.0061764065 -0.075864926 0.13311541 0.11275359
000210 a0 2d 57 3a e6 f6 ca bd a5 3c d6 3d 2f d9 e3 3c
       0.0008208398 -0.099103734 0.10460786 0.027813522
000220 4e 2c 83 3e 86 7a 8f bd c7 35 80 3d 88 b5 11 3e
       0.2561974 -0.07005791 0.06260257 0.14229405
000230 fb c4 86 3e bc b9 27 3d 93 a7 2a 3e 94 87 5c be
       0.2632216 0.040948614 0.16665487 -0.21536094
000240 9e 41 18 be 58 83 d6 3c 0c bf 64 3d 05 61 dc bc
       -0.14868781 0.026185676 0.05584626 -0.026901731
000250 cc 23 b6 bd 2a 78 bc 3c be 8b a9 bd a2 da 1d be
       -0.088935465 0.023006517 -0.08278607 -0.15415433
000260 84 a1 ed bd 5b e4 8e bc 9c 04 4b 3e d0 52 40 3e
       -0.11603072 -0.017442873 0.19825977 0.1878159
000270 74 1d 9e 3c a8 40 0d 3a 5e b7 75 3d 6f 37 95 bd
       0.019301154 0.00053883577 0.059989326 -0.07285964
000280 aa b8 ae 3d 45 2e bf bd 44 24 33 bd a8 ac 43 bd
       0.085313156 -0.09334997 -0.043735757 -0.04777208
000290 9b 45 22 3c 7f 99 2f be 80 dc cc bb 1a 26 82 bc
       0.009904291 -0.17148398 -0.0062518716 -0.015887309
0002a0 b8 3f ae bd 86 88 ab 3c 81 c1 70 bd e9 20 80 bd
       -0.08508247 0.020939123 -0.05877829 -0.06256277
0002b0 95 c7 80 bd 48 18 a8 bc c1 83 79 bd ca c4 ab bd
       -0.06288067 -0.02051939 -0.060916666 -0.08387144
0002c0 72 5c bb 3d ab 32 f6 bb 68 66 fb 3c 69 80 f5 3c
       0.09148492 -0.0075133643 0.03068848 0.029968457
0002d0 9d 11 73 3a b4 d4 c0 bd 66 1c 8a 3d 05 e3 96 3d
       0.0009272339 -0.0941557 0.06743698 0.07367519
0002e0 7d ea c9 bd 44 c1 12 3c f0 e3 ba 3c 8b 7a 46 bd
       -0.09859178 0.008957211 0.022813767 -0.04845671
0002f0 21 f5 cb bb 4d 4b 9d 3d 9c a8 7a 3c cb 6e ba bc
       -0.00622429 0.07680378 0.015298989 -0.022757908
000300 db 1e e9 3d 34 7f 84 bd 98 b3 ef 3d ba d1 ed bd
       0.11382838 -0.064695746 0.11704177 -0.11612268
000310 46 a0 aa bd 72 3e f3 bc 46 a3 f8 bd 74 8d d2 3d
       -0.08331351 -0.029692862 -0.12140517 0.10280886
000320 c5 a7 5b be 9e a5 c6 bc f4 d0 82 bd fa 56 52 bd
       -0.21450718 -0.024248894 -0.06387511 -0.05135248
000330 0d b8 df be 73 b3 00 be cf c2 4f be da 3a 9e 3c
       -0.43695107 -0.12568454 -0.20289157 0.019315172
000340 8c b0 04 be b6 dc e9 bb 40 f7 70 bd 38 a4 3c 3e
       -0.12957972 -0.0071369065 -0.058829546 0.1842202
000350 9b 58 88 3e 58 4b 94 3d c4 d4 81 3d ac 05 7b 3d
       0.266301 0.07240933 0.0633941 0.061284706
000360 3f d0 65 3e 66 01 9d bc 21 85 0e 3e ef a0 92 bd
       0.22442721 -0.019165706 0.13917972 -0.07159602
000370 e6 c6 7d be f1 7e e3 bd 39 3e e3 3d f5 9c fb be
       -0.24782905 -0.111081965 0.110958524 -0.49143186
000380 a1 1c 93 3e 3d 4f 86 bc 60 2b 71 3e 0f 6d ef 3d
       0.2873278 -0.016395206 0.23551702 0.11690723
000390 a2 ae b7 bd a5 69 9b 3d 4f fa 5d be 3e 18 32 bd
       -0.089688554 0.075885095 -0.21677516 -0.04348015
0003a0 41 4d 14 3d b5 51 e0 3e ee 51 67 be 8f 9f fb 39
       0.036206488 0.43812338 -0.22589847 0.0004799333
0003b0 6e 0f 21 3e 1f 34 dc 3e c1 88 76 3b 86 0e 83 bc
       0.15728542 0.43008515 0.0037618133 -0.015998136
0003c0 8a f8 9e ba d0 e6 cc bd 5c 9d 14 bc 92 b8 f4 bd
       -0.0012128514 -0.100049615 -0.0090707205 -0.119492665
0003d0 57 27 05 3e 5d 5c 86 3d e0 15 c1 bd 17 2b b7 3e
       0.13003288 0.06560586 -0.094280005 0.35775062
0003e0 24 0f fe 3d 6a 4a 7c bd 83 08 62 bd 8e a6 3f bd
       0.124052316 -0.061594404 -0.0551839 -0.0467897
0003f0 b7 d9 89 3d bb bd 6f be cf c7 f6 bc 71 5a 2e 3e
       0.06730979 -0.2341222 -0.030124573 0.17026688

network.4.bias f4 [50]
000000 bf 5b 02 3d 71 0e c2 be bd fa 87 3d f8 2f 7b 3d
       0.031825777 -0.37901643 0.066396214 0.061325043
000010 7e f9 5b bd 91 ba 11 be f5 08 b1 bd 8c e4 6b bd
       -0.05370473 -0.14231326 -0.086442865 -0.057591006
000020 bd 0b 2f bd be 4b dd 3d f3 40 c8 bd 4a a1 34 be
       -0.042735804 0.10805462 -0.09778013 -0.17639652
000030 eb 15 dd 3e 83 a6 38 3e d1 34 86 be 27 fb 1b bc
       0.43180785 0.18032269 -0.2621217 -0.009520329
000040 0f 17 91 3d 2e 10 a7 bd 40 70 d5 bd 0a fb 2b 3c
       0.07084476 -0.08157383 -0.104218006 0.010496864
000050 38 46 15 3c 76 4c 2b be ba 6d a4 3d 26 97 31 3e
       0.00911098 -0.16728386 0.08028741 0.17342815
000060 82 09 11 3d a1 37 b5 be 10 c5 56 bd 07 39 e7 3c
       0.035409458 -0.35394004 -0.052434027 0.028225435
000070 9e cf f5 3d 7d 77 3a 3c d4 87 7e be 15 3e 1c 3d
       0.120024905 0.011381027 -0.24856502 0.038145144
000080 53 17 e8 3d 07 11 9e 3d 6c e8 61 3c b1 97 83 bc
       0.11332574 0.077180915 0.013788324 -0.016063543
000090 8b 0e 19 be 44 3a 36 be a1 7e ff bd 12 a9 fc bd
       -0.14946954 -0.17795664 -0.124753244 -0.12336935
0000a0 97 a6 7f 3d ae ef 5a 3e 0d 9e e3 3d e0 12 88 bc
       0.06241473 0.21380493 0.1111413 -0.016610563
0000b0 c6 cf dd bd d0 0c fc bc 58 4f df bd 87 ae ff bd
       -0.10830645 -0.030767828 -0.109038055 -0.1248446
0000c0 f9 2a 85 bc ce 52 60 3d
       -0.016255843 0.05476647

network.6.weight f4 [1, 50]
000000 07 fd 01 ba 09 21 e9 3e 48 f2 78 39 71 dc 0c 3a
       -0.00049586635 0.45533016 0.0002374138 0.00053734245
000010 b3 02 c7 ba 55 81 44 be b5 28 f6 3e c1 c5 96 be
       -0.00151833 -0.19189961 0.48077932 -0.2944775
000020 ca 43 ca 3e a7 ac 0c 3f ec 24 d9 be ba b3 0d 3e
       0.39504844 0.54950947 -0.42410982 0.13838091
000030 8f a2 6d bf 28 1f d9 3e 44 a7 48 be 5a 7a 02 3e
       -0.9282617 0.42406583 -0.19595057 0.12741986
000040 58 ea b6 be f1 10 76 be 34 ed 65 bd 56 40 2e 3e
       -0.35725665 -0.240299 -0.056134418 0.1701673
000050 1c a7 6b 3f 0c 8c 2f bf df 13 c3 3e c3 4b d0 bd
       0.92051864 -0.6857307 0.38101098 -0.101707004
000060 cf 33 3c b9 2a a0 6d 3e ba b5 11 3f d0 c9 11 be
       -0.00017948377 0.23205629 0.5691792 -0.14237142
000070 3e e1 17 be ca 9d ab 3e d9 ca 93 be 0f 41 65 be
       -0.14832017 0.3351882 -0.28865698 -0.22388099
000080 d7 c5 fb 3e 4e 22 8a 3e 0a 09 3e 3f b9 12 15 3e
       0.49174377 0.26979297 0.7423254 0.14557923
000090 77 75 43 3e 7f b1 c0 3e 87 a9 e3 be b1 23 aa be
       0.19087778 0.3763542 -0.44465277 -0.33230355
0000a0 55 d9 a7 be 6d be bd 3d 09 57 63 be 70 06 6f bd
       -0.32783 0.092648365 -0.2220117 -0.05835575
0000b0 af b6 55 3f 25 10 30 3d 86 a0 82 3e a6 a0 09 be
       0.8348188 0.042984147 0.25513095 -0.13440189
0000c0 45 0e 66 3f e5 92 fe be
       0.89865524 -0.49721447

exp_avg f4 [50, 2]
000000 29 e7 0c 3a 30 72 26 ba 91 8f 2f 3a 0d 19 41 ba
       0.0005375022 -0.0006349413 0.0006697113 -0.00073660986
000010 b0 c6 87 39 b8 ea c4 b8 36 aa 62 b8 48 b4 1a 38
       0.0002589724 -9.389728e-05 -5.404112e-05 3.688436e-05
000020 5a 83 82 b9 7a 9b a2 b9 f5 01 9e b8 df 45 52 39
       -0.00024893397 -0.00031014887 -7.5343916e-05 0.0002005319
000030 5d e7 58 3a f1 7c 62 39 7a 27 58 b9 56 a2 9e 39
       0.0008274222 0.00021599584 -0.00020614071 0.00030257058
000040 d9 c8 88 3a 48 c4 9a 39 66 bb bd 39 dd d6 01 39
       0.0010435834 0.0002951941 0.00036188512 0.00012382441
000050 e8 c1 a7 b9 65 b9 6c b8 dd f1 4a ba 36 3c 11 3a
       -0.00031997194 -5.6439447e-05 -0.0007741729 0.0005540283
000060 87 4c 3b 3a 8e 19 2f ba 3d bf 8a 3a 9c d4 24 3a
       0.00071448873 -0.0006679528 0.0010585558 0.0006287785
000070 4f ba 59 3a 3b f0 c2 39 79 18 6d 39 07 e9 90 39
       0.0008305655 0.0003718155 0.00022611198 0.0002763944
000080 27 7c 83 ba 89 11 ce b9 16 c2 a3 3a d0 92 c0 38
       -0.0010031507 -0.00039304447 0.0012493755 9.1826194e-05
000090 dd f2 b8 b9 35 63 43 3a 66 ef 9a ba ba 20 44 ba
       -0.00035276162 0.00074534427 -0.0011820614 -0.0007481683
0000a0 4b 5c d8 36 53 b1 c1 38 7d 96 6f ba c3 74 97 39
       6.448046e-06 9.235986e-05 -0.0009139551 0.0002888796
0000b0 64 a0 e6 39 aa 67 ea b9 db ef 31 3a ff 74 f1 37
       0.0004398852 -0.00044709194 0.00067877554 2.878392e-05
0000c0 07 8b b6 39 02 a9 4a 39 c0 6a 5b 3a ff 4a bf b9
       0.0003481733 0.00019327182 0.0008370094 -0.00036486235
0000d0 5f 28 a2 38 a2 0a 93 39 6f c1 04 39 4e 80 8c 38
       7.732282e-05 0.00028045947 0.0001266056 6.699619e-05
0000e0 b0 0c dc b9 65 48 57 39 2b 5e fa 39 cb ef 69 b8
       -0.00041971123 0.00020530967 0.00047753876 -5.5774854e-05
0000f0 5d 4a b7 b8 f2 88 0c ba e4 c8 d7 b8 5f fa 08 3a
       -8.739971e-05 -0.00053609826 -0.00010289418 0.00052252965
000100 57 ef 1e ba 24 57 0b ba ff 2d 08 b6 52 3e ee 39
       -0.0006062886 -0.0005315414 -2.0292352e-06 0.0004544133
000110 60 00 a4 39 13 39 fc b8 08 1a a9 38 c3 78 82 b7
       0.00031280797 -0.00012026927 8.063397e-05 -1.5553442e-05
000120 bf 29 22 3a 41 6e 32 ba 67 21 8a ba 49 7b 08 b9
       0.000618603 -0.000680659 -0.0010538519 -0.00013015898
000130 7c 09 e2 b8 f2 75 cb 39 d5 3f ad 38 bc 87 da b8
       -0.000107782864 0.00038807053 8.2611725e-05 -0.000104203325
000140 9f fa a9 b8 5b 5e da b8 98 5e f0 3a d3 4d 2e 39
       -8.10523e-05 -0.00010412625 0.0018338738 0.00016622925
000150 54 a8 a1 b9 fc db 97 b8 fd 4e 0d b7 b7 7a 41 3a
       -0.00030833727 -7.2412164e-05 -8.422646e-06 0.00073806517
000160 dc e7 0a b8 76 dc 8e b8 d8 ae 40 b9 af 24 56 38
       -3.31177e-05 -6.812152e-05 -0.00018375681 5.105574e-05
000170 66 e1 e3 39 2d e6 59 ba a6 b9 65 ba d7 ef 2c 3a
       0.0004346475 -0.0008312192 -0.00087633205 0.0006597018
000180 29 f9 97 ba 86 85 af 38 1d 2d 94 b9 d5 76 aa 39
       -0.0011594641 8.369521e-05 -0.00028262372 0.00032513464

exp_avg_sq f4 [50, 2]
000000 b5 8f 8e 3b 1f 96 5e 3b 62 93 09 39 39 e5 0f 39
       0.0043506273 0.003396399 0.00013120243 0.00013722935
000010 03 dc 2b 39 f8 39 57 39 31 38 86 3b 82 8c 6e 3b
       0.00016389792 0.00020525593 0.004096054 0.0036399667
000020 a3 88 ce 3a 4c 0b b0 3a 82 dc 3a 3b 5e 5d 42 3b
       0.0015757274 0.0013431101 0.002851278 0.0029657702
000030 ff 6a 35 3b d6 6b 00 3b 2d 6d 11 3a a2 d3 01 3a
       0.0027682183 0.0019595525 0.00055475795 0.0004952495
000040 e7 0d bc 3b 36 21 7d 3b 19 85 aa 3a 90 82 91 3a
       0.005738962 0.0038624532 0.0013009637 0.0011101533
000050 fa 6e d5 3b f2 fc a6 3b 0e 2f 92 38 6d 87 54 38
       0.0065134736 0.0050960714 6.970587e-05 5.0670864e-05
000060 10 8a 94 3b 28 fb 8a 3b 77 bf a1 3b bd a3 5b 3b
       0.00453306 0.004241366 0.0049361545 0.0033514344
000070 58 13 81 3b 5b 97 85 3b a2 ea 20 3b 59 32 7c 3b
       0.0039390735 0.004076881 0.0024553915 0.0038482158
000080 07 07 2f 3b c7 d7 f1 3a b0 bf 64 3b a4 fb 09 3b
       0.002670707 0.0018451147 0.0034904294 0.002105453
000090 f0 80 6e 3a df 91 2a 3a 54 9d 62 3b 12 14 59 3b
       0.00090981927 0.0006506722 0.0034578638 0.0033123535
0000a0 d8 ca 3e 3b 9f d6 df 3a 26 90 06 3b f2 a5 2c 3b
       0.0029112604 0.0017077512 0.0020532697 0.0026344028
0000b0 3b cf bf 3a 18 f7 96 3a 3d c1 08 3b 68 0d 12 3b
       0.0014633903 0.0011517731 0.0020867132 0.0022285823
0000c0 da 39 94 3a f8 88 37 3a 19 c9 92 3a 11 e9 47 3a
       0.0011308745 0.0007001306 0.0011198848 0.0007625977
0000d0 44 85 8a 39 01 5e 9e 39 98 c6 dd 3a 60 1c da 3a
       0.00026420702 0.00030206147 0.0016920147 0.0016640536
0000e0 48 e1 86 39 d1 87 38 39 61 15 19 3b 7f 53 33 3b
       0.0002572632 0.00017598203 0.002335869 0.0027363
0000f0 e6 95 9f 3a 1f a7 5a 3a 6b 83 26 3a 1c 84 4b 3a
       0.001217541 0.0008340943 0.000635198 0.0007763521
000100 15 03 ef 39 0d 3c ae 39 15 09 3f 3b 58 36 14 3b
       0.0004558793 0.00033232608 0.00291497 0.00226154
000110 8b 6f 9a 39 88 ed 4a 39 8e f7 1c 39 53 1d 58 39
       0.00029456275 0.00019352708 0.0001496954 0.0002061029
000120 07 fe 46 3a 04 d5 a9 3a 7c 3e f2 3a 90 ab 06 3b
       0.00075909536 0.001295716 0.0018481757 0.0020549037
000130 a8 03 a9 3b 22 42 93 3b a4 59 a2 3b c2 6e 38 3b
       0.0051579066 0.0044939676 0.0049545337 0.0028142189
000140 2c 13 83 39 ee 69 39 39 91 ea e4 3b 45 15 97 3b
       0.0002500055 0.00017682437 0.0069859703 0.00461069
000150 2d 6b a4 39 5e f1 9a 39 26 4a 13 3b a1 ab 2e 3b
       0.0003136037 0.00029553002 0.0022474616 0.0026652592
000160 2d 88 af 39 a9 c7 a9 39 90 2d 66 3a 26 12 64 3a
       0.0003348006 0.0003238295 0.0008780593 0.0008700214
000170 e7 97 88 3b c5 53 29 3b d5 be 4f 3a 84 7b 1e 3a
       0.004168499 0.0025837284 0.00079248595 0.0006045627
000180 13 74 7c 3b 72 6b 22 3b 77 18 15 3c 6c 8d dd 3b
       0.0038521334 0.002478328 0.009100071 0.0067612436

exp_avg f4 [50]
000000 9b c2 b5 39 67 f1 05 b7 b8 17 c9 b7 64 f5 ae b9
       0.00034668003 -7.983624e-06 -2.3972112e-05 -0.00033370696
000010 c5 c4 61 39 5d fb 15 b9 35 43 61 39 87 4f 85 37
       0.00021530974 -0.00014303387 0.00021482709 1.5891868e-05
000020 9a bb b9 39 db 2a 73 38 92 a4 2a 3a ed f7 81 39
       0.00035425724 5.7975627e-05 0.0006509508 0.00024789516
000030 4a be 60 39 a8 98 cb 38 19 ac bb 39 9a 1d 67 38
       0.00021433193 9.708229e-05 0.00035795642 5.510226e-05
000040 50 2a 41 b9 ce 34 39 39 ba e5 94 b9 1a d6 c8 36
       -0.00018421677 0.00017662646 -0.0002839992 5.985389e-06
000050 8c e3 d3 b9 fa fb 15 38 6d e5 3d 38 ee ee bb b8
       -0.00040414592 3.575904e-05 4.527478e-05 -8.961359e-05
000060 b2 f4 f6 b9 bd fe 67 b9 27 11 33 38 00 52 3a b8
       -0.0004710309 -0.00022124774 4.26929e-05 -4.4422224e-05
000070 f0 a2 fc 38 d1 85 1e b9 85 99 a5 39 8e 9f 97 b8
       0.00012046646 -0.00015117905 0.00031585633 -7.2299605e-05
000080 5f cf 96 38 71 e5 92 b9 b7 48 8d 38 84 20 a8 38
       7.191183e-05 -0.00028018237 6.736948e-05 8.016921e-05
000090 39 be fd b8 15 72 95 b9 e2 51 e5 b9 3c d8 f5 39
       -0.00012099412 -0.00028504492 -0.0004373929 0.0004689115
0000a0 d3 ce 9b 38 57 89 fa b8 41 38 c1 b7 af 57 26 b9
       7.4295e-05 -0.000119465105 -2.3033588e-05 -0.00015863658
0000b0 f3 f7 91 39 b9 78 81 b6 70 e2 b1 39 59 a4 1d b9
       0.00027841292 -3.8585536e-06 0.0003392878 -0.00015033911
0000c0 fe 0b 15 3a 83 85 2a ba
       0.0005685686 -0.000650488

exp_avg_sq f4 [50]
000000 10 da 09 38 3a ec cd 36 e7 da 00 37 40 c3 35 38
       3.2866432e-05 6.1369765e-06 7.680362e-06 4.3335604e-05
000010 f2 2e 89 36 38 8e 1c 38 ac 3e ef 36 3c 67 bf 37
       4.0883833e-06 3.732575e-05 7.130051e-06 2.2817047e-05
000020 27 5c 99 37 89 7c 1a 37 40 9e 0d 38 24 41 8c 36
       1.8281933e-05 9.208111e-06 3.37644e-05 4.1799085e-06
000030 c9 3d a8 38 fe 06 88 37 a9 57 55 37 55 43 2e 38
       8.022373e-05 1.621572e-05 1.2716199e-05 4.154754e-05
000040 6a 5a 39 37 58 29 5f 37 91 3f 23 37 fb 62 55 37
       1.104791e-05 1.3301462e-05 9.730357e-06 1.2718835e-05
000050 c4 09 de 36 19 fe 61 38 82 67 b7 37 b9 6d 8a 37
       6.6172524e-06 5.3880827e-05 2.18635e-05 1.6501976e-05
000060 bf 96 33 37 32 e5 c5 36 d8 b2 99 36 8b 73 32 37
       1.070433e-05 5.8977394e-06 4.5805755e-06 1.0636529e-05
000070 f2 bb bf 37 04 75 67 38 7f 2e 7b 37 ab 2d 02 37
       2.2856493e-05 5.518367e-05 1.4971592e-05 7.759237e-06
000080 77 e0 41 37 93 9a b4 37 57 4a 3d 37 48 81 cb 36
       1.1555959e-05 2.1529651e-05 1.12825865e-05 6.0649218e-06
000090 5e b6 a1 37 34 b8 d8 37 c8 26 65 38 fd 02 f6 37
       1.9277617e-05 2.5834983e-05 5.4633972e-05 2.9326877e-05
0000a0 89 f1 a2 37 01 ef d4 37 25 07 0d 37 3a 45 1e 38
       1.9424378e-05 2.5383664e-05 8.405918e-06 3.7734608e-05
0000b0 af 88 a7 36 69 7b d7 36 e8 f1 7e 37 e7 43 07 37
       4.9929e-06 6.421866e-06 1.5195903e-05 8.062437e-06
0000c0 d2 9a 5d 37 3e ea f5 37
       1.3208673e-05 2.9315353e-05

exp_avg f4 [50, 50]
000000 d1 e0 a5 b8 10 50 20 b9 3e 2d 80 b9 a8 7a 3a 38
       -7.9096884e-05 -0.00015288615 -0.0002444777 4.446009e-05
000010 06 79 72 b8 7c a5 32 38 f2 5a ee b7 00 97 ce b5
       -5.7810008e-05 4.2592626e-05 -2.841416e-05 -1.5392143e-06
000020 5f 81 7a b8 37 26 8f 37 74 1d ae b8 02 02 6a 39
       -5.972513e-05 1.7064724e-05 -8.3024526e-05 0.00022316727
000030 4d 37 41 b8 f2 eb 5b b8 59 36 5a b8 f5 67 9b 37
       -4.606629e-05 -5.243341e-05 -5.2025865e-05 1.8525849e-05
000040 7a 4e f7 37 68 61 1d b8 39 1e 0b 39 cf 7c be 37
       2.9481238e-05 -3.7522434e-05 0.00013267332 2.2707884e-05
000050 6f e0 ac 38 0c 1e e1 b7 be 23 a5 b8 88 9c b3 37
       8.243403e-05 -2.6836082e-05 -7.8744706e-05 2.1411353e-05
000060 82 2d d1 38 47 91 17 38 6c 2d f6 b4 16 93 a8 37
       9.974373e-05 3.6136506e-05 -4.585412e-07 2.0095653e-05
000070 f9 46 2e 39 f8 34 09 38 fc 02 dd b8 7a 28 82 38
       0.00016620372 3.2712676e-05 -0.00010538657 6.2064224e-05
000080 fa 75 e8 36 44 a6 7c 38 78 14 30 b9 49 45 36 37
       6.927873e-06 6.023633e-05 -0.00016792293 1.0864177e-05
000090 1d 87 96 b8 b2 3a 83 38 65 5a 47 38 62 44 95 b8
       -7.177724e-05 6.2574996e-05 4.7529484e-05 -7.117611e-05
0000a0 2c 1b 0c 34 90 bf 79 b8 ac e8 0d b8 d5 09 4a 38
       1.3048401e-07 -5.9544633e-05 -3.3833712e-05 4.816971e-05
0000b0 6f 16 4d b7 f9 d7 c4 b7 cf 11 b8 b8 85 2d c2 38
       -1.2224175e-05 -2.346559e-05 -8.777121e-05 9.2591195e-05
0000c0 aa 3a 5a b8 99 da 95 38 df 17 71 b8 95 a8 cc b8
       -5.2029885e-05 7.145591e-05 -5.748111e-05 -9.758879e-05
0000d0 29 af c6 b8 e4 66 0a 38 fb 1b 27 b8 e5 93 0d 38
       -9.474002e-05 3.299759e-05 -3.984196e-05 3.3754757e-05
0000e0 af 95 73 b7 f3 39 cc 39 e9 b0 01 b8 cf 8e 8f 37
       -1.451878e-05 0.00038953088 -3.0920757e-05 1.7113429e-05
0000f0 1b 6e 68 b8 58 95 fa 38 40 51 16 b8 5a 10 b5 b7
       -5.5415654e-05 0.000119487464 -3.5838457e-05 -2.1584496e-05
000100 a6 4d eb b7 73 74 83 37 d7 ea b7 37 ca 5a 91 b7
       -2.8050341e-05 1.5670643e-05 2.1924656e-05 -1.7327624e-05
000110 cf 10 b1 38 94 99 1d 37 89 d5 5e 38 a4 ba c7 b7
       8.4431485e-05 9.393687e-06 5.3127795e-05 -2.380956e-05
000120 49 7d 7a b8 74 c4 92 37 1b f0 81 38 6b 57 cf 37
       -5.9721326e-05 1.7496037e-05 6.1959225e-05 2.471703e-05
000130 8a 95 42 b7 a9 b4 93 37 9d b0 df 38 36 7e ff 37
       -1.1598118e-05 1.7607892e-05 0.000106663654 3.045714e-05
000140 58 ab a5 b8 66 8d 03 38 9b 4a 5c 37 7b 06 39 38
       -7.8997284e-05 3.136452e-05 1.3130392e-05 4.4113473e-05
000150 fa be 20 b9 4d fc 55 b7 6c bc 09 b8 6c 44 24 38
       -0.00015329933 -1.2754533e-05 -3.2838827e-05 3.916437e-05
000160 44 f1 20 38 82 00 5d b8 2f 35 e4 b7 cc cc 6d b7
       3.837167e-05 -5.269098e-05 -2.7204484e-05 -1.4173984e-05
000170 cf 46 29 37 1c 68 09 38 05 83 a0 b7 76 15 95 b7
       1.0089671e-05 3.2760305e-05 -1.9134497e-05 -1.7772178e-05
000180 8e 84 86 b8 d6 15 7d 38 0b d4 10 b8 40 eb 6c 38
       -6.414308e-05 6.0340237e-05 -3.4529756e-05 5.648588e-05
000190 a6 5d 1c b8 54 32 0c b8 34 b7 f0 b7 0e 39 c9 37
       -3.7280515e-05 -3.3425473e-05 -2.869554e-05 2.3987635e-05
0001a0 e5 07 f0 b7 3e 2a e1 37 26 27 ad 37 3d b4 2b 38
       -2.8613906e-05 2.684176e-05 2.0641437e-05 4.0937437e-05
0001b0 bc 7a c7 b7 35 12 a1 37 78 95 38 b8 00 26 f0 37
       -2.3779801e-05 1.9201174e-05 -4.4008222e-05 2.8627925e-05
0001c0 07 b5 e9 b7 3e 37 91 b7 22 cb 9b b7 d9 38 9f b6
       -2.7860062e-05 -1.7311071e-05 -1.8572031e-05 -4.745187e-06
0001d0 94 09 c9 b7 38 6a 1c b6 5b 36 37 38 9e ee 29 b7
       -2.3965527e-05 -2.330764e-06 4.3681222e-05 -1.0128742e-05
0001e0 32 a3 12 38 bd 3c b8 b7 65 fc 1c b8 d0 9e fa 34
       3.49611e-05 -2.1962793e-05 -3.742836e-05 4.668168e-07
0001f0 ef 8a 29 38 c4 f5 4b 37 38 a7 ba b7 4b e0 ea 36
       4.0422132e-05 1.2156965e-05 -2.2250795e-05 6.9998546e-06
000200 fb 21 10 38 54 9c fb 37 c4 f0 39 b8 55 49 88 37
       3.4363922e-05 2.9994328e-05 -4.4331668e-05 1.6246611e-05
000210 2f 81 5f 37 63 3b 0b 38 cb 2b 27 b8 6f 00 8d b7
       1.3321914e-05 3.319549e-05 -3.9856688e-05 -1.6808712e-05
000220 e7 d0 a3 b7 2d b1 bd 37 e4 07 00 38 c1 e9 1e b8
       -1.9528392e-05 2.261306e-05 3.0524927e-05 -3.7887836e-05
000230 f8 ff c8 b7 ae 3c 38 b8 cc df a9 37 fd 28 a0 37
       -2.3961053e-05 -4.392553e-05 2.0250583e-05 1.9092573e-05
000240 a9 31 7b b7 f9 06 f8 35 5f 14 30 b8 42 97 14 38
       -1.4972328e-05 1.8479469e-06 -4.1980642e-05 3.542682e-05
000250 e3 22 aa b7 b1 02 27 38 eb 2a 8c 37 de 72 56 38
       -2.0281825e-05 3.981841e-05 1.6709286e-05 5.1128554e-05
000260 c2 25 8d 38 d6 70 d4 b7 53 b1 b3 37 90 15 96 b7
       6.730437e-05 -2.5324913e-05 2.1421036e-05 -1.7891434e-05
000270 ef e4 81 b5 4c 6c 85 b8 2e 19 d8 b7 42 ce 26 b7
       -9.677877e-07 -6.362106e-05 -2.5760932e-05 -9.942394e-06
000280 a4 fe b2 b6 b0 52 80 b8 b0 5a 97 37 2a 31 2a b8
       -5.3344575e-06 -6.1189174e-05 1.8042832e-05 -4.0576946e-05
000290 dd b3 8c b7 14 1e 97 b8 a0 c6 c7 37 23 34 9a b7
       -1.6773056e-05 -7.2058436e-05 2.381514e-05 -1.8382509e-05
0002a0 87 79 00 b8 34 b3 41 b5 5d b6 fc b7 b7 b5 7f 37
       -3.063076e-05 -7.215888e-07 -3.012566e-05 1.5241493e-05
0002b0 c6 96 80 37 21 34 83 b8 2e cf 19 b8 53 87 f6 b7
       1.5328998e-05 -6.2562765e-05 -3.6670994e-05 -2.93885e-05
0002c0 7c e8 d1 38 43 eb 31 b8 4f 60 8f b8 42 d1 d5 b5
       0.000100092 -4.2419193e-05 -6.83671e-05 -1.5930639e-06
0002d0 9c a0 84 35 bf 7b a1 b8 b2 43 cb b8 b1 db 54 b7
       9.88151e-07 -7.700128e-05 -9.6924035e-05 -1.2687336e-05
0002e0 88 83 84 38 9a dc b0 38 c1 5c aa 38 ad 3b c1 b6
       6.31875e-05 8.433424e-05 8.1235085e-05 -5.7587954e-06
0002f0 22 7a 52 b7 9b 06 dd 36 fe a0 50 38 41 0d 95 b8
       -1.2545412e-05 6.587082e-06 4.9741e-05 -7.1073424e-05
000300 2c a6 dd b8 36 16 3d b8 7b 0d 62 38 dc 20 8d 38
       -0.00010569053 -4.5081797e-05 5.3895154e-05 6.7295245e-05
000310 63 0c 77 36 67 07 1e b8 82 a8 1d 38 c8 9f c2 35
       3.6813078e-06 -3.767703e-05 3.7588652e-05 1.4500629e-06
000320 2f f6 2b 37 52 6b 56 35 65 42 3d b7 31 c8 17 36
       1.0249713e-05 7.9877384e-07 -1.12807365e-05 2.261728e-06
000330 bd b9 58 35 e6 e3 64 b6 9d f2 53 b7 3b dc 7d b8
       8.0736555e-07 -3.4107302e-06 -1.2633068e-05 -6.0525006e-05
000340 10 23 9a 37 ff ee 72 b6 b0 3d b0 37 7a 6a 21 36
       1.8374558e-05 -3.6199924e-06 2.100956e-05 2.4052847e-06
000350 1f f0 7e 36 90 df c8 37 6c 97 50 37 3b 8a 21 38
       3.7988718e-06 2.3945962e-05 1.2433022e-05 3.851413e-05
000360 30 02 55 37 1e 0c f9 36 71 93 d7 b6 9a 3d cb 36
       1.2696299e-05 7.422189e-06 -6.4246638e-06 6.057043e-06
000370 00 b3 df 35 86 82 20 36 9d a6 4f 37 6e b8 02 38
       1.6666891e-06 2.3917833e-06 1.2376954e-05 3.116618e-05
000380 6e 93 e1 36 c9 ff 2e 37 3e 48 8c b8 91 52 95 37
       6.7226856e-06 1.0430763e-05 -6.6891764e-05 1.7800632e-05
000390 74 a3 6a 35 32 e5 64 b7 56 21 d3 37 f3 3f 17 38
       8.740965e-07 -1.3643223e-05 2.5168683e-05 3.6060763e-05
0003a0 4d fd 7b 38 c5 ae 10 b7 b1 8d 0a 37 2d 84 f6 b7
       6.0078968e-05 -8.623761e-06 8.258431e-06 -2.9387034e-05
0003b0 3b c8 21 b8 e1 07 22 b6 cf ae 0c b7 13 74 7a 37
       -3.857187e-05 -2.4144467e-06 -8.385351e-06 1.4928187e-05
0003c0 0f 15 7f 36 dc 7e 54 38 db e2 a6 38 87 d4 79 37
       3.8010219e-06 5.0662886e-05 7.957752e-05 1.4891039e-05
0003d0 77 3b 9a b7 dc eb 11 b8 73 0e a4 37 d9 11 05 36
       -1.8385921e-05 -3.4790355e-05 1.9557052e-05 1.9828933e-06
0003e0 0e fc 3f b7 82 c5 b5 b7 c7 fa 19 b8 a9 b5 b5 b8
       -1.1443173e-05 -2.1668853e-05 -3.6711597e-05 -8.6645894e-05
0003f0 62 f9 ff b8 81 18 3e 38 8d 75 cc b7 4d 1f 52 38
       -0.00012205799 4.532235e-05 -2.4373434e-05 5.0097053e-05

exp_avg_sq f4 [50, 50]
000000 98 ca ac 37 fc 49 64 38 eb 7d fb 38 6b 5c 03 37
       2.0598338e-05 5.442834e-05 0.00011992067 7.829726e-06
000010 07 53 33 37 01 00 0f 37 76 1d 34 36 f1 0a 60 37
       1.0688563e-05 8.523465e-06 2.6839239e-06 1.3353988e-05
000020 d3 7a 89 36 61 a8 5f 36 c1 59 b1 37 59 5c d9 38
       4.097217e-06 3.33276e-06 2.114184e-05 0.000103645674
000030 2d 06 1d 37 2f fa 0c 36 31 3c 4a 36 95 4c b1 35
       9.359367e-06 2.1007252e-06 3.0135382e-06 1.3209816e-06
000040 61 b9 8a 36 72 75 7e 35 2d 42 36 38 ca 76 88 35
       4.1343014e-06 9.479328e-07 4.3453812e-05 1.0167362e-06
000050 60 e8 98 37 02 21 a9 36 88 66 b2 37 0c a3 f2 35
       1.822802e-05 5.040435e-06 2.1266998e-05 1.8077858e-06
000060 71 3d b4 37 b9 17 53 36 dd 29 ae 36 05 a5 0a 36
       2.1486283e-05 3.1455259e-06 5.1904776e-06 2.0659656e-06
000070 79 44 94 38 25 69 04 37 b0 d8 0e 38 68 8e 36 37
       7.069944e-05 7.892294e-06 3.4057244e-05 1.0881202e-05
000080 e7 2c 96 36 1c 36 60 37 cd b0 be 38 e6 a1 aa 36
       4.4755757e-06 1.3364039e-05 9.092838e-05 5.0852423e-06
000090 93 16 6b 37 fc 9d be 36 a2 42 31 37 ff 38 97 37
       1.40123475e-05 5.680833e-06 1.0565536e-05 1.8027144e-05
0000a0 8c 8b cc 36 fd 18 d9 36 7a 6b 84 36 3e 05 01 37
       6.095919e-06 6.470013e-06 3.9464185e-06 7.69022e-06
0000b0 9f 0b 8b 36 4e 8d e9 35 ce 99 d1 37 ee 29 ce 37
       4.1438757e-06 1.7400978e-06 2.4986362e-05 2.4576639e-05
0000c0 8b 78 f9 36 50 a4 a4 37 58 f1 64 36 98 92 ef 36
       7.4348113e-06 1.9626837e-05 3.4115128e-06 7.139821e-06
0000d0 77 0a 9d 36 99 88 a0 35 09 26 e4 35 8b 11 a7 35
       4.680183e-06 1.1960684e-06 1.6998393e-06 1.2447575e-06
0000e0 02 df a4 34 26 23 1b 38 56 9e 95 35 b6 48 ab 34
       3.070964e-07 3.6987614e-05 1.1147447e-06 3.1904136e-07
0000f0 77 54 62 36 09 63 f0 36 dd f7 ba 35 7f 32 22 35
       3.372579e-06 7.1640866e-06 1.3930218e-06 6.0423184e-07
000100 5d 02 6f 35 e6 13 17 35 74 cb 10 35 37 3a bd 34
       8.903788e-07 5.628084e-07 5.3940244e-07 3.524635e-07
000110 1d 8a cd 36 d4 9d 11 34 8e 1d 3c 36 f9 54 27 35
       6.1255546e-06 1.3561595e-07 2.8031386e-06 6.2336e-07
000120 dc 15 79 36 62 3f 14 35 60 89 66 36 d7 ba 42 35
       3.7116615e-06 5.522653e-07 3.4352634e-06 7.254252e-07
000130 64 00 57 35 37 23 e6 34 a9 a5 c8 36 ce 6b 89 35
       8.009431e-07 4.286646e-07 5.97975e-06 1.0238671e-06
000140 78 8a db 36 6f 5e ba 35 d8 46 4d 35 11 08 0c 36
       6.5428285e-06 1.3885564e-06 7.647154e-07 2.086632e-06
000150 01 3d 19 37 fc 3d dd 34 bc 81 c9 35 9e e0 d6 35
       9.133714e-06 4.1209557e-07 1.5013425e-06 1.6009615e-06
000160 d9 75 d6 35 cb 04 48 36 fe bb 53 35 b1 8e 16 35
       1.5978541e-06 2.9805112e-06 7.887719e-07 5.6087e-07
000170 f5 e7 38 35 29 8d a7 35 e6 b6 06 35 7b a3 24 35
       6.8882883e-07 1.2483553e-06 5.018504e-07 6.1332656e-07
000180 e2 9c 92 36 5e a6 6d 36 8e 67 b2 35 2d b8 6d 36
       4.3694026e-06 3.541259e-06 1.3292172e-06 3.5422956e-06
000190 f7 24 70 36 3c ee 01 37 5d 7c 42 37 d1 4f c0 35
       3.5784303e-06 7.744467e-06 1.1592257e-05 1.4328344e-06
0001a0 40 0a 0d 36 74 69 c1 35 cd e3 20 35 9b f3 af 35
       2.1016604e-06 1.4410311e-06 5.993614e-07 1.3109415e-06
0001b0 36 9e 9e 35 46 ed 0c 35 68 7d 88 36 e8 09 3e 37
       1.1817963e-06 5.249934e-07 4.067715e-06 1.1327189e-05
0001c0 0c 4e d6 35 0e 5c 48 35 ce a3 71 35 2c 6a d2 34
       1.5966957e-06 7.4639763e-07 9.0017863e-07 3.9192798e-07
0001d0 4d b8 74 35 bd 89 d1 34 8f ce 09 37 0a 29 91 34
       9.1165276e-07 3.90295e-07 8.2139295e-06 2.7038215e-07
0001e0 63 b2 7f 36 e2 da 5b 35 15 66 6c 36 16 e5 f3 34
       3.8101796e-06 8.1902374e-07 3.522616e-06 4.542896e-07
0001f0 64 ba ad 36 fe 78 48 35 9d 8d 91 35 c5 10 e3 34
       5.1775005e-06 7.468187e-07 1.0844557e-06 4.2294246e-07
000200 ba a5 ac 36 e0 b1 9f 35 5a a5 bf 36 c9 50 31 36
       5.1452926e-06 1.1898192e-06 5.711493e-06 2.6422078e-06
000210 b1 00 6f 35 9f 05 1f 36 ff 39 d7 36 42 cc a1 35
       8.9035444e-07 2.3696118e-06 6.414251e-06 1.2054882e-06
000220 12 b1 6b 36 46 8a cf 35 9d 84 e7 35 69 c0 50 36
       3.5120797e-06 1.5462945e-06 1.7249437e-06 3.1106413e-06
000230 d6 04 93 35 93 17 e1 35 2a 7b aa 35 f8 f3 d1 35
       1.0953761e-06 1.6770667e-06 1.2701832e-06 1.5642718e-06
000240 01 8c 39 35 9f c8 02 35 cf 1c 91 36 34 cb 97 36
       6.9121603e-07 4.8720716e-07 4.3246905e-06 4.5238066e-06
000250 9c 36 dc 35 b6 83 54 36 c0 b5 79 36 03 c2 dc 35
       1.6407171e-06 3.1667128e-06 3.7209684e-06 1.6447742e-06
000260 01 0c df 35 db b9 95 35 48 cd f1 35 5c 78 bd 35
       1.6618288e-06 1.1155456e-06 1.8015644e-06 1.4116627e-06
000270 bd f1 3f 35 ce 6d db 35 f7 4a 56 36 79 8f 04 35
       7.150482e-07 1.6348729e-06 3.193212e-06 4.938261e-07
000280 9a 10 d4 36 e9 41 bf 35 4f b8 d2 35 60 14 2a 36
       6.320025e-06 1.4249791e-06 1.569986e-06 2.5343834e-06
000290 2a 80 1b 36 f4 1b 86 35 d9 c5 03 36 83 56 a2 35
       2.3171401e-06 9.991913e-07 1.9635684e-06 1.2095119e-06
0002a0 0d c5 91 36 c1 91 8e 34 99 ff 24 36 0e 91 52 35
       4.3442765e-06 2.655561e-07 2.4586682e-06 7.844218e-07
0002b0 cc e5 86 36 0d 1b 44 35 40 35 40 36 f8 71 11 35
       4.020263e-06 7.3055054e-07 2.8641225e-06 5.4182556e-07
0002c0 70 e7 09 36 1d 55 db 34 a1 3b ce 35 a7 fb f3 35
       2.0549305e-06 4.0853857e-07 1.536555e-06 1.8178151e-06
0002d0 bc 1c 17 37 b2 27 86 35 3e 68 00 36 1b eb 33 36
       9.006992e-06 9.995331e-07 1.9134163e-06 2.6809928e-06
0002e0 b3 46 ce 35 c9 36 f4 35 bd 5d 95 35 c4 d9 2f 36
       1.5368772e-06 1.8195361e-06 1.1128647e-06 2.6203788e-06
0002f0 ee 99 09 36 08 57 8e 36 c1 81 8a 35 b2 9b 62 36
       2.050419e-06 4.2420616e-06 1.0319565e-06 3.376725e-06
000300 01 a1 15 36 ac 49 4a 35 d4 5d 4e 35 84 ba 5c 35
       2.2296447e-06 7.535807e-07 7.687752e-07 8.22278e-07
000310 ab 9a d2 36 ee 75 14 36 ea d4 75 35 ef 58 c0 36
       6.2764934e-06 2.2122363e-06 9.1579443e-07 5.732399e-06
000320 f1 c7 0e 34 f3 38 1d 35 54 ef cc 35 74 44 83 33
       1.3297519e-07 5.856993e-07 1.5268838e-06 6.1126144e-08
000330 80 31 e5 33 5e 51 5d 33 74 e2 0f 36 f8 a7 08 36
       1.06726475e-07 5.1529575e-08 2.1440474e-06 2.036335e-06
000340 ad d0 cd 35 69 8e 05 34 36 f7 fe 34 5a 0c ad 35
       1.5334423e-06 1.2438399e-07 4.7491056e-07 1.2893099e-06
000350 c3 98 4a 33 74 44 f2 35 61 30 9c 35 20 90 24 35
       4.7170726e-08 1.8050328e-06 1.1636986e-06 6.130449e-07
000360 da 86 99 36 bd b2 ae 35 ee b8 1c 35 42 a1 65 35
       4.575454e-06 1.301603e-06 5.8383637e-07 8.554381e-07
000370 0a a1 aa 34 22 7a ca 33 fe ab fc 33 86 46 f5 34
       3.178214e-07 9.428574e-08 1.17659496e-07 4.568612e-07
000380 c2 5c 64 35 2f 55 19 34 df 28 05 36 d7 fc 71 34
       8.50716e-07 1.4280225e-07 1.9842334e-06 2.2536857e-07
000390 82 51 cc 35 ad 85 01 34 cb 59 02 35 c8 78 36 35
       1.5222906e-06 1.2062692e-07 4.855944e-07 6.7976043e-07
0003a0 9b f8 d6 35 cc 7f 90 33 52 29 dd 35 62 be 61 36
       1.6016596e-06 6.728769e-08 1.6477809e-06 3.363843e-06
0003b0 d3 cd 55 35 9a 2c 84 35 42 5e 58 33 16 6b 07 34
       7.9648197e-07 9.847747e-07 5.0377146e-08 1.2611812e-07
0003c0 43 cf 41 36 d3 b5 e6 35 09 28 2d 36 88 46 56 34
       2.8879883e-06 1.7189253e-06 2.5802312e-06 1.9955962e-07
0003d0 43 b2 7c 35 34 b9 09 35 d4 f7 93 34 df 65 7c 34
       9.413672e-07 5.1305983e-07 2.7561202e-07 2.350639e-07
0003e0 b6 b9 50 34 a1 0f 26 34 98 43 f2 35 4d e5 06 37
       1.9439071e-07 1.546564e-07 1.8050077e-06 8.040411e-06
0003f0 0f 8b 9d 37 51 96 f7 35 47 4f 50 35 a1 15 1c 36
       1.8780613e-05 1.8446682e-06 7.76014e-07 2.3258401e-06

exp_avg f4 [50]
000000 09 fa 84 37 69 70 2b 37 af c1 49 b8 c7 8e d5 b8
       1.5852058e-05 1.0218567e-05 -4.8102516e-05 -0.00010183226
000010 cd 9a 8d 38 e1 2c 8c b7 1b 44 41 39 88 95 d2 38
       6.752238e-05 -1.6710199e-05 0.00018431286 0.00010041433
000020 a7 ef c2 39 51 39 22 b7 2d f7 95 38 31 55 30 b8
       0.00037181118 -9.6692975e-06 7.150914e-05 -4.204101e-05
000030 f8 db 98 b8 72 fd a6 38 04 1b 01 37 ad 2d 11 39
       -7.288897e-05 7.962705e-05 7.695289e-06 0.00013845293
000040 8b 92 af 37 02 67 cc b9 3a 09 8e 39 ed f0 4f b8
       2.0929865e-05 -0.0003898666 0.00027091225 -4.9577025e-05
000050 bc d6 68 38 21 71 45 37 dd eb 56 38 07 41 99 b6
       5.5513097e-05 1.1768455e-05 5.124124e-05 -4.5673255e-06
000060 66 d1 13 39 26 3e bc b7 36 d3 c1 b8 e8 a9 2a 38
       0.0001409702 -2.2440287e-05 -9.242298e-05 4.0689396e-05
000070 cb 77 b9 b9 ba 7c 55 39 ad 35 1b b9 61 b2 df b7
       -0.00035375202 0.00020359727 -0.00014801948 -2.6666736e-05
000080 3b 40 4a 38 cd 32 0d b8 5d 52 0e b9 d7 ae e4 b8
       4.8220372e-05 -3.366433e-05 -0.00013572858 -0.00010904454
000090 1e 17 a7 37 f8 85 73 39 b8 92 a3 38 73 b8 01 b9
       1.9918716e-05 0.00023224193 7.799774e-05 -0.00012371111
0000a0 a7 b6 8e 38 21 08 6b b9 41 96 3e 38 96 f7 37 b8
       6.805109e-05 -0.00022414375 4.5439465e-05 -4.3861182e-05
0000b0 e5 2a 0d 39 31 f9 10 39 f3 bf 7f 37 60 6a a4 37
       0.00013462787 0.00013825741 1.5243876e-05 1.9599858e-05
0000c0 3b f4 04 b9 67 3a d0 b8
       -0.00012679484 -9.929091e-05

exp_avg_sq f4 [50]
000000 26 e1 cc 36 4e 5d 75 35 c5 07 93 35 29 06 2b 36
       6.1058845e-06 9.140539e-07 1.0954615e-06 2.5484571e-06
000010 c5 bd 01 36 0c 6e 13 36 01 0f d5 36 63 e4 13 37
       1.9332958e-06 2.1968763e-06 6.3496414e-06 8.815058e-06
000020 f6 4a 80 36 ae b9 a7 36 2c ff 21 37 f3 35 2b 37
       3.823424e-06 4.998604e-06 9.65576e-06 1.0204955e-05
000030 ea 27 a0 35 b7 39 b0 35 a2 46 80 35 fc 1f 80 36
       1.1932545e-06 1.3129819e-06 9.5573e-07 3.8184207e-06
000040 2b 89 9a 36 c1 34 de 37 7f cb ff 36 f2 1f 82 35
       4.605526e-06 2.6489028e-05 7.6232823e-06 9.695052e-07
000050 78 32 20 36 60 7d c0 35 13 1b fe 34 fe ac 0c 37
       2.3871235e-06 1.4341604e-06 4.7330886e-07 8.384928e-06
000060 a9 16 2b 36 4b 39 11 37 5c 4c 9e 36 4c a3 19 38
       2.5494176e-06 8.656013e-06 4.7176563e-06 3.6630125e-05
000070 be 39 7e 36 1c a8 81 37 c0 1b a9 35 71 09 54 34
       3.788256e-06 1.545628e-05 1.2599558e-06 1.9747473e-07
000080 0e c8 8c 36 98 11 33 36 7c a0 72 35 18 d6 b3 36
       4.1956146e-06 2.668332e-06 9.038556e-07 5.3595395e-06
000090 57 a9 c1 36 72 e7 7c 36 59 76 f2 35 87 1d 95 35
       5.771562e-06 3.7685645e-06 1.8064849e-06 1.1109959e-06
0000a0 76 67 27 35 3a 91 7d 37 9d a1 c1 36 99 dd 93 35
       6.2362903e-07 1.5113788e-05 5.7706625e-06 1.1016847e-06
0000b0 e8 77 16 38 28 31 19 37 bd 56 b5 37 51 19 5b 36
       3.587446e-05 9.130956e-06 2.1617272e-05 3.264828e-06
0000c0 22 5c 0d 38 fa 0f 72 36
       3.3702825e-05 3.607011e-06
