checkpoints/model1_epoch_3000.pt (torch, 848127 bytes, 21 tensors)

network.0.weight f4 [50, 2]
-0.13223544 -0.14469168 -0.29777429 -0.24046761 -0.57575583 -0.48665896 0.104763284 0.052457813
-0.08773579 -0.0982108 0.1104695 0.049654476 0.16999398 -0.22919247 1.1312643 1.1477284
0.077038996 -0.23293115 0.08707594 -0.008074348 -0.07379334 -0.20353991 0.47934976 0.4513256
-0.11404483 -0.059154913 0.12123947 -0.24555923 0.063038744 -0.20024025 0.14662105 -0.07334343
-0.29017454 0.38284788 0.10490747 -0.18755129 0.15806817 0.2466385 -0.09371177 0.13179196
0.10287178 0.15171121 -0.102405205 -0.010497487 -0.14088018 -0.14163364 0.13083073 -0.049672335
0.077758975 0.22483742 0.05164176 0.057262596 -0.53741956 0.4340526 0.10191914 -0.027672226
0.62771803 0.43756652 0.11724305 0.03736161 -0.14072306 -0.24118288 0.18076596 0.026925351
0.39062944 -0.2999344 0.10570027 0.106804945 -0.653012 -0.64349604 -0.46243316 0.40445855
-0.19341506 -0.048355915 -0.016243808 0.19607288 0.11982891 0.06841678 -0.116119705 -0.14306764
-0.36045408 0.23215753 0.13353238 -0.29026642 0.6412094 -0.6417653 0.12052028 0.039172787
-0.19617356 0.11499781 -0.1260084 0.045408707 -0.12242607 -0.19245064 0.15190619 0.13868129
-0.08933648 -0.07808285 0.12797333 0.15942286
00000000: ba68 07be 0e2a 14be df75 98be 243d 76be
00000010: bc64 13bf 5d2b f9be 228e d63d 01de 563d
00000020: d2ae b3bd be22 c9bd d53d e23d 7e62 4b3d
00000030: e712 2e3e 6eb1 6abe 45cd 903f c4e8 923f
00000040: 9fc6 9d3d 8185 6ebe df54 b23d 454a 04bc
00000050: f620 97bd c46c 50be 556d f53e 2614 e73e
00000060: 5690 e9bd 6c4c 72bd 664c f83d e173 7bbe
00000070: 751a 813d c80b 4dbe d423 163e 1535 96bd
00000080: c291 94be a304 c43e bad9 d63d 720d 40be
00000090: 9fdc 213e ce8e 7c3e f5eb bfbd 79f4 063e
000000a0: 71ae d23d 2f5a 1b3e d2b9 d1bd a7fd 2bbc
000000b0: e542 10be 6908 11be 7ef8 053e 3875 4bbd
000000c0: 1940 9f3d c83b 663e 4f86 533d 2f8c 6a3d
000000d0: 5494 09bf 243c de3e fbba d03d ddb0 e2bc
000000e0: 21b2 203f b808 e03e 201d f03d 7d08 193d
000000f0: b519 10be a5f8 76be b61a 393e 8e92 dc3c
00000100: 9500 c83e 0091 99be 6279 d83d 8dbc da3d
00000110: cb2b 27bf 28bc 24bf 0ac4 ecbe 3115 cf3e
00000120: 990e 46be da10 46bd bc11 85bc 54c7 483e
00000130: dc68 f53d 191e 8c3d 2bd0 edbd 5380 12be
00000140: 708d b8be b4ba 6d3e b6bc 083e cd9d 94be
00000150: 4d26 243f bb4a 24bf 56d3 f63d a573 203d
00000160: b9e1 48be f983 eb3d 5908 01be 7bfe 393d
00000170: 85ba fabd c811 45be 4c8d 1b3e 7802 0e3e
00000180: 0bf6 b6bd e7e9 9fbd 710b 033e bf3f 233e

network.0.bias f4 [50]
0.09738847 -0.08551564 -0.3852166 0.02965901 -0.027896242 -0.064019896 -0.45419586 -0.9036428
0.008712757 -0.11112524 0.16049293 0.2215997 0.06261436 0.07113766 -0.038849257 0.514473
0.51986176 -0.1154111 0.039188262 0.2575965 0.11481866 0.08196673 0.13681829 0.3923485
0.25530964 0.1693843 -0.785299 0.1945937 0.21974744 -0.24216154 0.24553211 0.56339544
0.7194361 -0.08945626 -0.08393787 -0.105418466 -0.62878954 0.1568002 -0.13030112 0.16171992
0.3052104 0.47167006 0.8195382 0.20955051 -0.10050693 -0.46603465 0.19244015 0.082720496
-0.1958589 -0.26217073
00000000: 9b73 c73d d322 afbd 1c3b c5be 74f7 f23c
00000010: a986 e4bc dd1c 83bd 5c8c e8be 2255 67bf
00000020: f4bf 0e3c a195 e3bd 4258 243e 08eb 623e
00000030: f53b 803d 9fb0 913d 6620 1fbd 81b4 033f
00000040: a915 053f a85c ecbd df83 203d b0e3 833e
00000050: 0c26 eb3d 2cde a73d 181a 0c3e e7e1 c83e
00000060: f2b7 823e 1473 2d3e 5b09 49bf 9243 473e
00000070: 7905 613e 32f9 77be c56c 7b3e af3a 103f
00000080: f72c 383f d834 b7bd 9ee7 abbd a3e5 d7bd
00000090: 5af8 20bf 3b90 203e a86d 05be e899 253e
000000a0: 8a44 9c3e bd7e f13e 41cd 513f 6994 563e
000000b0: 94d6 cdbd 189c eebe 080f 453e 5d69 a93d
000000c0: 3c8f 48be 3e3b 86be

network.2.weight f4 [50, 50]
-0.09832962 -0.0012927501 0.17203307 -0.22959441 -0.08898472 -0.011066751 0.06077187 -0.24904664
-0.15098953 0.0021855198 -0.09307901 0.27448988 -0.00558343 -0.38618678 -0.22650923 -0.42045203
-0.24036431 -0.23623234 0.086407475 0.015748208 -0.27204284 0.050352395 -0.025262972 -0.3374844
0.07123586 -0.13167891 0.09769166 -0.4834419 -0.12107102 0.13410452 -0.15867494 -0.25049928
-0.7330158 0.19808479 0.08639531 -0.09477644 0.18145804 0.09415406 0.37434614 -0.097398885
0.11088817 -0.40705043 8.5237734e-05 0.093737856 0.4446843 0.37590823 -0.26735896 -0.070465006
0.09402271 0.13220088 0.06523731 -0.081252396 0.12573925 0.08127873 0.17820126 0.04966609
1.178351 -0.025748603 0.5123849 0.43333885 -0.062364955 -0.099580884 -0.31601018 0.6737948
0.42620683 0.23352502 -1.1732227 0.9089695 -0.0064857514 -1.1675435 -0.07869643 -0.38809282
-0.1590865 0.048420317 -0.281436 -0.12656738 -0.17463924 0.071555264 -0.032229207 0.29842502
-0.23254359 -0.28550574 0.035187934 0.18146017 -0.15592338 -0.67292094 -0.016235527 -0.25575364
0.5550726 0.14741665 -0.8436818 0.23685353 0.42183435 0.19412635 -0.3704937 0.1119434
-0.025356993 0.28314945 0.09146892 0.0879055 0.20492044 -0.29246834 -0.34778515 -0.114982836
0.31084105 0.033851225 0.18331283 0.043079305 0.21676475 -0.14710629 0.34093192 0.35267973
0.16634141 0.3851254 0.2166947 0.1523983 0.26635844 0.012601183 0.024637654 -0.20181307
-0.10591322 -0.074258976 0.08295933 0.25067666 -0.040931735 0.30195466 -0.15224336 0.13975672
-0.058149833 -0.2181865 0.28030837 0.5213867 0.17680295 -0.23963138 -0.09591886 0.083889365
-0.3949824 -0.12034466 0.43808863 0.19669354 0.14603111 0.30628666 -0.29067168 0.009641857
-0.21410847 0.13540046 0.040777475 0.14551513 0.11577825 -0.1717203 0.38564748 -0.15803902
0.11583701 -0.16458675 -0.03141351 -0.09025672 -0.3684193 0.021856595 -0.35206494 -0.09789195
0.041547105 -0.18205106 -0.045893595 -0.21052046 -0.44112554 0.06060482 0.4529612 -0.27823257
0.07057794 0.35837814 0.013616374 0.0009119867 0.28995395 -0.03260453 0.1056095 -0.22023124
-0.4545872 -0.120564036 0.21001095 -0.16318412 0.011329316 0.11572444 0.12660974 -0.3308261
0.07804963 -0.07707819 -0.12329846 0.035885625 -0.25418714 -0.2072712 0.10956075 -0.23380725
0.5305588 0.0583099 -0.122823484 -0.13032751 -0.14146176 0.13563924 -0.10970893 -0.011975639
-0.012945013 0.09142434 0.18253797 0.12209582 0.24064614 -0.11305953 0.11869972 0.17077142
-0.102992445 0.11512552 0.21060793 -0.19996741 0.19281119 -0.24586858 -0.41450903 0.026520178
0.11457997 0.08342569 -0.32346007 0.3643415 -0.23949477 0.24155293 0.103538334 0.02203941
-0.25585735 0.15074828 -0.047165234 -0.24615994 0.23382023 -0.3946012 0.39706796 -0.1281329
-0.07353884 -0.042102776 -0.046440355 -0.10397324 0.026166836 0.07914137 -0.19926307 0.006964271
0.005779991 0.037761584 0.029048713 -0.11832606 0.00545212 -0.03600276 0.05819967 -0.17171715
-0.20930591 -0.21412551 0.14390789 0.02678917 -0.022418037 0.06334393 0.13636526 0.08967933
00000000: 0a61 c9bd 7f71 a9ba 7029 303e cc1a 6bbe
00000010: 9f3d b6bd 5151 35bc edeb 783d 1506 7fbe
00000020: 009d 1abe f03a 0f3b 35a0 bebd f089 8c3e
00000030: 35f5 b6bb 46ba c5be 09f2 67be 7d45 d7be
00000040: 1022 76be e4e6 71be 67f6 b03d 6302 813c
00000050: 3349 8bbe 503e 4e3d 4bf4 cebc c1ca acbe
00000060: 1be4 913d d6d6 06be 9112 c83d b285 f7be
00000070: 15f4 f7bd b252 093e af7b 22be 7141 80be
00000080: eca6 3bbf bdd6 4a3e 06f0 b03d 261a c2bd
00000090: 23d0 393e d8d3 c03d 4caa bf3e 1179 c7bd
000000a0: 5619 e33d ea68 d0be a9c1 b238 a2f9 bf3d
000000b0: a9ad e33e 0b77 c03e 46e3 88be f54f 90bd
000000c0: fb8e c03d ab5f 073e 249b 853d a867 a6bd
000000d0: cac1 003e 7675 a63d 647a 363e ac6e 4b3d
000000e0: 35d4 963f bcee d2bc a82b 033f 97de dd3e
000000f0: 6572 7fbd 10f1 cbbd 16cc a1be d17d 2c3f
00000100: c837 da3e 2f21 6f3e 292c 96bf 3ab2 683f
00000110: 6d86 d4bb 1172 95bf 982b a1bd 1ab4 c6be
00000120: 92e7 22be 6254 463d 6118 90be e19a 01be
00000130: a1d4 32be 918b 923d c602 04bd 2acb 983e
00000140: e81f 6ebe cf2d 92be 3921 103d b2d0 393e
00000150: 61aa 1fbe 8c44 2cbf 5e00 85bc 24f2 82be
00000160: 3d19 0e3f 64f4 163e 88fb 57bf bb89 723e
00000170: acfa d73e 0fc9 463e 5ab1 bdbe 9542 e53d
00000180: 78b9 cfbc f7f8 903e 0f54 bb3d cc07 b43d
00000190: aad6 513e 69be 95be e510 b2be 1f7c ebbd
000001a0: 8f26 9f3e 95a7 0a3d 5cb6 3b3e ed73 303d
000001b0: 94f7 5d3e 08a3 16be a18e ae3e 7092 b43e
000001c0: 6755 2a3e 282f c53e 37e5 5d3e 4d0e 1c3e
000001d0: 2260 883e 3175 4e3c e8d4 c93c 16a8 4ebe
000001e0: 08e9 d8bd 1715 98bd 95e6 a93d b158 803e
000001f0: 09a8 27bd cd99 9a3e afe5 1bbe 631c 0f3e
00000200: 852e 6ebd 486c 5fbe 9484 8f3e 9979 053f
00000210: d50b 353e ee61 75be 1b71 c4bd 30ce ab3d
00000220: 223b cabe 4377 f6bd 274d e03e 086a 493e
00000230: 2e89 153e 9bd1 9c3e ebd2 94be e1f8 1d3c
00000240: 403f 5bbe 6ba6 0a3e 4806 273d eb01 153e
00000250: 261d ed3d 72d7 2fbe 9673 c53e fbd4 21be
00000260: f43b ed3d 6e89 28be 74ab 00bd 84d8 b8bd
00000270: 74a1 bcbe 9a0c b33c db41 b4be 937b c8bd
00000280: 4c2d 2a3d 986b 3abe ecfa 3bbd ad92 57be
00000290: 35db e1be c23c 783d 88ea e73e 8074 8ebe
000002a0: 2b8b 903d 577d b73e 3617 5f3c 6412 6f3a
000002b0: d874 943e 548c 05bd cb49 d83d 4c84 61be
000002c0: a7bf e8be 47ea f6bd 1c0d 573e bd19 27be
000002d0: 989e 393c ef00 ed3d fca5 013e 0a62 a9be
000002e0: 7cd8 9f3d 2cdb 9dbd e783 fcbd cefc 123d
000002f0: d124 82be e73e 54be 6361 e03d 2b6b 6fbe
00000300: b4d2 073f 5dd6 6e3d e18a fbbd 9374 05be
00000310: 5adb 10be 03e5 0a3e 13af e0bd 7835 44bc
00000320: 5217 54bc af3c bb3d 3ceb 3a3e 600d fa3d
00000330: f16b 763e c18b e7bd d718 f33d b4de 2e3e
00000340: b4ed d2bd eec6 eb3d 9ba9 573e 42c4 4cbe
00000350: 4c70 453e f9c4 7bbe 873a d4be d840 d93c
00000360: e7a8 ea3d 17db aa3d 8f9c a5be f88a ba3e
00000370: 1e3e 75be a759 773e e80b d43d fe8b b43c
00000380: bcff 82be c25d 1a3e 5530 41bd 5a11 7cbe
00000390: 926e 6f3e 2b09 cabe 7e4c cb3e 4535 03be
000003a0: 889b 96bd f673 2cbd 3e38 3ebd ecef d4bd
000003b0: d55b d63c df14 a23d 9e0b 4cbe 8a34 e43b
000003c0: 1466 bd3b e4ab 1a3d 91f7 ed3c ef54 f2bd
000003d0: b3a7 b23b a177 13bd c762 6e3d 9fd6 2fbe
000003e0: 4a54 56be b843 5bbe 975c 133e f674 db3c
000003f0: 08a6 b7bc 76ba 813d 56a3 0b3e cca9 b73d

network.2.bias f4 [50]
-0.23636863 -0.39851567 0.035261445 0.18891756 0.086962394 -0.112632394 0.15480585 -0.07859958
-0.08417156 0.26431897 -0.32127064 -0.011058082 0.3934378 -0.15606306 -0.35439795 0.0029859636
-0.06899706 0.23931691 0.044546086 -0.22226316 -0.022738434 -0.44236633 0.12100097 0.2421931
0.07864498 -0.09777076 0.06747146 -0.07735349 -0.036522385 -0.020407919 0.24471356 0.4292444
0.05787342 -0.17966884 0.20377646 0.17777811 -0.24914505 0.05427397 -0.1267408 0.603478
-0.10027128 -0.14180085 -0.055886652 0.20222175 0.17487419 -0.1671233 0.29432568 -0.1025221
0.005735941 0.10313562
00000000: 9e0a 72be 3f0a ccbe 4e6e 103d 9b73 413e
00000010: 5719 b23d d0ab e6bd 6d85 1e3e d1f8 a0bd
00000020: 2462 acbd d154 873e 967d a4be f52c 35bc
00000030: ae70 c93e ffce 1fbe a673 b5be 28b0 433b
00000040: 554e 8dbd 7e0f 753e f575 363d f498 63be
00000050: f445 babc d77d e2be 5bcf f73d 7801 783e
00000060: 9f10 a13d 093c c8bd 7a2e 8a3d 826b 9ebd
00000070: 7f98 15bd 822e a7bc 3196 7a3e ecc5 db3e
00000080: ae0c 6d3d 1cfb 37be c7aa 503e 770b 363e
00000090: e11f 7fbe 624e 5e3d 57c8 01be 897d 1a3f
000000a0: 075b cdbd 3e34 11be 67e9 64bd 3813 4f3e
000000b0: 3812 333e 5f22 2bbe dbb1 963e 1bf7 d1bd
000000c0: 90f4 bb3b c538 d33d

network.4.weight f4 [50, 50]
-0.06764187 0.066216476 0.050497513 -0.08852815 0.027986567 -0.2819693 0.16449496 -0.14716996
-0.08864266 0.06282315 -0.08348954 0.024023315 -0.15841869 0.022475239 -0.017688002 -0.029728971
-0.018726312 0.039759975 -0.08550949 0.2929386 -0.0031617393 -0.016606707 -9.944386e-05 -0.24482742
0.053283464 0.11904488 0.20945446 0.15933836 -0.21971527 0.112218946 -0.11401749 0.15033534
-0.07642972 0.13850382 0.06289185 -0.056345858 -0.11549963 0.033984542 -0.047810566 -0.034628052
0.014487208 0.1017062 0.08739592 -0.02673638 0.005754576 0.013870987 -0.029647479 0.049130943
-0.008487188 0.16049543 -0.08526688 0.046556737 0.2544488 0.115678824 -0.015574811 0.0774342
0.32793912 0.40365633 1.2704844 -0.1853858 0.013239372 -0.056108028 -0.22041623 -0.057808455
-0.007847285 -0.0140497405 0.29949433 -0.59865403 0.6986245 0.039507378 0.19774142 -0.45357412
0.40211013 -0.16123697 0.021644346 0.3546595 0.03113426 -0.78679216 -0.9613733 0.440755
-0.15335926 -0.35225436 -0.06737863 -0.12755695 -0.7144418 -0.35435596 0.03084049 0.007893662
-0.111121245 0.00905894 0.033443566 0.115644686 -0.05587952 0.0697258 1.0227138 0.38352385
0.07944472 0.11398107 -0.07268089 -0.45818472 0.1103794 -0.14599349 0.052535336 0.042884935
0.22383906 -0.005854112 -0.0566235 0.082483284 -0.04042729 -0.0153192 -0.041032627 -0.0013864342
-0.28987595 -0.03446348 0.069313645 -0.06407224 0.08951256 0.0983521 0.08403829 0.12911074
0.17178164 -0.03521564 0.008366998 -0.22667986 -0.03625173 -0.035321698 -0.033731572 -0.040878262
0.015034773 -0.08178827 0.1354473 0.10789625 -0.0330028 -0.10273622 0.11903762 0.011444506
0.23280762 -0.0614755 0.035595443 0.1354212 0.26315022 0.03667384 0.14953102 -0.1864078
-0.12896308 0.03779101 0.037452493 -0.028832722 -0.08424833 0.027690986 -0.07593744 -0.120068915
-0.10004471 -0.018165646 0.19950086 0.18554328 0.019755572 -0.0050701103 0.040694658 -0.06308495
0.0833147 -0.08367905 -0.039163843 -0.03849919 0.0141574545 -0.16210082 0.0134422 -0.017281424
-0.086637616 0.016280584 -0.056482732 -0.055335306 -0.038256574 -0.027551785 -0.051279664 -0.07423104
0.082789056 -0.017279638 0.058851663 0.034400556 0.0019575474 -0.089795284 0.03826405 0.06395897
-0.09823973 -2.7988252e-05 0.02424037 -0.05141975 -0.015302854 0.07333401 0.021696612 -0.017112799
0.11227758 -0.042529646 0.122723 -0.12600085 -0.08570252 -0.012895618 -0.10205914 0.09708292
-0.19409512 0.02151478 -0.08849445 -0.038643453 -0.41244283 -0.12483869 -0.17069507 0.013468515
-0.1405052 0.0080485735 -0.086145006 0.18381256 0.19512935 0.051050257 0.043309357 0.07048581
0.23517719 0.0277244 0.0625917 -0.084262714 -0.28969145 -0.066992015 0.07942046 -0.27372262
0.26667756 0.05872293 0.2725133 0.02699382 -0.09604354 0.03094039 -0.18427752 -0.026438138
0.020044612 0.40859514 -0.10316858 0.02313772 0.11815509 0.33311707 -0.037348084 0.0010068162
-0.035630394 -0.034019955 -0.030097479 -0.13256316 0.14073034 -0.022595227 -0.015972612 0.33587617
0.06911017 -0.015485309 -0.052691523 -0.042716976 0.07217774 -0.2407443 -0.032647815 0.18044016
00000000: d287 8abd 819c 873d 7bd6 4e3d 3f4e b5bd
00000010: 1644 e53c 485e 90be 5e71 283e b9b3 16be
00000020: 488a b5bd 6ca9 803d 90fc aabd 8bcc c43c
00000030: 8238 22be fe1d b83c 6ee6 90bc 2c8a f3bc
00000040: ec67 99bc 5bdb 223d 991f afbd 0cfc 953e
00000050: 2f35 4fbb ca0a 88bc 848c d0b8 0ab4 7abe
00000060: c33f 5a3d cdcd f33d 3b7b 563e 9829 233e
00000070: 0afd 60be 0cd3 e53d 0082 e9bd 82f1 193e
00000080: 2f87 9cbd f2d3 0d3e 71cd 803d eaca 66bd
00000090: 128b ecbd 6033 0b3d 03d5 43bd 25d6 0dbd
000000a0: c15b 6d3c 574b d03d a2fc b23d 4106 dbbc
000000b0: e290 bc3b 2343 633c 45df f2bc 873d 493d
000000c0: d90d 0bbc ea58 243e 67a0 aebd 47b2 3e3d
000000d0: 1d47 823e 05e9 ec3d 7e2d 7fbc d295 9e3d
000000e0: a3e7 a73e 0bac ce3e 3c9f a23f c6d5 3dbe
000000f0: f3e9 583c 88d1 65bd cbb4 61be 8fc8 6cbd
00000100: e691 00bc e230 66bc 5257 993e 6441 19bf
00000110: 0ed9 323f 7dd2 213d ba7c 4a3e de3a e8be
00000120: 61e1 cd3e 4e1b 25be 7c4f b13c ee95 b53e
00000130: 470d ff3c 366b 49bf 901c 76bf a4aa e13e
00000140: 360a 1dbe af5a b4be cffd 89bd 4a9e 02be
00000150: a8e5 36bf 256e b5be 32a5 fc3c 6b54 013c
00000160: 8993 e3bd f36b 143c 1ffc 083d 1fd7 ec3d
00000170: ece1 64bd 66cc 8e3d 49e8 823f 3d5d c43e
00000180: eab3 a23d e86e e93d b8d9 94bd 3097 eabe
00000190: 980e e23d 517f 15be 4b2f 573d 1da8 2f3d
000001a0: 1136 653e dad3 bfbb 0bee 67bd ffec a83d
000001b0: 1697 25bd 62fd 7abc d411 28bd 03b9 b5ba
000001c0: 9f6a 94be 9429 0dbd 50f4 8d3d 4e38 83bd
000001d0: 5c52 b73d d36c c93d 441c ac3d 9b35 043e
000001e0: 87e7 2f3e 463e 10bd bc15 093c c41e 68be
000001f0: b27c 14bd 7cad 10bd 1e2a 0abd f76f 27bd
00000200: 6954 763c 9c80 a7bd b2b2 0a3e b6f8 dc3d
00000210: f22d 07bd 5e67 d2bd ffc9 f33d bd81 3b3c
00000220: 1f65 6e3e bccd 7bbd 87cc 113d dbab 0a3e
00000230: a0bb 863e 4f37 163d a91e 193e b0e1 3ebe
00000240: e60e 04be bfca 1a3d c967 193d 9a32 ecbc
00000250: 638a acbd 35d8 e23c 1785 9bbd b1e6 f5bd
00000260: 3ee4 ccbd 1fd0 94bc f449 4c3e 0fff 3d3e
00000270: 70d6 a13c 2b23 a6bb 71af 263d af32 81bd
00000280: e6a0 aa3d ec5f abbd 446a 20bd 54b1 1dbd
00000290: abf4 673c c2fd 25be ac3c 5c3c c691 8dbc
000002a0: 106f b1bd dc5e 853c 705a 67bd 46a7 62bd
000002b0: edb2 1cbd 48b4 e1bc a00a 52bd 7206 98bd
000002c0: 4f8d a93d 078e 8dbc 710e 713d 99e7 0c3d
000002d0: 324a 003b 97e6 b7bd c4ba 1c3d ecfc 823d
000002e0: e931 c9bd 50c8 eab7 be93 c63c 849d 52bd
000002f0: d2b8 7abc 2430 963d 18bd b13c 2430 8cbc
00000300: caf1 e53d 9133 2ebd 3256 fb3d 5e06 01be
00000310: ce84 afbd 2448 53bc 6204 d1bd 69d3 c63d
00000320: dfc0 46be c43f b03c 943c b5bd 9948 1ebd
00000330: b52b d3be 6dab ffbd b0ca 2ebe 0cab 5c3c
00000340: 98e0 0fbe 2ade 033c cb6c b0bd 5c39 3c3e
00000350: fdcf 473e 131a 513d 2765 313d dd5a 903d
00000360: 4ad2 703e 481e e33c 1430 803d ee91 acbd
00000370: 7052 94be 1c33 89bd 32a7 a23d 5f25 8cbe
00000380: f689 883e 7487 703d dd86 8b3e 2522 dd3c
00000390: 7ab2 c4bd b376 fd3c 3fb3 3cbe cb94 d8bc
000003a0: 9934 a43c 6233 d13e 0c4a d3bd 518b bd3c
000003b0: 4cfb f13d 528e aa3e 4efa 18bd 25f7 833a
000003c0: 2df1 11bd 8258 0bbd fd8e f6bc a3be 07be
000003d0: 9d1b 103e a019 b9bc ffd8 82bc f6f7 ab3e
000003e0: a289 8d3d 18b6 7dbc 11d3 57bd fff7 2ebd
000003f0: ecd1 933d ac85 76be b7b9 05bd 4ec5 383e

network.4.bias f4 [50]
0.028921323 -0.39981416 0.061344165 0.06719152 -0.049571365 -0.14348859 -0.0919787 -0.053461786
-0.04750057 0.10494362 -0.09450157 -0.18001388 0.43510997 0.1862021 -0.24498363 -0.012233395
0.06418342 -0.080680154 -0.09586976 0.00048468352 0.0064912555 -0.16835922 0.0855107 0.19398287
0.017224334 -0.37141162 -0.05386894 0.029199203 0.12970725 0.0051211687 -0.2576502 0.041284084
0.13136077 0.08534314 0.02179569 -0.024737122 -0.16136056 -0.18554468 -0.12261706 -0.12887253
0.095246844 0.21507435 0.11355539 -0.02033888 -0.1033348 -0.0367186 -0.13103043 -0.157704
-0.021209773 0.04805469
00000000: 69ec ec3c 71b4 ccbe 0544 7b3d b59b 893d
00000010: 580b 4bbd acee 12be 545f bcbd bffa 5abd
00000020: f58f 42bd aeec d63d 0a8a c1bd 8f55 38be
00000030: bcc6 de3e c3ab 3e3e fddc 7abe 946e 48bc
00000040: 9972 833d a33b a5bd 5d57 c4bd 1f1d fe39
00000050: 99b4 d43b 5c66 2cbe 3c20 af3d 72a3 463e
00000060: 0c1a 8d3c aa29 bebe ada5 5cbd 2b33 ef3c
00000070: fad1 043e 7acf a73b baea 83be 8019 293d
00000080: 7083 063e 62c8 ae3d e08c b23c 81a5 cabc
00000090: b43b 25be 6dff 3dbe a71e fbbd 29f7 03be
000000a0: c710 c33d 733c 5c3e ba8f e83d b99d a6bc
000000b0: 32a1 d3bd 3e66 16bd d72c 06be 287d 21be
000000c0: 1ec0 adbc ffd4 443d

network.6.weight f4 [1, 50]
-0.00042085146 0.4597303 0.00019880774 -0.0009032926 0.00033335894 -0.17095186 0.4624551 -0.29040784
0.3884663 0.54866356 -0.41959405 0.12666523 -0.91710144 0.390988 -0.21957442 0.12002483
-0.3688772 -0.23378775 -0.04240312 0.15668178 0.9096758 -0.6883616 0.3778371 -0.09094117
-0.0014362879 0.21039587 0.5745063 -0.1549869 -0.13417533 0.33117583 -0.27072647 -0.22013795
0.47135565 0.2524291 0.7346019 0.14222698 0.18737312 0.3541635 -0.43905282 -0.32623133
-0.31439182 0.08167319 -0.22022872 -0.06424077 0.8404085 0.046178397 0.24000302 -0.13181964
0.8953839 -0.5024849
00000000: baa5 dcb9 c561 eb3e 0c77 5039 f1ca 6cba
00000010: aec6 ae39 010e 2fbe eac6 ec3e 56b0 94be
00000020: 0ee5 c63e 3775 0c3f 08d5 d6be 88b4 013e
00000030: 29c7 6abf 942f c83e 1ed8 60be 94cf f53d
00000040: 79dd bcbe 0e66 6fbe e5ae 2dbd 3071 203e
00000050: 83e0 683f 7738 30bf dd73 c13e 5d3f babd
00000060: d341 bcba 0472 573e d812 133f e3b4 1ebe
00000070: 4265 09be e18f a93e a99c 8abe d86b 61be
00000080: 8755 f13e 633e 813e df0e 3c3f f3a3 113e
00000090: bdde 3f3e eb54 b53e 88cb e0be cb07 a7be
000000a0: f7f7 a0be 4644 a73d a383 61be aa90 83bd
000000b0: 0325 573f 8f25 3d3d 5ac3 753e bafb 06be
000000c0: e137 653f daa2 00bf

exp_avg f4 [50, 2]
-0.0030635374 0.003546171 -0.0014543365 0.0017789822 -0.00080887694 0.00038438372 0.0021715038 -0.0013801351
-0.0022824097 0.0022665425 0.0022501748 -0.0014371066 0.002553875 0.0017732105 0.0012911867 -0.0006767628
0.0044706357 0.0049347333 0.0025635967 0.00011655642 -0.0017361321 0.0056364927 0.0005694766 -0.0003603337
-0.002688142 0.0019217471 0.005042568 0.002903394 0.0033530458 0.0045390404 0.001189079 0.00094675773
-0.0030315646 -0.00223401 0.003645227 0.003269476 0.00250172 -0.0023866952 -0.0051628985 -0.0017577843
0.0019696713 -0.0027379424 -0.0018625326 -0.00011665074 -0.0019608273 0.0020135127 0.0011199734 -0.00017386054
0.0020695177 -0.0026760215 0.0004032333 -0.0016489186 0.00029486069 0.0006204499 0.001239482 0.00040463876
0.0009728248 -8.115276e-05 0.001738785 -0.0007733636 -0.0029569163 0.0025428073 0.00083992956 0.00030475427
-0.0004824798 -0.0005097894 0.0026827978 -0.002218017 -0.0006322826 2.6362215e-05 -0.00038405525 -0.0002876555
-0.0013559879 -0.0004345435 -0.001368689 -0.0036106056 0.0027877686 -0.002851904 -0.0025177323 0.003084226
5.908476e-05 -0.00028886215 0.004344204 0.004091295 -0.0010094813 -0.0006404913 0.0023661007 -0.0010239895
-0.00065447803 0.0007782002 -0.0008700163 -0.00055165857 -0.0038566508 0.003957226 0.0014137839 -0.0017895739
-0.0026076601 0.0024858655 0.0036304095 -0.0057717483
00000000: a1c5 48bb e066 683b 6f9f beba bd2c e93a
00000010: d00a 54ba 1c87 c939 ca4f 0e3b a6e5 b4ba
00000020: 7b94 15bb 468a 143b ab77 133b 4c5d bcba
00000030: ea5e 273b 126b e83a 093d a93a c868 31ba
00000040: 697e 923b 8bb3 a13b 0402 283b c06f f438
00000050: ed8e e3ba 54b2 b83b ed48 153a 2ceb bcb9
00000060: 8a2b 30bb 22e3 fb3a 203c a53b de46 3e3b
00000070: c6be 5b3b 3bbc 943b dfda 9b3a d62f 783a
00000080: 37ad 46bb 7868 12bb c3e4 6e3b b444 563b
00000090: e6f3 233b 1a6a 1cbb 882d a9bb 7465 e6ba
000000a0: 9a15 013b 0d6f 33bb 3920 f4ba 64a2 f4b8
000000b0: 3981 00bb 23f5 033b 12cc 923a 554e 36b9
000000c0: bfa0 073b 3160 2fbb 0f69 d339 8720 d8ba
000000d0: 8897 9a39 b0a5 223a 1d76 a23a b225 d439
000000e0: 2b05 7f3a 8e30 aab8 f1e7 e33a 8dbb 4aba
000000f0: d3c8 41bb 3aa5 263b b82e 5c3a 6dc7 9f39
00000100: 58f5 fcb9 63a3 05ba e1d1 2f3b 265c 11bb
00000110: c4bf 25ba 6d24 dd37 065b c9b9 78d0 96b9
00000120: 67bb b1ba 71d3 e3b9 9565 b3ba e99f 6cbb
00000130: ffb2 363b 02e7 3abb 8a00 25bb ba20 4a3b
00000140: c7d1 7738 6c72 97b9 d359 8e3b 4510 863b
00000150: 9250 84ba a5e6 27ba 9510 1b3b 6337 86ba
00000160: 4791 2bba 2200 4c3a ce11 64ba 2e9d 10ba
00000170: ddbf 7cbb 9eab 813b b74e b93a 2390 eaba
00000180: 47e5 2abb e7e9 223b 2aec 6d3b ef20 bdbb

exp_avg_sq f4 [50, 2]
0.0027692984 0.002091122 0.000102104415 9.6470096e-05 9.695664e-05 0.000120734665 0.0022415358 0.0022646207
0.00093458936 0.00077914743 0.0015812379 0.0017994038 0.0014164068 0.0010217456 0.00034878697 0.00030588754
0.003275674 0.0021106997 0.00064987317 0.00062818784 0.0041301376 0.002936434 4.9189934e-05 4.0423914e-05
0.0025770986 0.002544107 0.00277926 0.0018500619 0.002409229 0.002212615 0.0014400315 0.0023111228
0.0013240231 0.000939886 0.0018646929 0.0011466442 0.0006654672 0.00046036943 0.0018108981 0.0017733196
0.0017098766 0.0010734239 0.0010836982 0.0015698787 0.00096551614 0.0007425845 0.0010995421 0.0013335282
0.000717643 0.00043397048 0.0005430485 0.00041824905 0.00016022414 0.00017015009 0.00087326363 0.0009982454
0.00013499991 9.275257e-05 0.0012887627 0.0016070674 0.0008305295 0.0005201654 0.0003820973 0.00046245527
0.0002936919 0.00023238655 0.0017226656 0.0013640526 0.00014321868 0.000100932375 8.4084655e-05 0.00010151921
0.00048435392 0.0007656954 0.0012132555 0.0011353143 0.0029055728 0.002720268 0.0030047437 0.0017566796
0.00014629608 9.276105e-05 0.0040302896 0.002607721 0.00021158507 0.00016546702 0.0011940777 0.0015698079
0.00021058714 0.00022988272 0.00051173195 0.00050161674 0.0026512477 0.0016108123 0.00054092094 0.00042377735
0.0021317708 0.0015450843 0.0055220905 0.004098591
00000000: 1e7d 353b 350b 093b e420 d638 fd4f ca38
00000010: 3355 cb38 ee32 fd38 bbe6 123b 086a 143b
00000020: 3bff 743a b33f 4c3a 8a41 cf3a f9d9 eb3a
00000030: baa6 b93a 18ec 853a 65dd b639 885f a039
00000040: b1ac 563b aa53 0a3b 405c 2a3a f9ac 243a
00000050: 1b56 873b 3071 403b 4a51 4e38 d98c 2938
00000060: 8ae4 283b 08bb 263b 3f24 363b c77d f23a
00000070: 28e4 1d3b 8501 113b 70bf bc3a 3576 173b
00000080: d88a ad3a af62 763a b668 f43a ff4a 963a
00000090: bf72 2e3a bd5d f139 a85b ed3a bb6e e83a
000000a0: f01d e03a 21b2 8c3a e10a 8e3a 63c4 cd3a
000000b0: b11a 7d3a 01aa 423a 831e 903a c8c9 ae3a
000000c0: 3520 3c3a 8886 e339 5e5b 0e3a 7048 db39
000000d0: d701 2839 516a 3239 bbeb 643a 8fd7 823a
000000e0: c38e 0d39 2884 c238 b3eb a83a 3ca4 d23a
000000f0: e4b7 593a b65b 083a 3b54 c839 b275 f239
00000100: a9fa 9939 caac 7339 11cb e13a 03ca b23a
00000110: f92c 1639 a8ab d338 9b56 b038 b6e6 d438
00000120: e2f0 fd39 f3b8 483a 1906 9f3a d4ce 943a
00000130: 6c6b 3e3b 8646 323b 3ceb 443b 6340 e63a
00000140: 0e67 1939 b688 c238 8510 843b 4ce6 2a3b
00000150: efdc 5d39 3781 2d39 9982 9c3a 03c2 cd3a
00000160: 0ed1 5c39 ac0c 7139 c025 063a ee7e 033a
00000170: 8ec0 2d3b e421 d33a 97cc 0d3a 6f2e de39
00000180: 2eb5 0b3b 6d84 ca3a a7f2 b43b 794d 863b

exp_avg f4 [50]
0.0003085513 0.00042046473 -7.079659e-05 0.00018763669 0.00021318071 -1.419137e-06 7.0470785e-05 0.00055591913
0.00015616835 6.164157e-05 0.0005496918 -0.00012807848 -0.00015489786 0.000104121886 3.1867516e-05 4.4406133e-05
-5.5881843e-05 0.0001048267 -0.00046508556 2.9030925e-05 -5.820135e-05 -0.0002212236 0.00014305834 -0.000110265275
-0.00035202914 -0.000174108 -0.00016052614 9.393932e-05 0.00027539209 7.1964364e-06 0.0005024431 -0.00014051603
1.461173e-05 -9.103512e-05 -0.00024329676 -0.0004583407 0.00013323013 -4.9603434e-05 -7.4010226e-05 0.00014958343
4.5256453e-05 0.00053447974 0.00016149468 -0.00013551668 0.00016440671 0.00012904347 0.00030582323 -0.00020372792
0.00016847969 -0.00081128994
00000000: 0ec5 a139 d271 dc39 a178 94b8 57c0 4439
00000010: 4389 5f39 2d79 beb5 b7c9 9338 1abb 113a
00000020: 1fc1 2339 9145 8138 3119 103a ce4c 06b9
00000030: 146c 22b9 035c da38 7ca9 0538 b940 3a38
00000040: ac62 6ab8 68d6 db38 bad6 f3b9 7087 f337
00000050: 391d 74b8 42f8 67b9 ee01 1639 383e e7b8
00000060: 8d90 b8b9 c390 36b9 e852 28b9 4a01 c538
00000070: 8062 9039 eb78 f136 63b6 033a 7c57 13b9
00000080: e724 7537 1cea beb8 7a1d 7fb9 734d f0b9
00000090: b1b3 0b39 480d 50b8 f035 9bb8 7fd9 1c39
000000a0: bfd1 3d38 541c 0c3a e656 2939 7b19 0eb9
000000b0: 9764 2c39 d84f 0739 e656 a039 cc9f 55b9
000000c0: eca9 3039 bfac 54ba

exp_avg_sq f4 [50]
2.4442297e-05 4.1245266e-06 4.901537e-06 2.3765797e-05 3.50173e-06 2.0724981e-05 4.777652e-06 1.7808772e-05
1.34511465e-05 5.060906e-06 2.1254242e-05 2.4698936e-06 4.201847e-05 1.1230064e-05 1.0430045e-05 2.4449966e-05
6.3074604e-06 7.824312e-06 7.84155e-06 9.491996e-06 5.6521408e-06 2.7909005e-05 1.1304394e-05 1.0784104e-05
7.976805e-06 3.9040906e-06 2.4646351e-06 6.028544e-06 1.1573756e-05 2.814983e-05 1.1300993e-05 4.446247e-06
6.239771e-06 1.3593835e-05 5.3796693e-06 3.434382e-06 9.913348e-06 1.567073e-05 3.3374163e-05 1.7695118e-05
1.1319956e-05 1.84901e-05 6.116937e-06 2.1885819e-05 4.3215578e-06 3.7176615e-06 1.1943138e-05 5.196213e-06
9.577805e-06 2.8170238e-05
00000000: 6f09 cd37 6a65 8a36 e277 a436 a95c c737
00000010: 43ff 6a36 8fda ad37 b84f a036 0c64 9537
00000020: 3cac 6137 dad0 a936 234b b237 73c0 2536
00000030: fd3c 3038 c268 3c37 b4fc 2e37 e719 cd37
00000040: aca4 d336 2a45 0337 338f 0337 d03f 1f37
00000050: 85a7 bd36 221e ea37 01a8 3d37 60ed 3437
00000060: 1ed4 0537 e2ff 8236 1c66 2536 cc48 ca36
00000070: e72c 4237 4d23 ec37 6599 3d37 f930 9536
00000080: 3a5f d136 1411 6437 0283 b436 3c7a 6636
00000090: 8151 2637 a374 8337 3cfb 0b38 fa6f 9437
000000a0: d7ea 3d37 301b 9b37 1740 cd36 7097 b737
000000b0: e601 9136 f07c 7936 635f 4837 215b ae36
000000c0: 5cb0 2037 204f ec37

exp_avg f4 [50, 50]
4.1767453e-06 -1.3550636e-05 -8.169794e-05 -1.1671505e-05 2.5871132e-05 6.4502674e-06 0.00010660882 0.0001235919
5.8862304e-05 2.4098286e-05 2.2861597e-05 5.9457794e-05 -4.784601e-06 5.244926e-05 5.7721805e-05 -5.5589902e-05
-0.00012664594 6.376501e-05 -4.780757e-05 -7.04185e-05 -5.351072e-05 -1.724648e-05 -6.653154e-06 -4.3559303e-05
-9.85705e-05 -4.0965017e-05 -6.199929e-05 -1.9315112e-05 0.00011106775 4.0168612e-05 -5.291851e-06 -8.872786e-05
6.7259725e-06 -3.683448e-06 -0.00011119171 -0.00011234667 0.0001041856 -7.3671e-05 1.5781536e-05 -3.4248174e-06
-0.0001200304 1.132454e-05 8.970406e-05 -3.7444428e-05 -3.076557e-05 5.638661e-05 3.8123335e-07 -3.200705e-05
4.9080536e-05 2.1535689e-05 -8.529125e-05 -0.00010822029 -9.605258e-05 6.31997e-05 -6.988169e-05 5.535008e-05
-5.4628304e-05 -5.0670384e-05 -4.0314975e-05 2.3015427e-05 -7.819572e-05 9.1432965e-05 -5.9512196e-05 -1.4045029e-05
-4.2270713e-05 8.620267e-05 6.0563554e-05 -2.8395221e-05 0.00011636418 3.304992e-05 9.3765535e-05 -3.8701102e-05
-8.408011e-05 7.790702e-05 0.00011146096 5.9807942e-05 -0.00011023539 5.7028647e-05 8.5850326e-05 3.5237594e-05
-0.00010333702 0.0001050121 0.00010514932 6.765469e-05 -7.316856e-05 -6.972441e-05 -0.000109622444 7.4412106e-05
5.7669502e-05 -7.506043e-05 -4.0958115e-05 3.5944206e-05 0.00011372199 7.944386e-05 -5.6694193e-05 -8.308743e-05
-8.851166e-05 9.795431e-05 -7.92913e-05 7.513955e-05 -9.162905e-05 -0.00011487771 -0.000121615674 5.8001344e-05
-7.064127e-05 5.8187103e-05 1.5151956e-05 4.7463513e-05 -5.3471533e-05 3.29718e-05 -0.000105031635 0.00012384415
-6.2081475e-05 -3.8266844e-05 -4.621264e-05 1.3539064e-05 -2.5579628e-05 -1.6111731e-05 0.00013342572 -2.2251318e-06
9.510412e-05 -4.313288e-05 -8.923581e-05 2.0708367e-05 0.00011258768 3.8740418e-05 -4.6562498e-05 2.4095127e-05
9.020361e-05 5.3719006e-05 -0.00011227185 6.499062e-05 2.7636832e-05 7.650065e-05 -9.4376606e-05 -3.331985e-05
-7.61583e-05 6.0990944e-05 6.509565e-05 -8.761801e-05 -3.5617853e-05 -7.639798e-05 5.157575e-05 5.606201e-05
-2.8073444e-05 -1.7831488e-05 -0.00010214714 9.7931785e-05 -6.1032373e-05 8.822756e-05 9.334538e-05 8.2422936e-05
3.6669993e-05 -5.3208714e-05 6.149416e-05 -6.1430204e-05 -1.9903198e-05 -5.8395388e-05 4.088417e-05 -4.065963e-05
0.000104299375 -5.4447522e-05 6.476619e-05 2.5762994e-05 3.4619112e-05 1.5969448e-06 1.5949427e-05 7.2525095e-06
-0.000101740006 1.3032978e-05 -6.984279e-05 4.9339134e-05 9.7228025e-05 -7.1353875e-06 -6.67897e-05 -2.694285e-05
2.270573e-05 -1.8429278e-05 -4.1564843e-05 -7.1909664e-05 0.00013190524 -1.5686808e-05 -1.2958599e-05 -7.813795e-05
4.403269e-05 3.1346954e-05 1.4722318e-05 -4.5455065e-05 -7.387861e-05 9.607431e-05 5.520024e-05 4.4604734e-05
-2.7671857e-05 -3.79461e-05 3.0803658e-05 1.2598415e-06 0.00011297469 -7.582649e-05 4.1156873e-05 -0.00011034987
-2.8361348e-05 -0.00011880745 -0.00023610548 2.5904827e-05 -4.070588e-05 2.006912e-06 -0.00019620219 0.0002584894
-8.1402664e-05 -3.0792784e-05 -3.413565e-05 0.00020649689 -5.8813184e-06 -6.642841e-05 -8.1890226e-05 0.000108245644
0.00028254918 -9.770728e-05 9.3033006e-05 0.000110874746 7.791371e-05 1.6774165e-05 -1.7936063e-05 8.411404e-05
0.00012583191 5.856594e-05 -0.00022004802 3.940736e-05 0.00023764728 -4.665744e-05 -2.7858632e-05 0.00014314147
0.00018295369 1.6323973e-05 -0.00023756047 -7.318383e-07 -0.00015872616 0.000104608436 -7.4988034e-06 -1.2137661e-05
0.00015714063 4.1591753e-05 0.00022636731 6.549811e-05 1.7419279e-06 -0.0001004986 -2.2689157e-05 6.952398e-05
-7.200389e-05 -6.1303776e-06 -5.885653e-05 -7.4221556e-05 -0.00015515843 3.5848866e-06 -4.653237e-05 -6.6940347e-06
00000000: f825 8c36 8a57 63b7 3f55 abb8 bbd0 43b7
00000010: d505 d937 606f d836 2d93 df38 7398 0139
00000020: ebe2 7638 ad26 ca37 e8c6 bf37 5262 7938
00000030: 698b a0b6 f7fc 5b38 511a 7238 3429 69b8
00000040: 43cc 04b9 94b9 8538 fd84 48b8 a5ad 93b8
00000050: b370 60b8 89ac 90b7 283e dfb6 72b3 36b8
00000060: a2b7 ceb8 dad1 2bb8 9e05 82b8 e306 a2b7
00000070: 0bed e838 b87a 2838 a790 b1b6 6813 bab8
00000080: aaaf e136 2831 77b6 982f e9b8 a99b ebb8
00000090: 387e da38 d17f 9ab8 9762 8437 ead5 65b6
000000a0: d5b8 fbb8 87fe 3d37 801f bc38 a60d 1db8
000000b0: 470a 01b8 a980 6c38 50ac cc34 4f3f 06b8
000000c0: d3db 4d38 8aa7 b437 64de b2b8 53f4 e2b8
000000d0: d66f c9b8 158a 8438 728d 92b8 b227 6838
000000e0: b220 65b8 e986 54b8 e017 29b8 4111 c137
000000f0: 02fd a3b8 b3bf bf38 bc9c 79b8 f1a2 6bb7
00000100: d54b 31b8 b5c7 b438 9f05 7e38 4632 eeb7
00000110: 8b08 f438 159f 0a38 fda3 c438 fe52 22b8
00000120: 2a54 b0b8 0362 a338 26c0 e938 4ada 7a38
00000130: 2d2e e7b8 0b32 6f38 8b0a b438 14cc 1338
00000140: a4b6 d8b8 f139 dc38 9c83 dc38 d6e1 8d38
00000150: 1272 99b8 0239 92b8 1ae5 e5b8 b20d 9c38
00000160: 28e2 7138 c369 9db8 71ca 2bb8 ccc2 1638
00000170: 077e ee38 199b a638 edca 6db8 393f aeb8
00000180: 569f b9b8 d26c cd38 3149 a6b8 3d94 9d38
00000190: f928 c0b8 80ea f0b8 eb0b ffb8 7846 7338
000001a0: 3e25 94b8 ed0d 7438 2835 7e37 8f13 4738
000001b0: 9f46 60b8 334b 0a38 6e44 dcb8 29dc 0139
000001c0: bd31 82b8 b680 20b8 72d4 41b8 d625 6337
000001d0: d593 d6b7 ae27 87b7 32e8 0b39 7953 15b6
000001e0: a372 c738 94e9 34b8 1c24 bbb8 e1b6 ad37
000001f0: 0d1d ec38 357d 2238 1a4c 43b8 e41f ca37
00000200: b22b bd38 5850 6138 7e73 ebb8 934b 8838
00000210: a5d5 e737 f96e a038 0eec c5b8 ebc0 0bb8
00000220: 2db7 9fb8 87d0 7f38 f683 8838 90bf b7b8
00000230: 6164 15b8 da37 a0b8 0a53 5838 2024 6b38
00000240: 437f ebb7 d494 95b7 d437 d6b8 ba60 cd38
00000250: 03fd 7fb8 d006 b938 6bc2 c338 7ada ac38
00000260: 1bce 1938 6c2c 5fb8 6df6 8038 17d4 80b8
00000270: cbf5 a6b7 92ed 74b8 0b7b 2b38 f289 2ab8
00000280: 4dbb da38 955e 64b8 15d3 8738 9c1d d837
00000290: fd33 1138 9b56 d635 22cb 8537 955a f336
000002a0: 405d d5b8 37a8 5a37 9078 92b8 7ef1 4e38
000002b0: e6e6 cb38 836c efb6 7211 8cb8 5403 e2b7
000002c0: 2f78 be37 9398 9ab7 e955 2eb8 35ce 96b8
000002d0: 0b50 0a39 2a97 83b7 c268 59b7 fedd a3b8
000002e0: beaf 3838 897a 0338 e0ff 7637 01a7 3eb8
000002f0: 47ef 9ab8 817b c938 ce86 6738 f815 3b38
00000300: dc20 e8b7 5128 1fb8 2d33 0138 d317 a935
00000310: d3ec ec38 0905 9fb8 db9f 2c38 a36b e7b8
00000320: 88e9 edb7 4428 f9b8 1593 77b9 314e d937
00000330: 9bbb 2ab8 7cae 0636 a0bb 4db9 dc85 8739
00000340: b9b6 aab8 8027 01b8 e02c 0fb8 1687 5839
00000350: 2458 c5b6 7b4f 8bb8 7bbc abb8 f001 e338
00000360: 1c23 9439 32e8 ccb8 b71a c338 6d85 e838
00000370: 9b65 a338 3fb6 8c37 6775 96b7 6266 b038
00000380: bff1 0339 b3a4 7538 b1bc 66b9 5549 2538
00000390: f530 7939 0bb2 43b8 f5b1 e9b7 3f18 1639
000003a0: 42d7 3f39 77ef 8837 a719 79b9 8c73 44b5
000003b0: bb6f 26b9 3a61 db38 3b9e fbb6 dba2 4bb7
000003c0: 1ec6 2439 ce72 2e38 035d 6d39 085c 8938
000003d0: 30cc e935 c6c2 d2b8 9854 beb7 67cd 9138
000003e0: cb00 97b8 8bb3 cdb6 b8dc 76b8 65a7 9bb8
000003f0: 06b2 22b9 e293 7036 c02b 43b8 529d e0b6

exp_avg_sq f4 [50, 50]
1.2623934e-05 3.360649e-05 7.761345e-05 4.8330667e-06 6.4005135e-06 5.0731182e-06 1.3842518e-06 7.5082303e-06
2.464189e-06 1.813662e-06 1.32672485e-05 6.64798e-05 5.7592865e-06 1.305049e-06 1.8671228e-06 8.3190787e-07
2.0948783e-06 5.3716064e-07 2.6581483e-05 5.373091e-07 1.124137e-05 2.9616767e-06 1.2546864e-05 1.1376716e-06
1.30860235e-05 1.839841e-06 2.9962712e-06 1.160041e-06 4.5947618e-05 4.6400855e-06 2.002097e-05 6.579698e-06
2.4749233e-06 8.166742e-06 5.771202e-05 2.6203052e-06 8.468135e-06 3.4930886e-06 6.4816572e-06 1.1094576e-05
3.1708503e-06 3.866824e-06 2.062356e-06 4.6786504e-06 2.129481e-06 9.543694e-07 1.5296842e-05 1.4539092e-05
4.7299723e-06 1.2005232e-05 1.7746793e-06 3.825871e-06 2.834115e-06 6.254103e-07 8.473006e-07 6.321577e-07
1.7030032e-07 2.4107465e-05 5.439072e-07 1.5169765e-07 1.7709046e-06 4.166138e-06 7.3320655e-07 3.014537e-07
4.392066e-07 3.594756e-07 2.7258625e-07 1.6310067e-07 3.1567915e-06 6.973449e-08 1.4344947e-06 3.1879605e-07
1.8524344e-06 3.2971337e-07 1.753259e-06 3.5047813e-07 5.7690187e-07 2.2287047e-07 3.6091164e-06 5.392247e-07
3.2981582e-06 7.812333e-07 5.253145e-07 1.0767465e-06 5.567124e-06 2.6645944e-07 8.5659104e-07 7.950776e-07
8.464722e-07 1.5652549e-06 4.2613175e-07 3.27494e-07 5.2520465e-07 6.516338e-07 2.483149e-07 3.5479619e-07
2.276753e-06 1.7723138e-06 7.022694e-07 1.8792658e-06 1.9117067e-06 4.1122885e-06 6.282719e-06 7.682895e-07
1.0890084e-06 7.5738285e-07 3.3928075e-07 5.757099e-07 6.1242287e-07 2.6062756e-07 2.255131e-06 6.1265687e-06
8.6276805e-07 3.9464214e-07 4.7605633e-07 1.8325059e-07 4.972509e-07 2.0377703e-07 4.3721684e-06 1.5321717e-07
2.027711e-06 4.282159e-07 1.8248511e-06 2.1800501e-07 2.7121603e-06 3.6105834e-07 5.08414e-07 1.9133874e-07
2.7977242e-06 6.362186e-07 2.9176501e-06 1.3432402e-06 3.9076616e-07 1.2730121e-06 3.3610927e-06 5.870627e-07
1.7989453e-06 8.0450314e-07 9.375886e-07 1.6782054e-06 5.350701e-07 9.026092e-07 6.148919e-07 8.07051e-07
3.0064615e-07 2.0800802e-07 2.3179543e-06 2.3394646e-06 8.8047716e-07 1.7086264e-06 1.956403e-06 9.3561835e-07
8.651378e-07 6.048672e-07 9.404755e-07 7.3886906e-07 3.6483164e-07 9.427799e-07 1.5122456e-06 2.4620448e-07
3.20515e-06 7.8740857e-07 8.3689696e-07 1.208908e-06 1.1245406e-06 5.0315936e-07 9.731621e-07 5.7807625e-07
2.270285e-06 1.4464834e-07 1.2743441e-06 4.1558968e-07 2.0722284e-06 3.7803505e-07 1.5039019e-06 2.8582235e-07
1.0848308e-06 2.2020701e-07 8.3722597e-07 9.344874e-07 4.508917e-06 5.258145e-07 9.805897e-07 1.3940455e-06
8.298287e-07 9.907145e-07 5.7136066e-07 1.2902109e-06 1.0883799e-06 2.2010981e-06 5.9695776e-07 1.5209638e-06
1.1971517e-06 4.2019698e-07 4.1724695e-07 4.0773773e-07 3.2369924e-06 1.1890318e-06 5.155989e-07 2.9628193e-06
7.1094384e-08 3.2808882e-07 8.7542696e-07 3.4957033e-08 5.6134482e-08 2.6757919e-08 1.1536831e-06 1.1634191e-06
8.005228e-07 6.3029646e-08 2.4275636e-07 7.3427924e-07 2.6512932e-08 9.386056e-07 6.123818e-07 3.3740625e-07
2.4288415e-06 6.8189564e-07 3.1066185e-07 4.7042323e-07 1.7348556e-07 4.9309325e-08 6.052944e-08 2.4660847e-07
4.7095267e-07 7.2673686e-08 1.096257e-06 1.1765737e-07 8.8205036e-07 6.7654184e-08 2.2723276e-07 3.8284426e-07
8.82462e-07 3.657797e-08 9.393505e-07 1.609987e-06 4.455237e-07 5.1960353e-07 2.7337451e-08 6.4837295e-08
1.4662979e-06 8.6803607e-07 1.3370114e-06 1.1249637e-07 4.543611e-07 2.7462866e-07 1.400352e-07 1.293496e-07
1.10022754e-07 7.986671e-08 1.0631558e-06 4.3064156e-06 1.0072105e-05 9.936681e-07 4.1840724e-07 1.2366203e-06
00000000: 62cb 5337 b2f4 0c38 67c4 a238 ba2b a236
00000010: fec3 d636 c139 aa36 88ca b935 35ef fb36
00000020: 725e 2536 f46c f335 6696 5e37 126b 8b38
00000030: e53f c136 2429 af35 da99 fa35 4650 5f35
00000040: bc95 0c36 6631 1035 4dfb de37 9a3b 1035
00000050: 5199 3c37 38c1 4636 5f80 5237 19b2 9835
00000060: 0b8c 5b37 75f0 f635 8c13 4936 b5b2 9b35
00000070: e1b7 4038 08b2 9b36 b5f2 a737 2dc7 dc36
00000080: dc16 2636 e403 0937 cf0f 7238 80d8 2f36
00000090: 5d12 0e37 ce6a 6a36 037d d936 d722 3a37
000000a0: cbca 5436 c4bf 8136 0267 0a36 4dfd 9c36
000000b0: 34e8 0e36 e217 8035 b851 8037 edec 7337
000000c0: 27b6 9e36 146a 4937 8431 ee35 fb5f 8036
000000d0: ba31 3e36 dee1 2735 0e72 6335 8cb1 2935
000000e0: ccdb 3634 633a ca37 0501 1235 55e2 2234
000000f0: d2af ed35 daca 8b36 92d1 4435 7bd7 a134
00000100: 18cc eb34 f3fd c034 f857 9234 c520 2f34
00000110: 44d9 5336 f1c0 9533 dd88 c035 ff26 ab34
00000120: 29a1 f835 7603 b134 8551 eb35 5929 bc34
00000130: 65dc 1a35 2b4e 6f34 2634 7236 3dbf 1035
00000140: ed55 5d36 f2b5 5135 5603 0d35 ba84 9035
00000150: 3bcd ba36 e80d 8f34 7df0 6535 516d 5535
00000160: 2039 6335 c015 d235 1ac7 e434 6fd2 af34
00000170: cafb 0c35 efeb 2e35 2450 8534 d17a be34
00000180: 52ca 1836 3de0 ed35 9683 3c35 153b fc35
00000190: df4a 0036 4afc 8936 25d0 d236 743c 4e35
000001a0: 0b2a 9235 f44e 4b35 6426 b634 7c8a 1a35
000001b0: 6165 2435 61ec 8b34 db56 1736 d392 cd36
000001c0: f898 6735 34df d334 af94 ff34 8ac3 4434
000001d0: d27a 0535 cecd 5a34 a4b4 9236 0484 2434
000001e0: cf13 0836 8ce5 e534 68ed f435 c314 6a34
000001f0: 8f02 3636 7bd7 c134 f279 0835 cb72 4d34
00000200: 89c0 3b36 9cc8 2a35 d9cc 4336 6249 b435
00000210: 7eca d134 5ddc aa35 228f 6136 a496 1d35
00000220: 4a73 f135 09f5 5735 99ae 7b35 b33e e135
00000230: bda1 0f35 d54a 7235 0d0f 2535 1fa4 5835
00000240: 7e68 a134 cf58 5f34 278e 1b36 b2ff 1c36
00000250: ee59 6c35 f553 e535 bf4a 0336 3427 7b35
00000260: d13b 6835 285e 2235 fc74 7c35 b256 4635
00000270: 14de c334 5713 7d35 5df8 ca35 162e 8434
00000280: 0f18 5736 4e5e 5335 1fa7 6035 c341 a235
00000290: ecee 9635 d910 0735 989d 8235 192d 1b35
000002a0: 335b 1836 a250 1b34 210a ab35 361e df34
000002b0: 9d10 0b36 bef4 ca34 add9 c935 2073 9934
000002c0: 819a 9135 0b72 6c34 bbbd 6035 7cd9 7a35
000002d0: 4d4b 9736 b325 0d35 ce9c 8335 0a1b bb35
000002e0: 65c1 5e35 b1f8 8435 9b5f 1935 4f2b ad35
000002f0: 7314 9235 94b6 1336 a03e 2035 eb23 cc35
00000300: d2ad a035 6f97 e134 fc01 e034 0ce7 da34
00000310: 1b3b 5936 d296 9f35 b067 0a35 d9d4 4636
00000320: 8dac 9833 2f24 b034 e2fe 6a35 aa23 1633
00000330: 8418 7133 49d9 e532 40d8 9a35 c726 9c35
00000340: 82e3 5635 ea5a 8733 2e54 8234 491b 4535
00000350: 8ebe e332 7cf4 7b35 8f62 2435 c324 b534
00000360: 2eff 2236 830b 3735 0ac9 a634 7a8e fc34
00000370: 5947 3a34 2dc8 5333 69fc 8133 9c65 8434
00000380: 3ed7 fc34 c810 9c33 1b23 9335 d3aa fc33
00000390: 0ac6 6c35 4849 9133 44fd 7334 b789 cd34
000003a0: 54e2 6c35 e719 1d33 ad27 7c35 bb16 d835
000003b0: 5030 ef34 e27a 0b35 b1d3 ea32 ae3c 8b33
000003c0: 9dcd c435 fc02 6935 5d73 b335 8995 f133
000003d0: eaee f334 ad70 9334 955c 1634 59e3 0a34
000003e0: a645 ec33 3083 ab33 c1b1 8e35 d47f 9036
000003f0: 5dfb 2837 2d5e 8535 74a1 e034 f3f9 a535

exp_avg f4 [50]
-0.0001524368 0.0001284806 -3.685671e-05 6.554422e-05 0.00023529412 3.7427984e-05 2.9781962e-05 -0.00017550722
-0.00018409392 0.00013463787 0.000106656364 0.00038018206 3.7787973e-05 3.7121066e-05 -0.00021166264 0.0003114036
-1.45954755e-05 -0.0004931301 0.00024909983 -2.9254716e-06 -4.595055e-05 -1.0629235e-05 -1.1629662e-05 -0.00012097506
-3.1649004e-05 4.6824964e-05 7.473385e-05 0.00062982977 -2.493808e-06 0.00023183119 5.1404975e-05 3.1002193e-05
1.8063685e-06 1.03555385e-05 2.7794023e-05 -7.7295874e-05 2.9281844e-05 1.1292485e-05 3.22697e-05 -9.636318e-05
-9.175974e-05 0.00022570298 -0.00013112086 -9.3977185e-05 -0.0003789847 -0.00027178694 -0.00015573303 0.00013540006
0.00011515602 -9.475695e-05
00000000: 71d7 1fb9 c0b8 0639 9796 1ab8 c974 8938
00000010: 49b9 7639 fefb 1c38 47d4 f937 5c08 38b9
00000020: 5609 41b9 942d 0d39 b3ac df38 2c53 c739
00000030: 877e 1e38 71b2 1b38 c2f1 5db9 e243 a339
00000040: 17df 74b7 6745 01ba 9d99 8239 3853 44b6
00000050: 07bb 40b8 3754 32b7 051d 43b7 feb3 fdb8
00000060: dcbe 04b8 ec65 4438 6eba 9c38 291b 253a
00000070: 4c5b 27b6 b617 7339 ac9b 5738 5a08 0238
00000080: 5972 f235 b3bc 2d37 3627 e937 e819 a2b8
00000090: 48a2 f537 db74 3d37 5459 0738 9716 cab8
000000a0: 236f c0b8 afaa 6c39 7d7d 09b9 9e15 c5b8
000000b0: 77b2 c6b9 a07e 8eb9 444c 23b9 2dfa 0d39
000000c0: eb7f f138 40b8 c6b8

exp_avg_sq f4 [50]
3.0301426e-06 6.8547143e-07 6.429155e-07 1.1055745e-06 1.0670988e-06 1.4875661e-06 3.3597591e-06 4.165501e-06
2.8707861e-06 2.8928293e-06 4.537008e-06 6.9509642e-06 7.680051e-07 6.7833565e-07 4.5902408e-07 2.787556e-06
2.5293614e-06 1.4723537e-05 4.722393e-06 5.102681e-07 1.158309e-06 7.129328e-07 2.3599156e-07 4.4674825e-06
2.0516206e-06 5.5748037e-06 2.4073017e-06 1.6845715e-05 2.921349e-06 8.922807e-06 6.3651925e-07 9.125983e-08
2.7056924e-06 1.5937612e-06 6.1660944e-07 2.7635308e-06 3.469001e-06 2.7786841e-06 1.0147181e-06 6.235144e-07
3.0620265e-07 8.581694e-06 2.1562576e-06 7.6870083e-07 1.8612214e-05 4.0028103e-06 1.0622628e-05 2.0279713e-06
1.9269435e-05 2.4412545e-06
00000000: 7459 4b36 3d01 3835 d194 2c35 4063 9435
00000010: 3c39 8f35 62a8 c735 3978 6136 62c5 8b36
00000020: bba7 4036 6e22 4236 9a3c 9836 543c e936
00000030: e928 4e35 df16 3635 ca6f f634 d911 3b36
00000040: 19be 2936 1c05 7737 0c75 9e36 5bf9 0835
00000050: 3277 9b35 5e60 3f35 de64 7d34 62e7 9536
00000060: 93ae 0936 330f bb36 218d 2136 e64f 8d37
00000070: 650c 4436 2ab3 1537 45dd 2a35 9ffa c333
00000080: 7193 3536 38e9 d535 1485 2535 1975 3936
00000090: fccc 6836 6e79 3a36 7331 8835 955f 2735
000000a0: 2c64 a434 18fa 0f37 39b4 1036 b858 4e35
000000b0: 6d21 9c37 e14f 8636 d737 3237 4818 0836
000000c0: cca4 a137 6fd4 2336
